captcha_model.quant.onnx (onnx, 419686 bytes, 89 tensors)

dense2/bias:0 f4 [23]
00000000: f729 40c0 959d ffbe 9967 e2be 1dc0 5bbe
00000010: 62bc 75be be02 1dbf 7a73 893e 8657 343e
00000020: 7574 e5bd 3743 f7be 0360 fc3a fbe3 24bf
00000030: 2743 5fbf 5d0d c03e b300 0dbe 9ce0 4d3e
00000040: 4b0a b83e cca6 d13d 63db 2abd 3ca8 023e
00000050: 5cd7 0dbf 2c7e 873e f869 693f
-3.0025613 -0.49924913 -0.44219664 -0.21460004 -0.23997644 -0.6133231 0.26845914 0.17611513
-0.11203853 -0.48293468 0.0019254688 -0.6441037 -0.8721184 0.37510195 -0.13769798 0.20105213
0.35945353 0.10236892 -0.04171313 0.12759489 -0.5540674 0.2646345 0.9117732

scale f4 [128]
00000000: 2d9e a13c 07ed 483c 9466 ab3c 3106 653c
00000010: 3242 753c e283 7c3c f56e 9c3c 8a27 783c
00000020: f34d 6c3c 2bb2 803c 5722 c93c 38a4 5f3c
00000030: 0e5b e23c 5df8 573c 9608 873c a111 5a3c
00000040: 1346 ce3c be82 743c 3002 9a3c 550e 403c
00000050: 98f7 4f3c 2719 7d3c 8b22 593c a0d6 663c
00000060: ccc0 673c 21b9 803c 7c6d 773c 7c30 6d3c
00000070: b3c0 a73c ba65 553c 8ee5 553c 9fb8 583c
00000080: b437 843c e0cd 743c a212 833c 1be5 673c
00000090: bab8 833c fbae 5a3c 4ce9 543c 31fc 533c
000000a0: a490 8f3c 1ee8 8d3c f69a 433c 7670 893c
000000b0: 68dc 643c 8ed7 833c ee7e a93c 7235 673c
000000c0: 9c11 543c bd40 6a3c 737c 863c 2417 4f3c
000000d0: 53d8 783c 4b6a 423c 4119 6a3c 4a1c 2c3c
000000e0: 14e1 4d3c 18b6 593c 3388 b73c 4d37 6a3c
000000f0: 58d1 953c 6eb8 833c cea6 953c cee8 b23c
00000100: aa51 3d3c 7546 6c3c 9e3e 533c e525 0d3c
00000110: 1431 be3c 4125 2e3c d0b3 673c abc2 4b3c
00000120: 270c 7a3c 9707 873c b018 c23c 8d7d 4b3c
00000130: 4b63 443c 679f 693c 571b 1d3c cf81 493c
00000140: 1b95 8f3c eb88 7e3c 7772 733c dc04 4f3c
00000150: f09c 823c 9798 6b3c cb88 703c 19b9 5c3c
00000160: 6316 963c 072c 753c a325 403c e9aa 783c
00000170: 664a 7e3c 46b7 733c cf17 5d3c c741 523c
00000180: 4e4c a53c c85f 8f3c 9e2d 7d3c 63b1 8c3c
00000190: f27f 873c 114d 4d3c b35e 623c c476 2b3c
000001a0: 49f6 603c f0f2 9a3c 8ad6 e23c a4ee 883c
000001b0: 901b 4e3c abae 7e3c c695 773c 469c 563c
000001c0: a0fb ca3c eeb3 853c e91a 403c 2cea 883c
000001d0: 73a6 653c 6e25 5e3c 91eb 563c 9e8f 6b3c
000001e0: a337 703c 3236 403c 911e 403c 4953 443c
000001f0: 2330 a13c e109 8e3c 87bf 5a3c 7199 8a3c
0.019728744 0.012263543 0.020922936 0.013978527 0.0149693955 0.015412303 0.019095877 0.015146146
0.014422881 0.015709957 0.024552507 0.013649993 0.027631309 0.013181773 0.016483586 0.013309867
0.025179898 0.0149237495 0.018799871 0.011722167 0.012693308 0.015447891 0.013252865 0.0140892565
0.014145087 0.015713276 0.015101787 0.014476892 0.020477628 0.013024742 0.013055218 0.013227611
0.016139843 0.014941663 0.016000096 0.014153744 0.016079295 0.013347383 0.012995075 0.012938545
0.017525025 0.017322596 0.011938801 0.016777258 0.013968565 0.016093995 0.020690408 0.014111863
0.0129436515 0.014297661 0.016416764 0.0126397945 0.015188294 0.0118661625 0.014288248 0.0105047915
0.01256587 0.013288043 0.022403812 0.014295411 0.0182883 0.016079154 0.018268015 0.021839526
0.011555115 0.014421095 0.012893347 0.008614992 0.023216762 0.010628999 0.014141992 0.012436549
0.015261686 0.016483111 0.023693413 0.01242007 0.011986564 0.014259196 0.009589038 0.012299015
0.017527154 0.0155355735 0.0148588335 0.012635436 0.015943974 0.014379642 0.0146810515 0.013471865
0.018321222 0.01496411 0.011727723 0.015177467 0.015520668 0.014875239 0.013494446 0.012833065
0.020177986 0.017501727 0.0154527705 0.017174428 0.016540501 0.012530581 0.013816523 0.010465328
0.013730594 0.01891467 0.02769019 0.016715355 0.012579814 0.015544574 0.015111392 0.013098782
0.024778187 0.016321149 0.011725166 0.016713224 0.014016735 0.013558729 0.013117687 0.014377503
0.014661702 0.011731671 0.011726038 0.011982747 0.019676274 0.017338695 0.013351328 0.01691887

bias f4 [128]
00000000: 1b8f b2bd 4006 50be 6ebd 1dbd 709b 4fbe
00000010: 8ffd b9bd 7ec5 f8bd d83b a0bd 6c74 babd
00000020: b4e5 73be 8f92 91bd 6886 2bbd 98f7 1cbe
00000030: f8bc 4ebd c3db babd 8396 21be fcff 59bd
00000040: 0588 14bd 6884 b2bd b5aa b6bd 8f49 83be
00000050: 5793 20be 0c54 8abd 4c75 ecbd 8b11 e0bd
00000060: 388f debd 1f76 c9bd 9ac9 bbbd ea1f e9bd
00000070: f63b 45bd 75d8 e0bd 21e9 d9bd 8618 2bbe
00000080: eb61 66bd d66a c1bd 0d9d d9bd 1860 f1bd
00000090: 8454 c2bd b656 2cbe 289a 8ebe 6e07 c5bd
000000a0: 86d0 a1bd 6793 93bd f25f 75be 3432 afbd
000000b0: 2e77 07be 41b4 a6bd d5a1 28bd 88c5 d4bd
000000c0: 06f9 04be 17b8 00be 8739 94bd 60ac 8ebe
000000d0: 6b95 2cbe 4247 debd aca6 6bbd 4067 e8bc
000000e0: 9035 f2bd 7ade 80bd e22a 68bd 9eca 4bbe
000000f0: b0c3 2ebd b983 09be 4d56 f3bd 8e60 76bd
00000100: 582c cebe eb81 f8bd 3b9a 78be 23b1 cabd
00000110: eae7 08bd d4e2 0fbe 5180 c4bd ec87 b4bd
00000120: cabb 73bd d254 6dbf 50b5 8abc 4e77 20be
00000130: 8af9 fcbd 65f9 a7bd 0014 9dbd c018 45be
00000140: 90e3 0bbd 8cc7 65be d45c 8abe 305e 8cbe
00000150: 6ae6 cbbd a490 01bf fea3 14bf b4c7 55be
00000160: c810 c6bd 3aa7 80bf 409b 5ebe a92c 45be
00000170: c01c 1dbe 8f55 cabd b3f2 55bf afc5 89be
00000180: d401 7dbd 8311 7abd 508b 95bd 162e 53bd
00000190: 81ad 1fbe 1ed2 1abe 3755 09bf e52a 8ebd
000001a0: 708a 62be 0edd 61bd 6849 a83c f035 0ebc
000001b0: 64ed 9cbd 6adc 84bd f457 b0bf e85b 3dbe
000001c0: 4094 e7ba 2c02 49be 3d0e 09be 88f4 5bbd
000001d0: 8ad1 37be 01b4 a1be d456 05be e9d6 f1be
000001e0: ae31 0fbf 401c 8bbe 4559 05be b644 9dbe
000001f0: 3213 25bd 3fcb 8bbe 5933 21be a400 63bd
-0.087187015 -0.20314884 -0.038510732 -0.20274138 -0.090815656 -0.12147044 -0.07823914 -0.09104237
-0.23818094 -0.07108032 -0.041876227 -0.15328825 -0.050473183 -0.091239475 -0.15780072 -0.05322264
-0.03626253 -0.08716661 -0.089192785 -0.25642058 -0.15681206 -0.06754312 -0.1154581 -0.10940846
-0.108671606 -0.09836983 -0.09169312 -0.1138304 -0.048152886 -0.10978786 -0.10640169 -0.16708574
-0.056245726 -0.094442055 -0.10625658 -0.117859066 -0.09488776 -0.16829953 -0.27851987 -0.09620558
-0.07901101 -0.07205849 -0.23962381 -0.08554497 -0.13229057 -0.081398495 -0.04116996 -0.103892386
-0.1298562 -0.12570225 -0.07237535 -0.27865887 -0.16853873 -0.10853435 -0.057531998 -0.028369546
-0.118266225 -0.06292434 -0.05668152 -0.19901511 -0.04266709 -0.13429154 -0.11881695 -0.060150675
-0.40268207 -0.12134155 -0.24277584 -0.098970674 -0.033424295 -0.14051372 -0.09594787 -0.088149875
-0.05950526 -0.9270755 -0.01693216 -0.15670511 -0.12352283 -0.08201865 -0.0766983 -0.19247723
-0.034152567 -0.22439402 -0.27023947 -0.2741561 -0.09956057 -0.5061133 -0.5806273 -0.20876962
-0.096711695 -1.0051033 -0.2173891 -0.19255318 -0.15342999 -0.098796 -0.83573455 -0.26908633
-0.06176932 -0.061051857 -0.073019624 -0.051557623 -0.1559353 -0.15119216 -0.5364565 -0.06941775
-0.22123122 -0.055142455 0.020542815 -0.008679852 -0.07662466 -0.06487353 -1.3776841 -0.1849209
-0.0017668083 -0.19629735 -0.13384338 -0.0537 -0.17951027 -0.31582645 -0.13021404 -0.47234276
-0.5593518 -0.2716999 -0.13022335 -0.30716485 -0.04030151 -0.27303502 -0.15742244 -0.055420533

mean f4 [128]
00000000: 0000 0000 0000 0000 0000 0000 0000 0000
00000010: 0000 0000 0000 0000 0000 0000 0000 0000
00000020: 0000 0000 0000 0000 0000 0000 0000 0000
00000030: 0000 0000 0000 0000 0000 0000 0000 0000
00000040: 0000 0000 0000 0000 0000 0000 0000 0000
00000050: 0000 0000 0000 0000 0000 0000 0000 0000
00000060: 0000 0000 0000 0000 0000 0000 0000 0000
00000070: 0000 0000 0000 0000 0000 0000 0000 0000
00000080: 0000 0000 0000 0000 0000 0000 0000 0000
00000090: 0000 0000 0000 0000 0000 0000 0000 0000
000000a0: 0000 0000 0000 0000 0000 0000 0000 0000
000000b0: 0000 0000 0000 0000 0000 0000 0000 0000
000000c0: 0000 0000 0000 0000 0000 0000 0000 0000
000000d0: 0000 0000 0000 0000 0000 0000 0000 0000
000000e0: 0000 0000 0000 0000 0000 0000 0000 0000
000000f0: 0000 0000 0000 0000 0000 0000 0000 0000
00000100: 0000 0000 0000 0000 0000 0000 0000 0000
00000110: 0000 0000 0000 0000 0000 0000 0000 0000
00000120: 0000 0000 0000 0000 0000 0000 0000 0000
00000130: 0000 0000 0000 0000 0000 0000 0000 0000
00000140: 0000 0000 0000 0000 0000 0000 0000 0000
00000150: 0000 0000 0000 0000 0000 0000 0000 0000
00000160: 0000 0000 0000 0000 0000 0000 0000 0000
00000170: 0000 0000 0000 0000 0000 0000 0000 0000
00000180: 0000 0000 0000 0000 0000 0000 0000 0000
00000190: 0000 0000 0000 0000 0000 0000 0000 0000
000001a0: 0000 0000 0000 0000 0000 0000 0000 0000
000001b0: 0000 0000 0000 0000 0000 0000 0000 0000
000001c0: 0000 0000 0000 0000 0000 0000 0000 0000
000001d0: 0000 0000 0000 0000 0000 0000 0000 0000
000001e0: 0000 0000 0000 0000 0000 0000 0000 0000
000001f0: 0000 0000 0000 0000 0000 0000 0000 0000
0.0 0.0 0.0 0.0 0.0 0.0 0.0 0.0
0.0 0.0 0.0 0.0 0.0 0.0 0.0 0.0
0.0 0.0 0.0 0.0 0.0 0.0 0.0 0.0
0.0 0.0 0.0 0.0 0.0 0.0 0.0 0.0
0.0 0.0 0.0 0.0 0.0 0.0 0.0 0.0
0.0 0.0 0.0 0.0 0.0 0.0 0.0 0.0
0.0 0.0 0.0 0.0 0.0 0.0 0.0 0.0
0.0 0.0 0.0 0.0 0.0 0.0 0.0 0.0
0.0 0.0 0.0 0.0 0.0 0.0 0.0 0.0
0.0 0.0 0.0 0.0 0.0 0.0 0.0 0.0
0.0 0.0 0.0 0.0 0.0 0.0 0.0 0.0
0.0 0.0 0.0 0.0 0.0 0.0 0.0 0.0
0.0 0.0 0.0 0.0 0.0 0.0 0.0 0.0
0.0 0.0 0.0 0.0 0.0 0.0 0.0 0.0
0.0 0.0 0.0 0.0 0.0 0.0 0.0 0.0
0.0 0.0 0.0 0.0 0.0 0.0 0.0 0.0

var f4 [128]
00000000: 0000 803f 0000 803f 0000 803f 0000 803f
00000010: 0000 803f 0000 803f 0000 803f 0000 803f
00000020: 0000 803f 0000 803f 0000 803f 0000 803f
00000030: 0000 803f 0000 803f 0000 803f 0000 803f
00000040: 0000 803f 0000 803f 0000 803f 0000 803f
00000050: 0000 803f 0000 803f 0000 803f 0000 803f
00000060: 0000 803f 0000 803f 0000 803f 0000 803f
00000070: 0000 803f 0000 803f 0000 803f 0000 803f
00000080: 0000 803f 0000 803f 0000 803f 0000 803f
00000090: 0000 803f 0000 803f 0000 803f 0000 803f
000000a0: 0000 803f 0000 803f 0000 803f 0000 803f
000000b0: 0000 803f 0000 803f 0000 803f 0000 803f
000000c0: 0000 803f 0000 803f 0000 803f 0000 803f
000000d0: 0000 803f 0000 803f 0000 803f 0000 803f
000000e0: 0000 803f 0000 803f 0000 803f 0000 803f
000000f0: 0000 803f 0000 803f 0000 803f 0000 803f
00000100: 0000 803f 0000 803f 0000 803f 0000 803f
00000110: 0000 803f 0000 803f 0000 803f 0000 803f
00000120: 0000 803f 0000 803f 0000 803f 0000 803f
00000130: 0000 803f 0000 803f 0000 803f 0000 803f
00000140: 0000 803f 0000 803f 0000 803f 0000 803f
00000150: 0000 803f 0000 803f 0000 803f 0000 803f
00000160: 0000 803f 0000 803f 0000 803f 0000 803f
00000170: 0000 803f 0000 803f 0000 803f 0000 803f
00000180: 0000 803f 0000 803f 0000 803f 0000 803f
00000190: 0000 803f 0000 803f 0000 803f 0000 803f
000001a0: 0000 803f 0000 803f 0000 803f 0000 803f
000001b0: 0000 803f 0000 803f 0000 803f 0000 803f
000001c0: 0000 803f 0000 803f 0000 803f 0000 803f
000001d0: 0000 803f 0000 803f 0000 803f 0000 803f
000001e0: 0000 803f 0000 803f 0000 803f 0000 803f
000001f0: 0000 803f 0000 803f 0000 803f 0000 803f
1.0 1.0 1.0 1.0 1.0 1.0 1.0 1.0
1.0 1.0 1.0 1.0 1.0 1.0 1.0 1.0
1.0 1.0 1.0 1.0 1.0 1.0 1.0 1.0
1.0 1.0 1.0 1.0 1.0 1.0 1.0 1.0
1.0 1.0 1.0 1.0 1.0 1.0 1.0 1.0
1.0 1.0 1.0 1.0 1.0 1.0 1.0 1.0
1.0 1.0 1.0 1.0 1.0 1.0 1.0 1.0
1.0 1.0 1.0 1.0 1.0 1.0 1.0 1.0
1.0 1.0 1.0 1.0 1.0 1.0 1.0 1.0
1.0 1.0 1.0 1.0 1.0 1.0 1.0 1.0
1.0 1.0 1.0 1.0 1.0 1.0 1.0 1.0
1.0 1.0 1.0 1.0 1.0 1.0 1.0 1.0
1.0 1.0 1.0 1.0 1.0 1.0 1.0 1.0
1.0 1.0 1.0 1.0 1.0 1.0 1.0 1.0
1.0 1.0 1.0 1.0 1.0 1.0 1.0 1.0
1.0 1.0 1.0 1.0 1.0 1.0 1.0 1.0

gru_2/bias:0 f4 [64]
00000000: f783 1ac0 8c36 ab3f 608e bbbf 2a8c a0bf
00000010: 21ae 9bbf 726f 09be 8275 74bf 0304 a5be
00000020: 8ca5 dc3f c989 d9bf 9794 4fc0 4e11 ff3e
00000030: 9206 84bf 64bf 81bf a274 20bd 7817 37be
00000040: b862 09c0 dc01 c1bf e3f2 77bf c2d3 ab3f
00000050: 0df5 3c3f 73c5 f0be c850 15be f71a e3bf
00000060: 49a0 133f 7649 03c0 c3f6 42bf 00ef cabf
00000070: 43ff 02c1 fc83 ca3e 514f 3dbf ff59 543f
00000080: a391 b8bf 0248 0fbf 2889 95bf b655 2abf
00000090: 88ec 86bf 85d7 c4bc dd6a ad3f c5ee 2dbf
000000a0: 3ee4 22c0 6008 bdbf 3631 62bf ace1 23c0
000000b0: ac47 d3bf 4818 93bf 388b 4ac0 d279 babf
000000c0: 8855 9bbf 0a74 663f 20e9 143d 9d4d 9b3f
000000d0: d86d 04bf 506b 6cbf 9031 903e e2fd ff3e
000000e0: 8f8c b4be 831a 3ebf 7e98 efbf a759 4b3f
000000f0: 64eb c7be 22b0 893f a706 20bf 3485 e6bf
-2.4143045 1.3376021 -1.4652824 -1.2542775 -1.2162515 -0.1342142 -0.954918 -0.32229623
1.7238021 -1.6995174 -3.2434442 0.4981789 -1.0314505 -1.0136533 -0.03917373 -0.17880046
-2.1466503 -1.5078692 -0.9685499 1.3423998 0.7381142 -0.47025642 -0.14581597 -1.7742604
0.5766645 -2.0513587 -0.7615778 -1.5854187 -8.18732 0.3955382 -0.7394915 0.82949823
-1.4419445 -0.5596925 -1.1682482 -0.66537035 -1.0540934 -0.024028549 1.3548237 -0.6794246
-2.5451808 -1.4768181 -0.8835634 -2.560649 -1.6506248 -1.1491785 -3.1647472 -1.4568427
-1.2135477 0.9002081 0.036355138 1.2133061 -0.5173011 -0.92351246 0.28162813 0.49998385
-0.35263488 -0.74259204 -1.8718412 0.79433674 -0.39046776 1.0756876 -0.6251015 -1.80094

gru_2b/bias:0 f4 [64]
00000000: f6f1 3940 a60a c4be 95f6 0840 65ac 2fc0
00000010: 4f22 aebf bf97 683e bf1b 93bf 6c44 80c0
00000020: 7705 9dbf 582f 2941 2554 75bf bf1f 503f
00000030: 7e3c 593e 4cc5 99bd e808 3440 2533 fb3e
00000040: 7519 37bf 9727 5740 6546 e43f 5c3e 8fbf
00000050: 1c9a 7a3f 65ed 1a40 3724 3540 da7a aebe
00000060: c652 b8bf f96d b640 1e5a 143f b190 8e3e
00000070: a06e 903e 55c4 01bf 409a cb40 0c50 c63e
00000080: f148 c5bf 692e acbe 58db 01bd ad24 cdbf
00000090: 7926 58be e5e3 90bd 46c7 ea3f 5592 15c0
000000a0: c03e 97be dc75 acbf 108b 0ec0 8160 9b3f
000000b0: 11b6 7cbf f843 50bf e179 1141 87dc 833f
000000c0: 9a78 d8bf 8533 3bbe 575e d9bf bfe7 a8be
000000d0: aa41 a23e 7147 b83f 2788 4cbf 17c8 1e40
000000e0: b55d ed3f 9c2a 1b3f e025 70bf 0561 21be
000000f0: 0022 873e 1422 843f e6a5 823f 59ab fabf
2.9053931 -0.38289374 2.1400502 -2.7448971 -1.360422 0.22714137 -1.1492842 -4.0083523
-1.2267293 10.574059 -0.9583152 0.8129844 0.21214482 -0.075083345 2.8130436 0.49062458
-0.7152322 3.3617914 1.7833983 -1.1190906 0.978914 2.4207394 2.8303354 -0.34078103
-1.440026 5.7009244 0.5795001 0.27844766 0.282094 -0.50690204 6.3625793 0.38732946
-1.5412885 -0.33629158 -0.031703323 -1.6026818 -0.21108426 -0.070747174 1.8342063 -2.3370564
-0.29540062 -1.3473468 -2.2272377 1.2138826 -0.9871531 -0.8135371 9.092256 1.0301675
-1.6911805 -0.18281372 -1.6981915 -0.32989308 0.31690723 1.4396802 -0.7989525 2.4809625
1.8544222 0.6061189 -0.9380779 -0.15759666 0.26393127 1.03229 1.0206878 -1.9583541

scale1 f4 [128]
00000000: 0e25 973b e690 a83b 42a4 963b 4e5a b83b
00000010: 1470 d03b 1923 c33b 4823 d03b 6050 ed3b
00000020: 5aeb 003c a7b0 9e3b 8c21 6d3b 6850 c43b
00000030: d029 a03b 6176 b13b 788a 7d3b 5242 963b
00000040: e20e ac3b bda8 823b 3353 803b ff88 a33b
00000050: a261 b13b 826a 713d fb40 a23b 6ee2 763b
00000060: 99dc 383c 13e4 ce3b 5371 d63b 8b88 a13b
00000070: 8395 b83b 4d95 743b b724 623b 08ac e33b
00000080: 288e b03b 4af4 213c a2cc 993b 549d 3a3c
00000090: 02b7 743b b119 093c 7bde 903b 7c12 833b
000000a0: cc67 643b fd17 313d 2702 8d3b 0671 af3b
000000b0: 6afa 033c 686b 963b c4da 073c 18e0 6d3b
000000c0: a0b1 893b 9463 803c 3d83 6c3b 5dd8 243c
000000d0: 9e64 163c 7299 d13b 8c1d f13b d3be 683b
000000e0: d507 7a3b 2f68 d13b 68fe 873b 2438 763b
000000f0: 479c 873b f35e 823b 87cd 9d3b cf57 8f3b
00000100: 3e61 653b 064e 083c 46cd ad3b 787a 653b
00000110: 83fc 933b 3799 e03b dae9 773b 0b56 bd3b
00000120: 8531 c13b c655 9e3b 8f27 943b 36b2 d73b
00000130: d1e7 c33b 203d 093c 93e3 a83c f612 183c
00000140: 7825 d23b e1d5 073c 3978 6d3b cd4d 893b
00000150: 7ae7 a93b 096e 7e3b 914e 573b 0c0b 103c
00000160: 619c ca3b 9e36 ce3b b1bf 713b 2aae 523b
00000170: 10d9 7b3b 4947 b03b d724 263c c331 783b
00000180: 644d 723b b7a6 123c c574 473c 9c79 a63b
00000190: f079 ab3b 3679 803b b8ba 893b aefe 723b
000001a0: cbc3 f83b b8cc 573b 9df7 1e3c 2b11 123c
000001b0: 6824 a73b 844d 003c bebd 7e3c 7578 d03b
000001c0: 7493 213c 5da8 7c3c 0725 a23b d251 803b
000001d0: 35ac 7c3b 9e34 003c f878 493c dfd8 453c
000001e0: 624e 353c 5079 603b 1fce 4b3c b253 ef3b
000001f0: 5b1f 213c b9de 753b 2ce9 693b 16e9 6b3b
0.0046125716 0.0051442264 0.004597218 0.0056259995 0.006361017 0.0059551117 0.006351862 0.0072422475
0.007868612 0.004842836 0.0036183326 0.0059910305 0.004887797 0.005415723 0.003868727 0.0045855427
0.0052507976 0.0039874003 0.003916168 0.0049906964 0.00541325 0.058939464 0.004951594 0.0037671584
0.011283063 0.0063138097 0.006544271 0.0049296073 0.0056330576 0.0037320436 0.0034506747 0.006947998
0.00538804 0.009884903 0.0046935836 0.011390049 0.0037340526 0.008367942 0.004421053 0.0040000062
0.0034851907 0.043235768 0.004303235 0.0053540496 0.008055309 0.0045904405 0.008291904 0.00362969
0.0042020828 0.015672483 0.0036088966 0.010061351 0.009179262 0.006396466 0.0073582586 0.003551413
0.003815164 0.0063905935 0.0041502006 0.0037570084 0.0041385028 0.003978604 0.0048157605 0.0043744813
0.0035000588 0.0083193835 0.0053040115 0.0035015624 0.0045161857 0.006854202 0.0037828595 0.0057780794
0.0058957958 0.0048320023 0.0045213173 0.0065825237 0.0059785624 0.00837639 0.020616328 0.009281864
0.006413158 0.008290739 0.0036234988 0.004190183 0.005185065 0.003882291 0.0032853226 0.008791696
0.0061831926 0.006293132 0.0036887939 0.0032147267 0.003842894 0.0053795916 0.010140619 0.0037871457
0.0036972398 0.008950881 0.012173836 0.005080415 0.005233042 0.0039206995 0.004203167 0.003707807
0.0075916997 0.0032928418 0.00970259 0.008915226 0.0051007755 0.007830981 0.015548168 0.006362016
0.009861816 0.015421 0.0049482617 0.0039160037 0.0038554792 0.007825045 0.012296908 0.012075632
0.011066051 0.0034251995 0.01243928 0.0073036784 0.009834136 0.0037516786 0.003569196 0.0035997084

bias1 f4 [128]
00000000: 2031 47bf 6a14 dbbe aa2b 92bf 7418 89be
00000010: 9c8d a2be 967f d5be 5181 01bf 15d9 60be
00000020: 1737 b4be ead1 2abf 0219 bfbf 6b07 f4be
00000030: c6b8 4ebf 9315 14bf cefc b5bf 6f15 30bf
00000040: 971a 22bf 0c5b 43bf 0891 76bf 3ee7 43bf
00000050: 618e 18bf e8db 4abe 1121 aebe b6cc 8abf
00000060: 70fa bf3d f5af 7bbe cef6 67be 9fc5 17bf
00000070: 4657 05bf 2460 86bf 4420 a8bf 83d4 a8be
00000080: a687 30bf d6cd 61be b260 32bf 2888 f4bd
00000090: 4a62 99bf 2cb9 7ebe cf92 82bf 7a68 95bf
000000a0: f1de 99bf 84d3 3e3e e6a4 38bf 963a dfbe
000000b0: dc32 9dbe 6f2f 19bf 3147 94be afb1 a5bf
000000c0: b9a0 6dbf d070 543c 2f2b 85bf 4831 eabd
000000d0: 66fc b3bd 54f6 c3be b13b 8ebe 0c1d a8bf
000000e0: cf97 82bf 7815 2bbe e46e 63bf 46e0 92bf
000000f0: 8ed3 4abf 3cb2 29bf 3a6f 49bf 8c29 2bbf
00000100: edfd cbbf 3e88 88be fce7 a1be ae6c f3bf
00000110: 16fb 40bf 7013 46be af56 8abf a13f 5abe
00000120: d204 92be f87c abbe 088b 1ebf eac5 9dbe
00000130: 52b4 c5be 3ccb 1cbe 0bf7 b8be 0238 18be
00000140: 7e17 9ebe db5b b2be db11 bbbf 7e8f 34bf
00000150: 804d 03bf 2b0b 68bf dd87 d4bf 8c24 64be
00000160: fba2 b2be 1707 c5be ba54 cdbf 84d1 88bf
00000170: 702c a7bf c5d6 b8be e042 bcbe 010c 9ebf
00000180: 2ac0 89bf e01b 7fbe 8e04 babe 5c86 23bf
00000190: b2dc 16bf e575 c7bf 0fa0 81bf 8a95 68bf
000001a0: d409 80be 3511 1cc0 6011 edbe 2f06 a2be
000001b0: 137d 0cbf 0313 f2be 8fd5 c8be d499 1dbe
000001c0: b006 d7bd 4e2f d9bd 0e70 ecbe e3cf aebf
000001d0: 199f bbbf 38f4 fdbe 4d55 11be f22a 14be
000001e0: fcd2 88be 7c41 c0bf 30ce 6b3d 93a6 25bf
000001f0: 688a f23d cef3 debf a415 9abf 474a cbbf
-0.77809334 -0.42789012 -1.1419575 -0.2677647 -0.31748664 -0.41698903 -0.50587946 -0.2195781
-0.3519828 -0.66726553 -1.4929507 -0.4766191 -0.8075069 -0.5784542 -1.4217775 -0.68782705
-0.6332182 -0.763108 -0.9631505 -0.7652472 -0.5959225 -0.1981045 -0.34009603 -1.0843723
0.09373939 -0.24578841 -0.22652742 -0.5928592 -0.52086294 -1.049809 -1.3134847 -0.32974634
-0.68956983 -0.22051176 -0.69678795 -0.11940032 -1.198312 -0.24875325 -1.0201052 -1.1672509
-1.2021161 0.18635374 -0.72126615 -0.43599385 -0.30702865 -0.59838 -0.28960565 -1.294485
-0.9282337 0.01296635 -1.0403804 -0.11435181 -0.087883756 -0.3827387 -0.27779916 -1.3133864
-1.0202578 -0.16707408 -0.8884108 -1.1474693 -0.79229057 -0.6628759 -0.78685343 -0.6686027
-1.5936867 -0.26666445 -0.31622303 -1.9017541 -0.75383127 -0.19343352 -1.0807704 -0.21313335
-0.28519303 -0.3349378 -0.61930895 -0.3081506 -0.38614136 -0.15311903 -0.3612598 -0.14865115
-0.30877298 -0.34835705 -1.4614824 -0.7053145 -0.5129013 -0.9064204 -1.6603962 -0.22279567
-0.3488997 -0.38481972 -1.6041481 -1.0688939 -1.3060436 -0.36101356 -0.36769772 -1.2347413
-1.0761769 -0.24912977 -0.363316 -0.6387689 -0.58930504 -1.5582854 -1.0126971 -0.9085318
-0.25007498 -2.4385502 -0.4630232 -0.31645343 -0.5487835 -0.4728013 -0.39225432 -0.15390712
-0.104993224 -0.10604726 -0.4617924 -1.3657192 -1.4657928 -0.49600387 -0.14192696 -0.14469507
-0.26723468 -1.5019984 0.057569683 -0.647073 0.11842805 -1.7418153 -1.2037854 -1.5882043

mean1 f4 [128]
00000000: 0000 0000 0000 0000 0000 0000 0000 0000
00000010: 0000 0000 0000 0000 0000 0000 0000 0000
00000020: 0000 0000 0000 0000 0000 0000 0000 0000
00000030: 0000 0000 0000 0000 0000 0000 0000 0000
00000040: 0000 0000 0000 0000 0000 0000 0000 0000
00000050: 0000 0000 0000 0000 0000 0000 0000 0000
00000060: 0000 0000 0000 0000 0000 0000 0000 0000
00000070: 0000 0000 0000 0000 0000 0000 0000 0000
00000080: 0000 0000 0000 0000 0000 0000 0000 0000
00000090: 0000 0000 0000 0000 0000 0000 0000 0000
000000a0: 0000 0000 0000 0000 0000 0000 0000 0000
000000b0: 0000 0000 0000 0000 0000 0000 0000 0000
000000c0: 0000 0000 0000 0000 0000 0000 0000 0000
000000d0: 0000 0000 0000 0000 0000 0000 0000 0000
000000e0: 0000 0000 0000 0000 0000 0000 0000 0000
000000f0: 0000 0000 0000 0000 0000 0000 0000 0000
00000100: 0000 0000 0000 0000 0000 0000 0000 0000
00000110: 0000 0000 0000 0000 0000 0000 0000 0000
00000120: 0000 0000 0000 0000 0000 0000 0000 0000
00000130: 0000 0000 0000 0000 0000 0000 0000 0000
00000140: 0000 0000 0000 0000 0000 0000 0000 0000
00000150: 0000 0000 0000 0000 0000 0000 0000 0000
00000160: 0000 0000 0000 0000 0000 0000 0000 0000
00000170: 0000 0000 0000 0000 0000 0000 0000 0000
00000180: 0000 0000 0000 0000 0000 0000 0000 0000
00000190: 0000 0000 0000 0000 0000 0000 0000 0000
000001a0: 0000 0000 0000 0000 0000 0000 0000 0000
000001b0: 0000 0000 0000 0000 0000 0000 0000 0000
000001c0: 0000 0000 0000 0000 0000 0000 0000 0000
000001d0: 0000 0000 0000 0000 0000 0000 0000 0000
000001e0: 0000 0000 0000 0000 0000 0000 0000 0000
000001f0: 0000 0000 0000 0000 0000 0000 0000 0000
0.0 0.0 0.0 0.0 0.0 0.0 0.0 0.0
0.0 0.0 0.0 0.0 0.0 0.0 0.0 0.0
0.0 0.0 0.0 0.0 0.0 0.0 0.0 0.0
0.0 0.0 0.0 0.0 0.0 0.0 0.0 0.0
0.0 0.0 0.0 0.0 0.0 0.0 0.0 0.0
0.0 0.0 0.0 0.0 0.0 0.0 0.0 0.0
0.0 0.0 0.0 0.0 0.0 0.0 0.0 0.0
0.0 0.0 0.0 0.0 0.0 0.0 0.0 0.0
0.0 0.0 0.0 0.0 0.0 0.0 0.0 0.0
0.0 0.0 0.0 0.0 0.0 0.0 0.0 0.0
0.0 0.0 0.0 0.0 0.0 0.0 0.0 0.0
0.0 0.0 0.0 0.0 0.0 0.0 0.0 0.0
0.0 0.0 0.0 0.0 0.0 0.0 0.0 0.0
0.0 0.0 0.0 0.0 0.0 0.0 0.0 0.0
0.0 0.0 0.0 0.0 0.0 0.0 0.0 0.0
0.0 0.0 0.0 0.0 0.0 0.0 0.0 0.0

var1 f4 [128]
00000000: 0000 803f 0000 803f 0000 803f 0000 803f
00000010: 0000 803f 0000 803f 0000 803f 0000 803f
00000020: 0000 803f 0000 803f 0000 803f 0000 803f
00000030: 0000 803f 0000 803f 0000 803f 0000 803f
00000040: 0000 803f 0000 803f 0000 803f 0000 803f
00000050: 0000 803f 0000 803f 0000 803f 0000 803f
00000060: 0000 803f 0000 803f 0000 803f 0000 803f
00000070: 0000 803f 0000 803f 0000 803f 0000 803f
00000080: 0000 803f 0000 803f 0000 803f 0000 803f
00000090: 0000 803f 0000 803f 0000 803f 0000 803f
000000a0: 0000 803f 0000 803f 0000 803f 0000 803f
000000b0: 0000 803f 0000 803f 0000 803f 0000 803f
000000c0: 0000 803f 0000 803f 0000 803f 0000 803f
000000d0: 0000 803f 0000 803f 0000 803f 0000 803f
000000e0: 0000 803f 0000 803f 0000 803f 0000 803f
000000f0: 0000 803f 0000 803f 0000 803f 0000 803f
00000100: 0000 803f 0000 803f 0000 803f 0000 803f
00000110: 0000 803f 0000 803f 0000 803f 0000 803f
00000120: 0000 803f 0000 803f 0000 803f 0000 803f
00000130: 0000 803f 0000 803f 0000 803f 0000 803f
00000140: 0000 803f 0000 803f 0000 803f 0000 803f
00000150: 0000 803f 0000 803f 0000 803f 0000 803f
00000160: 0000 803f 0000 803f 0000 803f 0000 803f
00000170: 0000 803f 0000 803f 0000 803f 0000 803f
00000180: 0000 803f 0000 803f 0000 803f 0000 803f
00000190: 0000 803f 0000 803f 0000 803f 0000 803f
000001a0: 0000 803f 0000 803f 0000 803f 0000 803f
000001b0: 0000 803f 0000 803f 0000 803f 0000 803f
000001c0: 0000 803f 0000 803f 0000 803f 0000 803f
000001d0: 0000 803f 0000 803f 0000 803f 0000 803f
000001e0: 0000 803f 0000 803f 0000 803f 0000 803f
000001f0: 0000 803f 0000 803f 0000 803f 0000 803f
1.0 1.0 1.0 1.0 1.0 1.0 1.0 1.0
1.0 1.0 1.0 1.0 1.0 1.0 1.0 1.0
1.0 1.0 1.0 1.0 1.0 1.0 1.0 1.0
1.0 1.0 1.0 1.0 1.0 1.0 1.0 1.0
1.0 1.0 1.0 1.0 1.0 1.0 1.0 1.0
1.0 1.0 1.0 1.0 1.0 1.0 1.0 1.0
1.0 1.0 1.0 1.0 1.0 1.0 1.0 1.0
1.0 1.0 1.0 1.0 1.0 1.0 1.0 1.0
1.0 1.0 1.0 1.0 1.0 1.0 1.0 1.0
1.0 1.0 1.0 1.0 1.0 1.0 1.0 1.0
1.0 1.0 1.0 1.0 1.0 1.0 1.0 1.0
1.0 1.0 1.0 1.0 1.0 1.0 1.0 1.0
1.0 1.0 1.0 1.0 1.0 1.0 1.0 1.0
1.0 1.0 1.0 1.0 1.0 1.0 1.0 1.0
1.0 1.0 1.0 1.0 1.0 1.0 1.0 1.0
1.0 1.0 1.0 1.0 1.0 1.0 1.0 1.0

gru_1/bias:0 f4 [64]
00000000: 5e78 4040 cd03 a840 7b9d cc40 6b2b d23f
00000010: a177 bdbe 9740 a6bf c664 c73f 66f7 1640
00000020: adf4 7e3f ee45 8d40 6f77 ba40 a10f 0b3e
00000030: 590f c33f 6056 9040 9e28 1841 a0bc 3040
00000040: bd21 5540 ce83 7840 e944 9140 255a 2040
00000050: 087e 3940 28ac 593f e0d7 1c40 fe90 7240
00000060: 857c ab3f 6184 aa3f aa66 3b3f 8224 9b3f
00000070: 8b15 6240 8ffc bb40 000d a440 b7f3 d93f
00000080: 89f8 4e40 8707 1e40 e17d 5f3f 889f 3740
00000090: d3b4 a640 61e3 3b40 b58c 9b40 4566 9140
000000a0: 1b0e ef3f fb94 8540 c0a5 9e40 dcd4 a4bf
000000b0: d4f6 913e d127 4e40 0336 af3f ae32 c440
000000c0: cf1a 9440 2712 903f d3be 8640 20f1 e23f
000000d0: 87e2 23bf 848b 8a40 4ed7 033e 5330 8740
000000e0: 703a 9c40 022d f53f d60d 8640 61a7 a140
000000f0: 9eda 5e40 2d96 c03f fae5 4840 9e1d ad3f
3.0073466 5.250464 6.3942237 1.64195 -0.37005332 -1.2988461 1.5577629 2.35885
0.99592096 4.4147863 5.8270793 0.1358018 1.5239059 4.510544 9.509916 2.7615128
3.3301842 3.8830447 4.539662 2.505502 2.8983173 0.85028315 2.450676 3.7900996
1.3397375 1.3321649 0.7320353 1.2120516 3.5325649 5.87458 5.126587 1.7027501
3.2339194 2.4692094 0.8730145 2.869112 5.2095733 2.935753 4.860926 4.543734
1.867618 4.174436 4.957733 -1.287746 0.28508627 3.2211802 1.3688358 6.1311865
4.6282725 1.125554 4.210794 1.7729836 -0.6401753 4.3295307 0.12875101 4.224649
4.8821335 1.915436 4.189189 5.051682 3.4820933 1.504583 3.1390367 1.3524663

gru_1b/bias:0 f4 [64]
00000000: 9f7e a340 34b7 213f 3b1b 0440 afbf c140
00000010: 29cf c23f 0725 1f3f 087e 1040 0ab1 833f
00000020: 3c5c 0b40 9e1a c6bf a625 953f 8437 933d
00000030: bcb0 c43f ecb6 20be bea2 2e3e 7a78 e03f
00000040: 1dc0 0b3f 6bf2 303e d228 7440 7c89 0040
00000050: 7349 ca3f b020 8240 39e7 a040 8be0 f03d
00000060: bca6 503b b550 063f 9dcc 2640 a5e2 a140
00000070: 2685 823f 1aea 2040 c363 1740 3d73 9a40
00000080: a2a2 5340 32ca 523f 4cc1 f5be 302c 1a40
00000090: 7920 e23e c58c 8f40 9ddf 8e40 ad7c 7f40
000000a0: 4f52 8bbe 57f8 8840 f43c 2b3f 86b1 a53e
000000b0: ffa7 0040 c9c0 93bf 2bd5 453f 600c 313f
000000c0: fcfb 303f 26f3 8a3f 77bd da3f 7ac4 c13f
000000d0: 2cee 0d3e ce9c d43f fb09 0840 18c0 993e
000000e0: 073c a43c ec82 8c40 fd96 a23f abd4 4240
000000f0: 98b5 8dbe d0af 8140 034f 6e40 ab03 5b40
5.1092067 0.6317017 2.064162 6.054649 1.521947 0.62165874 2.2576923 1.0288403
2.1775045 -1.5476873 1.1652114 0.07188323 1.5366435 -0.15694779 0.17054269 1.7536767
0.54590017 0.17279975 3.8149915 2.0083914 1.5803665 4.06649 5.0282254 0.11761578
0.0031837663 0.524669 2.6062386 5.0589166 1.0196884 2.5142884 2.365464 4.826567
3.3068013 0.82339776 -0.47999036 2.408947 0.441654 4.485934 4.4647965 3.9919846
-0.27211234 4.280315 0.6688988 0.32362002 2.0102537 -1.1543208 0.77278394 0.6915951
0.691345 1.0855453 1.708907 1.5138085 0.13860387 1.6610353 2.1256092 0.30029368
0.020048155 4.3909817 1.2702328 3.0442302 -0.27677608 4.0527115 3.7235725 3.4220989

dense1/bias:0 f4 [64]
00000000: aa79 a93f aa5b 0240 8c10 0b41 0d81 cf3f
00000010: 55aa db40 2642 2640 76f1 e840 91e3 6e3e
00000020: 1b98 7d40 2a25 5240 7127 ac40 aefd 5d40
00000030: 09c6 1a40 4748 0840 d9e1 7c3f 8fc6 82bf
00000040: 7cea 05bf 953d 9540 7780 60bf 1f56 a23f
00000050: 0345 aebd 360e e93f c68d 2a40 248d 08bf
00000060: e259 623f bbc1 0e41 55b6 ed3e ef04 c03f
00000070: 19d1 25bf 1456 2540 4e3f d740 442f 743f
00000080: c0ab 7a40 fd31 f240 b469 7340 dd59 4140
00000090: 421b 5640 d084 2440 3718 973f 7371 893f
000000a0: f667 c13e 719a 5440 bec2 9040 5776 5a40
000000b0: aa9e a440 a25f ba40 5374 0741 993a 2a3e
000000c0: fdfa 8640 f97a 44c0 a3f1 863c 76c0 5fbf
000000d0: 8447 9d40 63e2 393e fe2e fa3f 0238 c13f
000000e0: c68a 9c3f 3262 6c40 49cd 1cbc 745f e240
000000f0: 49c2 973f d936 e8bd d179 c440 1119 a540
1.3240254 2.0368447 8.69154 1.6211258 6.8645425 2.5977874 7.279475 0.23328997
3.9624088 3.2835183 5.3798146 3.4686084 2.418337 2.1294115 0.98782116 -1.0216845
-0.5231092 4.6637673 -0.8769602 1.2682532 -0.08509257 1.8207462 2.6649032 -0.53340364
0.884184 8.9222975 0.4642817 1.5001506 -0.6477218 2.5833788 6.7264776 0.9538462
3.9167328 7.568602 3.8033266 3.0211098 3.3454137 2.5706062 1.1804265 1.0737747
0.37774628 3.3219264 4.5237722 3.413473 5.144368 5.824174 8.465899 0.16623916
4.218138 -3.0700057 0.016472643 -0.8740305 4.91498 0.18152766 1.9545591 1.5095217
1.222985 3.6934934 -0.009570428 7.074152 1.1856166 -0.11338586 6.13987 5.15931

1x1conv5_out/bias:0 f4 [512]
00000000: 9911 663f 7fdc b83e c64a 7abf 6ca7 a33e
00000010: 27f5 9bbd e864 9bbd bff5 b9be 7bbe d93d
00000020: 5534 3c3f 0b0f 09be c48d 6e3e 63e8 0a3e
00000030: 7a2c 14bd f7ba f4bd 1948 083e a49c e1bc
00000040: 02cb bd3e 65d4 c83e 31fc 3fbe 201a 323e
00000050: 2016 9d3e 034e 393f 290c 863f c41d c73e
00000060: 2e9f 5f3f bf88 903d 3476 0c3f 01bf 9bbd
00000070: 63d4 1cbf baeb dd3e 4163 24bd 1447 993e
00000080: 61c1 d2bd e838 f23d c860 f83e b07c d93e
00000090: a920 97bf 0b6f d8bd 4711 0cbf 7228 1cbf
000000a0: e362 7dbe ecf4 c33e 53d2 323e 1f0c a1bd
000000b0: cfb8 4cbe 24b9 7d3e ea90 f7bc 391d d43d
000000c0: 7bd4 0ebe fed6 273f 3a77 f3bd fbe3 84bd
000000d0: d61e 47be 16ba fb3e a564 9c3d 1d51 c33d
000000e0: 0d3b d3bd 1b4a 123f 9d3c df3e 6912 953f
000000f0: cc63 77bd e0af e3bc 3158 c33d 7c61 55be
00000100: a6c7 65bf 8d11 f53d 3965 00be 489c 693e
00000110: d99c e93e 3e4c a73e e61f 8d3f e275 a93a
00000120: a063 aebd a6c8 48be 4354 863e 2d68 093f
00000130: 63f8 273d ddd5 29be b6f0 513e 82a7 7f3f
00000140: 8afa a13e 2bca af3e 2fb2 af3e 04aa bcbf
00000150: bfad 04be e148 4d3f d819 eabe cbdf cebd
00000160: a477 a53f 13ef 1a3f ca85 393f fd77 7a3e
00000170: cb21 1f3e bb87 f53e 6d2b 0e3d 7bc5 3d3f
00000180: b3ee ebbe 4204 683d 7efe 813f 8d5f c93e
00000190: 3c1e 833f a183 08be f455 433e d734 0ebe
000001a0: 4ec0 52be 7a01 51bd 7364 313f f472 0b3e
000001b0: a338 f23e bec0 a93f b437 ab3e f52c 913f
000001c0: 2c13 8d3e 3e2f e2bd 1e49 4e3a 2d23 023f
000001d0: b6e1 393f 348a 32bf 5e58 043f 1779 333f
000001e0: bf52 093f 7468 8cbc c00a 2f3f 7610 d23e
000001f0: 1e31 293f 965a a4bd 08cd bebf 8ed2 783e
00000200: ae5a 84bd 8e4a a2bd 016e 31bf 3293 8b3f
00000210: 0722 5d3e 61aa d93e 90a6 05be 0c26 a33c
00000220: 02d9 d83e 7e5d 03be f4d5 b93f d92c e7bb
00000230: 9f6c 283e 5e53 a83e 91e9 493f 70c4 bebd
00000240: 1235 8ebe a53b 023f 437f a1bd 90b6 a73e
00000250: bd7b f9bd 86e6 86bf af6d 17be c9b0 c9be
00000260: 612e c0bd 819b f5be 1931 b4be 8e7c edbe
00000270: 86f6 17bf 73e7 43bc ab21 583e 8d0a e03d
00000280: ee2a 9d3d 2639 9bbd 9f53 74be 935b a1bd
00000290: 8c11 843e 6ca4 2ebe 87c7 563f ea09 0ebe
000002a0: bc09 b8bd 107a 0dbf 0f9b 323f 50ad 063e
000002b0: f58c 4b3c 3efb cc3e dc6e 483f 9a46 433f
000002c0: 52cf bdbf 2a6d e5be 70e8 da3d 30eb 9ebd
000002d0: ec4c 6fbe afed a7bd ef33 913f 70b7 abbd
000002e0: 3302 383e f962 483f 696d fc3e 533f 763f
000002f0: 1a71 923f d794 92be 617c 313f 8a73 6a3f
00000300: e2e7 723f 4edf 3d3f 1850 84bd 0d77 943d
00000310: 97c1 8cbc 53f7 c1bd 1e32 183e d775 583f
00000320: 1816 503f f433 8e3e b140 a93d c06f 3e3e
00000330: ace1 8c3c 5786 553f 635a 96bd 1552 24be
00000340: ba05 cebe f2b7 b6be 4207 853c 0f43 513d
00000350: d94d a4be e0b1 1fbf b91f a33e 2b6a 713f
00000360: 04d5 0cbf df22 df3e 95ec f0be ec34 35bf
00000370: 097f d3bd 29c8 e3bd 7d8f 143e 4b4d 193e
00000380: d9da c7be f5e1 c6be 299a 583e 9d99 da3e
00000390: b05c cfbd 0bcc 67be 5f1f a03e b194 07bf
000003a0: 6cc3 bcbe bf1f 84bf 5eb3 9abd 2ca7 debe
000003b0: 3c69 293f 948e 2e3e cda8 b1bd fd60 c53e
000003c0: 23d3 1a3e bb8b 2fbc 3510 b73e 2d7e fbbd
000003d0: 9d12 c0be c9e3 f6be f35a b6bd 2e1d 52bf
000003e0: 4c53 ccbd 780f 06bf 3bb0 7d3e 3779 46bd
000003f0: 2ce8 c5bd 1649 353f 6c5c 6e3d 124a 1bbf
0.898706 0.36105725 -0.97770345 0.3196367 -0.076151185 -0.07587606 -0.36320302 0.106320344
0.7351735 -0.13384645 0.23296267 0.13565211 -0.03617523 -0.11949723 0.13308753 -0.027540512
0.37068945 0.39224544 -0.18748547 0.17392778 0.30680943 0.7238466 1.0472461 0.38889897
0.87352264 0.07057332 0.54867864 -0.076047905 -0.61261576 0.43343908 -0.04013372 0.2993704
-0.1029079 0.1182726 0.48511338 0.42477942 -1.1806842 -0.10568055 -0.54713863 -0.60999215
-0.24744754 0.38272798 0.17463045 -0.0786364 -0.19992374 0.24777657 -0.030220468 0.10357136
-0.13948242 0.6556243 -0.11887975 -0.06488796 -0.19445357 0.4916541 0.07636384 0.095369555
-0.103139974 0.57144326 0.43600932 1.1646243 -0.060397908 -0.027793825 0.095383056 -0.20837969
-0.89757764 0.11966238 -0.12538613 0.22813523 0.45627478 0.32675356 1.102536 0.0012928809
-0.08515096 -0.19607791 0.26236162 0.53674585 0.041008364 -0.16585489 0.2050198 0.9986497
0.3163646 0.3433393 0.3431563 -1.4739385 -0.12956904 0.8018933 -0.45722842 -0.10101279
1.2927136 0.6052105 0.7246977 0.24459834 0.15540235 0.47955117 0.034709383 0.74129456
-0.4608055 0.056644686 1.015579 0.39330712 1.0243602 -0.13331462 0.19075757 -0.13887344
-0.20581171 -0.0510268 0.692939 0.1361807 0.47308835 1.3261945 0.33440936 1.1341845
0.2755369 -0.11044167 0.00078691717 0.50834924 0.7261003 -0.6974213 0.5169734 0.70106643
0.53641886 -0.01713965 0.6837578 0.41028184 0.6609057 -0.080250904 -1.490632 0.2429907
-0.06462608 -0.079243764 -0.6930848 1.0904295 0.21595012 0.425128 -0.1305182 0.019915603
0.42353064 -0.12828633 1.4518418 -0.007054907 0.16447686 0.32876104 0.7887202 -0.09314811
-0.27774864 0.5087226 -0.07885601 0.32756472 -0.12181804 -1.05391 -0.14787935 -0.3939269
-0.09383846 -0.47970203 -0.3519371 -0.4638409 -0.5936054 -0.011957037 0.21106593 0.109395124
0.07674204 -0.075792596 -0.23860024 -0.078787945 0.25794637 -0.1705491 0.83898205 -0.1387097
-0.08986232 -0.5526438 0.6976785 0.13152051 0.0124237435 0.40035433 0.7829416 0.76279604
-1.4828894 -0.44809848 0.10688865 -0.07759702 -0.23369187 -0.081996314 1.1343974 -0.08384597
0.17969589 0.7827602 0.49302223 0.96190375 1.1440766 -0.2862918 0.6933041 0.9158255
0.94885075 0.7416886 -0.06460589 0.0724927 -0.017182155 -0.094710015 0.14862868 0.8455481
0.8128371 0.27774012 0.08264292 0.18597317 0.017197452 0.8340811 -0.07341459 -0.16046937
-0.40238744 -0.35687214 0.016238812 0.051089343 -0.32090643 -0.6238079 0.3186014 0.94302624
-0.55012536 0.43581292 -0.47055498 -0.7078388 -0.103269644 -0.11122162 0.14507861 0.14970891
-0.39034155 -0.38844267 0.21152557 0.42695323 -0.101251006 -0.2263643 0.31273934 -0.5296126
-0.36867845 -1.0322188 -0.07553743 -0.43486917 0.661762 0.17046577 -0.08674774 0.3855056
0.15119605 -0.010714467 0.35754552 -0.122799255 -0.375142 -0.4822066 -0.08904066 -0.82075775
-0.09976825 -0.52367353 0.24774258 -0.048455443 -0.09663424 0.70814645 0.05819361 -0.606599

stage4/block3/1x1conv_2_B_new f4 [81]
00000000: 9c5f 3dbe 5ea6 c8be 7431 29bf 1b5a fabe
00000010: d2dd d4bd 8d2b cbbf 16a4 d0be b2ff e5be
00000020: 91e5 8ebf 8be9 dfbe 4275 86be c6c3 e7be
00000030: 7b8d 2bbe 8a2b 0cbf 0537 2abf 1a1b c8be
00000040: f4ce 93be 8a57 17be 8e7f d1be f6c1 32bf
00000050: a110 d9be 4c40 21bf 5c59 aabe 369a abbc
00000060: 3ee0 0dbf 5ac8 09bf ef89 53bf d741 32bf
00000070: 2dd8 59bf 4fa5 b1be bf6b 493e 3020 10bf
00000080: 4001 05be fc1d cbbe 5c47 b0be b682 c0be
00000090: 2cb8 fbbe ec58 4cbf 9a99 99be ddb5 8ebe
000000a0: 6ec1 f1be 30a9 8cbe 0163 e7be ef17 62be
000000b0: 6b3b 41bf 2daf 3abe bea2 7fbe ad9f 8dbe
000000c0: 3815 45be c8b7 86be 359e e0be 5acd 0abf
000000d0: f1cc e1bd 8800 4cbe 0cd3 2d3e 0e5c 50bf
000000e0: 65d8 bebe be54 12bf f458 eebe b7a5 a5be
000000f0: f241 45be 8491 02bf 322e 46be 462e 3ebf
00000100: f6a8 4ebf ec1e e0be 8dd6 d2be 0d53 63be
00000110: 465b 0cbf 03bd c3bd 9b4b 87be 4e42 c0be
00000120: d8c5 adbe f513 cabe 0f06 233e 38ad 96be
00000130: 6c69 d4be 91b6 cfbe d409 8dbd 5987 30bf
00000140: aaa7 23bf
-0.18493503 -0.39189428 -0.66091084 -0.4889687 -0.10393871 -1.5872666 -0.40750188 -0.44921643
-1.1163808 -0.43732867 -0.26261336 -0.4526655 -0.1675319 -0.54753935 -0.66490203 -0.39083177
-0.2886883 -0.14779487 -0.4091763 -0.6982721 -0.423955 -0.62988734 -0.332713 -0.020947557
-0.5542029 -0.5382134 -0.82632345 -0.69631714 -0.85095483 -0.34696433 0.19670008 -0.56299114
-0.12988758 -0.39671314 -0.34429443 -0.37599725 -0.4916395 -0.79823184 -0.3 -0.27873126
-0.47217888 -0.2747283 -0.4519272 -0.22079442 -0.7548129 -0.18230887 -0.24964425 -0.27660885
-0.19246376 -0.2631209 -0.43870702 -0.5421959 -0.110254176 -0.19922078 0.16975039 -0.81390464
-0.3727447 -0.57160556 -0.4655224 -0.32352993 -0.19263437 -0.5100329 -0.1935356 -0.7428936
-0.80726564 -0.43773592 -0.41179314 -0.2219965 -0.5482677 -0.095575355 -0.2642487 -0.37550586
-0.33940005 -0.3946835 0.1592028 -0.2942903 -0.4148668 -0.40568975 -0.0688664 -0.68956524
-0.6392771

stage4/block3/3x3dwconv_B_new f4 [81]
00000000: 604c 3c3f c21b 933e f7cc f03f 14e1 49be
00000010: 9698 dd3f bfb7 acbe 34bb 863f d5c1 82bf
00000020: e457 b83f 0d09 b9bf eb32 cfbf c13c 913f
00000030: d4d6 c13f 0602 47be f317 7d3f 9f2b 813f
00000040: ea77 2bbf d0e7 423f db40 28bf 575f a6bf
00000050: 653d abbf c142 a93f 9e9b c1bf 755b 573f
00000060: 554d 9abf c8d2 ffbf e2f7 5d3e 67a7 f13e
00000070: 98f4 953f 674e a1be 120a 013f 828e 13bf
00000080: 1174 a03f f004 77bd de72 e6bf 21c0 f23f
00000090: a843 15c0 b29f 153f da71 263f 017c 10bf
000000a0: 2ac2 863f 7b98 013f c26f d1bc c551 b2be
000000b0: 19c7 bb3f 59a4 5a3f 8bd4 9d3f 934f cabe
000000c0: 736b d5bf f67a 26bf d0a5 763f c305 cb3f
000000d0: b509 183f 7caa 9dbe f7ff ed3d 375a b4bf
000000e0: 4a64 c33e d196 d8be 3cfe 273e 76b3 173f
000000f0: 3143 ca3f e80d d63d 1c6a 65bf fcb8 1cbc
00000100: 4b53 b9bf 9569 513f 1e90 873f 0755 35bf
00000110: 68ee 863e 1534 70bf 1d2f 9d3e 3c79 3d3e
00000120: fd64 e7be 40c5 44bf 9a24 7ebe bdc3 bfbe
00000130: 2e34 f03e 0855 ddbf a06b e03d 1e91 80bf
00000140: b9df b7bf
0.7355404 0.28732115 1.881255 -0.19714767 1.731219 -0.33733937 1.052588 -1.0215403
1.4401822 -1.4455887 -1.6187414 1.1346666 1.5143685 -0.19434366 0.9886467 1.0091437
-0.6697985 0.7613497 -0.6572396 -1.2997845 -1.3378111 1.3223497 -1.5125616 0.8412393
-1.205485 -1.99862 0.21676591 0.4719803 1.1715269 -0.3150513 0.5040599 -0.57639325
1.2535421 -0.060307443 -1.8003805 1.8964883 -2.3322544 0.584468 0.65017474 -0.56439215
1.0528004 0.5062329 -0.025565986 -0.3482801 1.4670135 0.85407025 1.2330488 -0.39513835
-1.6673416 -0.65031374 0.9634676 1.5861133 0.5938981 -0.30794132 0.11621087 -1.4090031
0.38162452 -0.42302564 0.16405576 0.5925821 1.5801755 0.10451871 -0.89615035 -0.009565588
-1.4478544 0.8180173 1.0590856 -0.70832866 0.26353765 -0.9382947 0.30700007 0.18503278
-0.45194235 -0.7686348 -0.2481865 -0.37454024 0.4691481 -1.7291574 0.10958028 -1.0044286
-1.436515

stage4/block2/1x1conv_2_B_new f4 [81]
00000000: ac32 0bbd 72eb c6be b50a 933e 5d03 cabd
00000010: 12b3 aebe f693 2dbf 599d 7d3d 6b06 11be
00000020: b180 0c3d a0ac f1be dea0 eb3e 9a0b 603e
00000030: d975 57bd 8979 91be 217c ecbd ce99 dbbd
00000040: d307 97be 6963 8f3d a241 293e 9d80 ccbd
00000050: 0701 283e e82d debc 2db5 8abe d3d3 e8bb
00000060: 25a9 debe ff5d 88be cd9d 073e 0009 47bf
00000070: 86a3 cabd 532c b2be 2c68 9b3e cc9f 3bbf
00000080: d2c2 04be e94c c93d d5a4 8abe fad6 c43d
00000090: 456f b6bd 9724 333e 8cb8 e23d cd14 6abe
000000a0: 0989 47bc 011b 83bc 39af 61be 9a6e a5be
000000b0: bb41 0dbf d8be 0abf d8ad f73d 6757 01bf
000000c0: 73fd 103f 2270 05bf 2ee7 c9bf da10 50bf
000000d0: bad5 433e 21e8 bcbe 2e48 c0be edf6 8cbd
000000e0: 65b6 87be 38f1 9dbe 9e14 7d3e 4d01 c33e
000000f0: 7b1e 833f f52f 44bf 824e 2f3e 168f 6bbf
00000100: 1c8d a0be 0665 99bf 385e 7d3e 01a7 c039
00000110: 0297 03bd 4a7b 34bf eb85 15bf 72b0 cdbc
00000120: 5036 a8bd 057a 10bf 19ca fa3d 701b 02c0
00000130: a783 87bf ce83 b4bf c204 a0bf 9e8a 3bbf
00000140: 358b 17bf
-0.03398387 -0.38851506 0.28719106 -0.09863923 -0.34120995 -0.67803895 0.061917637 -0.14162605
0.034302417 -0.47202015 0.4602117 0.21879426 -0.052602623 -0.28413036 -0.11547113 -0.10722695
-0.29498157 0.07001383 0.16528943 -0.099854685 0.16406642 -0.0271215 -0.2709135 -0.0071053295
-0.43488422 -0.26634213 0.1324379 -0.7774811 -0.09894471 -0.34799442 0.30352914 -0.73290706
-0.12964943 0.098291226 -0.27078882 0.09611316 -0.08907942 0.17494427 0.11070356 -0.22859497
-0.012178668 -0.016004087 -0.22039498 -0.32310945 -0.5517842 -0.54197454 0.12093705 -0.5052399
0.5663673 -0.52124226 -1.5773675 -0.81275713 0.19124499 -0.3689585 -0.3755507 -0.06883035
-0.26506343 -0.30848098 0.24714896 0.3808693 1.0243677 -0.76635677 0.17119792 -0.92015207
-0.31357658 -1.1983955 0.24742973 0.0003674552 -0.032126434 -0.70500624 -0.5840747 -0.02510855
-0.08213484 -0.5643619 0.12245578 -2.0329247 -1.0587052 -1.4102724 -1.2501452 -0.7325839
-0.5919679

stage4/block3/1x1conv_1_B_new f4 [81]
00000000: 49b4 723d b73b bdbf 0ff9 863f 20c1 39bf
00000010: f31e 5c3f 122b eebe 4306 96be 5f7e 03bf
00000020: d620 963f e9e8 f03e f07a 66be 2f16 9e3f
00000030: 0519 2c3f f95a 673f 4fc5 cd40 8007 88bf
00000040: 5bc4 583f 416c a8be 0bf6 a0be 895b 4d3f
00000050: baec 833f 98fb 6c3f 163e 0240 7635 8ebc
00000060: a063 67be 42b9 c93f ca15 733e d475 443f
00000070: bc6b 25be baa8 f53f 7de5 113e 2be4 59be
00000080: 6126 13bf f9a9 293f 785d f6bf 9d73 493f
00000090: 5f52 85bf 53e0 a8bf 8a5e 2d3f fd4b b5bf
000000a0: 9515 d63f 7d95 f53f af8e 0240 b234 7a40
000000b0: 5112 9e40 bce1 c1bf af88 543e f48f 27bf
000000c0: fb72 edbe 21e8 e33e c29a fa3f 25cd 03bf
000000d0: 86a9 a4be d22c d23f 741e 3abf 33ff b3bf
000000e0: 323d e53f 43fa d63e db17 febd 096a f53e
000000f0: 6354 04c0 b9f2 e3be d381 a13f 343f 80bd
00000100: b7fd 9abf 0655 c33f 85eb d2bf 343b 3840
00000110: e728 c6be 95be fdbe 2e1d 40bf 3df2 a53d
00000120: 9ae2 4ebd 03dc 56bd 0817 c03f 2938 0cc0
00000130: 28e6 6c3f 342c 8cbf d01a 30bf b37e 843f
00000140: 39d7 2e40
0.059253965 -1.4783849 1.0544757 -0.7256031 0.85984725 -0.46517235 -0.29301652 -0.513647
1.1728771 0.47052696 -0.22507834 1.235052 0.67225677 0.9037319 6.4303355 -1.0627289
0.84674615 -0.3289509 -0.31437716 0.80217797 1.0306618 0.925714 2.0350394 -0.017359477
-0.22596598 1.5759661 0.2373878 0.7674229 -0.16154379 1.9192116 0.14247699 -0.21278445
-0.57480437 0.6627498 -1.9247274 0.78692037 -1.0415763 -1.3193458 0.6772238 -1.4163815
1.6725336 1.9186245 2.0399587 3.9094663 4.939736 -1.5147014 0.20755266 -0.6545403
-0.46376786 0.44513038 1.9578478 -0.514849 -0.32160586 1.6419928 -0.7270272 -1.4062256
1.79093 0.4198781 -0.12406894 0.4793246 -2.0676506 -0.4452112 1.2617744 -0.06262055
-1.2108678 1.5260322 -1.6478125 2.8786135 -0.3870308 -0.49559465 -0.75044525 0.08102844
-0.050509073 -0.052455913 1.5007029 -2.1909277 0.9253869 -1.095099 -0.6879091 1.0351166
2.7318861

stage4/block2/3x3dwconv_B_new f4 [81]
00000000: 0c2a 70bf c6c4 023d 8516 5a40 44af 03c0
00000010: feb9 2cc0 fc6c 773f 01e0 ef3e a78d c13f
00000020: f669 233f d514 d6bd 5203 ac3f 96c2 67bf
00000030: fa35 0040 6fcb 0840 d113 1cbf 6a1d 0a3f
00000040: 3311 10c0 8b2b 8ebf 57e4 ba3f eb85 c8bf
00000050: a08c ca3f 0fd5 b8bb 1793 2bc0 be3d 143e
00000060: 5c48 89bf 0e76 4bbf a9d2 1dbf 3295 6b3f
00000070: 1a11 593f 8202 893f 9827 2a3f 332f 8b3f
00000080: 975d 98bf 0a20 45bf ed25 e5bf debb 793f
00000090: ef2c 37bf aad4 f43e 2a42 e6be bd71 553f
000000a0: cac6 8bbe 54ea 0c3f bc95 11be 2d3f 12c0
000000b0: e863 58bf 4c0f 91be acee a9bf 8c24 763f
000000c0: 9a13 aebf 9f71 823f b232 54bf 0abc 03bf
000000d0: b3d8 1ec0 408c 4bbf 7330 9c3e 505c 02c0
000000e0: 27e5 af3f 3925 26bf 2536 d73f e83e 24c0
000000f0: e8fe 9d3e 574f 7c3e 47d8 953f 0b91 9a3f
00000100: 7db7 533f 4cf9 b13f e082 c1be 2f55 96bf
00000110: f85d 953d 467b de3e 5af6 a8bf a094 543f
00000120: 9581 8a3e 5732 b0bf 5f4b 983e 4701 343e
00000130: e9ad 6cbf eaa6 05c0 d2f3 0ebf aa58 8b3f
00000140: 7cb1 59bf
-0.9381416 0.03192594 3.4076245 -2.0575724 -2.698852 0.9665067 0.4685059 1.5121354
0.6383356 -0.10453192 1.3438513 -0.9053129 2.0032945 2.1374166 -0.6096774 0.5395113
-2.2510498 -1.1107038 1.4600934 -1.5665869 1.5824165 -0.005640633 -2.6808527 0.14476678
-1.0725207 -0.7947701 -0.61649567 0.9202453 0.8479172 1.070389 0.66466665 1.0873779
-1.1903561 -0.7700201 -1.7902199 0.9755229 -0.7155294 0.478185 -0.44972354 0.83376676
-0.27300102 0.55045056 -0.14217275 -2.285106 -0.84527445 -0.28331983 -1.3275962 0.96149516
-1.3599732 1.0190924 -0.82889855 -0.514588 -2.4819763 -0.7951088 0.30505714 -2.0368843
1.3741807 -0.6490055 1.6813399 -2.5663395 0.3085854 0.24639641 1.1706628 1.2075514
0.82701856 1.3904204 -0.37795162 -1.1744746 0.07293314 0.43453425 -1.320018 0.83039284
0.27051988 -1.3765363 0.29745004 0.17578612 -0.92452866 -2.0883126 -0.5584079 1.0886433
-0.85036445

stage4/block1/1x1conv_2_B_new f4 [81]
00000000: f356 0f3d 5017 c8be a773 393e 5f45 603e
00000010: c397 91be 9acd 3a3e 6e1b 70be 771d 17be
00000020: bff9 eebe be47 ffbd 4c62 bc3d c91d 1bbe
00000030: b449 13bf 0aa3 cdbd a167 b9be 68b4 033c
00000040: 10de a5be 8c06 ecbe c459 e5be 5eb0 883d
00000050: 4b34 d13e 35cc 0940 90d9 363f 4822 7e3e
00000060: c236 6e3f 3576 6f3f 8ed2 223f 87c3 3c3f
00000070: 07bb fa3e ee1b 2a40 9d27 493f af70 9a3e
00000080: 89fa 013f e9d5 e73f 8b1d 103f b6e7 373f
00000090: 30d8 b43f d73b 0f3f f32a 0940 b014 b33f
000000a0: a7a4 643f f9a7 6d3e c513 80bf 6b94 863f
000000b0: a950 ad3f f9eb 0a3e 3642 d0bd c180 c2be
000000c0: 0a45 9b3e 30fc 62bf d29e f73e b83c 163f
000000d0: afed 8a3d 12d4 49bd 8c67 613e fa32 1abe
000000e0: 50ba 81bf 194c 03bf 1870 0c3f c9d8 043e
000000f0: 0821 9abe 76f6 b73e 9c07 6ebe 6b4c 773f
00000100: ad8e dd3e f872 afbe a4bc c2be aa7a fb3e
00000110: 6786 403f b8a7 ab3e 2b27 af3e 0946 8fbe
00000120: c48a 663f 1b49 af3e 0339 793f d6a5 a83e
00000130: e510 303f 92e8 963d 7762 213f 335a 003f
00000140: a1d1 8d3d
0.03499503 -0.39080286 0.18110524 0.21901463 -0.28436098 0.18242493 -0.23447964 -0.14757334
-0.46674916 -0.124648556 0.09198436 -0.15148081 -0.5753434 -0.10040863 -0.36211875 0.008038618
-0.32395983 -0.46098745 -0.44795048 0.06674264 0.4086021 2.1530888 0.71425724 0.24817765
0.93052304 0.93539745 0.6360253 0.7373585 0.48970816 2.6579547 0.7857607 0.30164096
0.5077291 1.8112155 0.5629508 0.7183794 1.4128475 0.55950683 2.1432464 1.3990688
0.8931374 0.23208608 -1.0006033 1.0514044 1.354024 0.13566579 -0.10168879 -0.37988856
0.3032611 -0.8866606 0.48363358 0.586864 0.06783616 -0.04927451 0.22012156 -0.15058509
-1.0134983 -0.5128799 0.5485854 0.12973322 -0.30103326 0.35930222 -0.2324509 0.9660098
0.43272915 -0.34267402 -0.38034546 0.49117023 0.7520508 0.33526397 0.3420957 -0.2798312
0.9005549 0.34235463 0.9735262 0.32939023 0.6877578 0.07368578 0.6304087 0.50137633
0.06924749

stage4/block1/1x1_conv_3_B_new f4 [81]
00000000: d326 09bf 5aa1 d3bd 7824 a43e 25d9 e83d
00000010: 3d92 a9be b134 86be 4f92 17bd c71f 1bbf
00000020: 3b08 3cbe a09e e2bd 2ff2 ca3e 28c1 fdbe
00000030: 0810 a9bb 8458 8fbf c37d ccbd ded0 a9be
00000040: 09e0 5abe 6695 94bf 34ae 513e 0f52 80be
00000050: f956 a23e 8a2e 443e 5ef0 553e b59d 3d3f
00000060: d6a1 a83e 94a2 8f3e c2bd 2f3e 685b b1bd
00000070: 1d55 d7bd b746 43bf 9fcc 383e 9152 383f
00000080: 142c a63e cfa2 403f 9963 ea3e 2161 a93d
00000090: df69 913f 1778 d03e d6ce 963e e758 ee3d
000000a0: c4e2 31bf 1a18 cdbe 7c6c 2fbe c623 233f
000000b0: 7610 e8be 17e2 be3c 7a19 193e 6826 253f
000000c0: c46a 05be df01 b0be a42e 433e 448a 243f
000000d0: ecc4 8fbf e6ef 003f eab0 45be c3f6 043e
000000e0: 53c7 b03e fc3c 01be 5641 a23e d89f ac3e
000000f0: dfca 8dbe 5569 233f cf66 f9be abdf 91be
00000100: b354 2e3e 7255 e8be 91b8 dbbe 9d31 363d
00000110: 5d1f 15bf a239 d03d e651 c9be 84ec 943e
00000120: 2d2f 173e d763 e83e d920 aebc 1efc 3dbe
00000130: 9bf2 833f fc74 aebe a0f2 0c3f 2c38 dd3e
00000140: c7e0 ec3e
-0.53574866 -0.1033351 0.32059073 0.11369542 -0.33119383 -0.26212075 -0.037004765 -0.60595363
-0.18362515 -0.110654116 0.39637896 -0.4956143 -0.005159382 -1.1198888 -0.09984925 -0.33167166
-0.21374525 -1.1608093 0.2047661 -0.25062606 0.3170698 0.19158378 0.20892474 0.74068767
0.3293597 0.28053725 0.1716223 -0.086600125 -0.10514281 -0.7627978 0.18046807 0.72000986
0.32455504 0.75248426 0.45779112 0.08270479 1.1360434 0.4071662 0.29454678 0.116380505
-0.6948664 -0.4005745 -0.17131227 0.6372646 -0.4532506 0.023301167 0.14951125 0.6451173
-0.13029009 -0.34376428 0.1906076 0.64273477 -1.1231971 0.50366056 -0.19305769 0.12984757
0.34527072 -0.1262092 0.31690472 0.337157 -0.2769384 0.638326 -0.4871125 -0.28490958
0.17024498 -0.4537769 -0.4291425 0.04448091 -0.5825098 0.101672426 -0.39320296 0.29086697
0.1476409 0.45388672 -0.021255897 -0.18553206 1.0308412 -0.34073627 0.55057716 0.43206918
0.46265242
