captcha_model_dense_parallel.onnx (onnx, 236379 bytes, 72 tensors)

dense_474/kernel:0 f4 [128, 23]
00000000: d446 67bd c2a5 32be e2d6 38be 416c afbd
00000010: ac6d bdbd c4bd 4bbe d017 2fbc c864 8cbc
00000020: 72f1 2a3e a4c8 e6bd 80a2 c03c e8b5 9a3d
00000030: 588d a63d d079 27be f646 0abe c837 85bd
00000040: b40d 053e 0959 20be d872 2a3d 405b 9c3d
00000050: 0431 49be 2624 253e 2071 143e ecc2 c33d
00000060: 50a9 2cbc b9e3 f6bd ecba d4bd 4036 febb
00000070: dc47 9dbd 886d ec3d 6c97 2f3e c090 163c
00000080: 0020 4b38 dcea d73d 33c8 f0bd 240e 4a3e
00000090: 6e33 30be 5885 6c3d 002c 453c 2937 babd
000000a0: 4968 98bd b0b6 a23d 50a0 503d 820b 3f3e
000000b0: 48a9 a23d 18b1 a6bd 4684 373e 3935 44be
000000c0: 198d 3bbe 542f 5cbd 4b5c b7bd 5467 42bd
000000d0: a8e2 173e 14f9 f43d 7ab2 91bd c652 92bd
000000e0: 787a 413d f053 ac3d 480a df3d a65d 0b3e
000000f0: d066 b23d fefa 1a3e 92f4 123e e054 85bb
00000100: ccce 253d 5470 f93d a7c6 02be 0816 b53d
00000110: 486c 25bd 0cd1 033d b880 05bd 18f8 c93d
00000120: c8bf f93d 8018 fbba d878 f43c 38de 64bd
00000130: 1c9b f43d 71cf 2dbe 9a07 d0bd f0fe 00bc
00000140: a8c8 5e3d 5421 ed3d 2cb2 09be 80e2 f8ba
00000150: 0eff 473e 90c0 c03d 526b 063e c978 30be
00000160: 803e fa3c 18e8 953c 105a 1d3e fe60 09be
00000170: aaf1 003e 18aa 31bd 20b2 d5bd 967a a0bd
00000180: 90c6 41bd fe2e 2f3e c049 b5bc c075 6f3d
00000190: e16a 04be 0e3b 01be 20bc 043c 270c babd
000001a0: dc52 5bbd e071 363d 5c94 443e 70c4 fdbd
000001b0: acac e03d 8412 b53d ee4a 34be 35ef e9bd
000001c0: c4c1 c23d 9b25 b3bd 3cbb 0cbe 16ca 1d3e
000001d0: 88ee c43d c9cc 21be 10a0 8f3d c072 39bb
000001e0: 85d9 06be b043 6b3d 683b b13c 6627 80bd
000001f0: 61a1 1bbe de8c 463e 84b3 2d3d 56c8 08be
00000200: 1c3d 2b3e a88c 3dbe 5428 8bbd bef4 143e
00000210: 603a 833d eff5 a8bd 8077 183e 1883 2b3d
00000220: 80d6 15bd e4af c43d f419 f1bd d860 ef3d
00000230: 4cdf 363e e87e 79bd 3431 213e bcaa 66bd
00000240: c8b9 d83c 64d8 183d f83d 443d bc4a d03d
00000250: 9e72 02be 80ef 53bb 180b 0ebd 446b f83d
00000260: 6808 9b3d 5c5f 0bbd 78d2 353e 3cb5 26bd
00000270: 071f e7bd 808a 0bbe 794e bfbd 4c3d b6bd
00000280: 02ee 0abe 4a46 debd a400 243d 7813 8ebc
00000290: 8841 9e3d 34b0 c03d 0cf3 8bbd a8a9 45bd
000002a0: 9863 2e3e a267 3b3e dea1 2d3e 32a8 083e
000002b0: 98dc a73c f0c9 6fbc 0c4f bebd 7037 e7bc
000002c0: 3c3b 05be 8048 043d faf3 293e 7ca8 fe3d
000002d0: d09b 1f3c f06d 2f3e c8c4 0cbd 136c 46be
000002e0: f0a7 503d 8aa0 453e f2c0 17be d6bd 27be
000002f0: f35a b6bd a023 3bbe 0431 0c3d 907e 6d3d
00000300: 083f 13be fdb7 43be b877 1f3e 6ee7 433e
00000310: c0be 3bbd 6c16 a93d 0e10 043e a0b6 26bd
00000320: 4516 1abe f853 db3d bc45 fdbd 7f09 ddbd
00000330: a044 3cbe c428 013d 1cbd 97bd 90b5 ac3d
00000340: 14a8 da3d 2856 3dbd 38c7 aabc 0098 3c3e
00000350: 2226 10be d8ee f23d e6e4 183e ec0c e43d
00000360: 44ee 0d3e f0e9 1bbe 8fe1 ccbd aef5 05be
00000370: c0d5 1c3e 48e3 23be 9df1 fbbd bc98 a1bd
00000380: 00d1 b4ba 0646 263e d05a 10bc 00d0 c739
00000390: 1094 1fbc 5860 ff3d 4f62 45be 7cb8 df3d
000003a0: c0a5 8dbb 0c36 b63d ccca 473d d4a0 453e
000003b0: 348f 2f3e f0a5 afbd 6a4c 273e fc10 36be
000003c0: 0cae a53d 429e 233e fca3 bd3d 541e 5dbd
000003d0: 849c 3f3e 8040 4a3c 5d78 36be 38b0 3abe
000003e0: 3cf2 3c3e fb03 20be 78f4 0ebd 5c5c 16bd
000003f0: 7cfe 2b3e 001b 393b 9c78 4f3d fea6 1d3e
-0.05646403 -0.17446044 -0.18050721 -0.0856557 -0.09249434 -0.19896609 -0.01068683 -0.0171379
0.16693667 -0.11268738 0.023514986 0.07554227 0.08132428 -0.16355062 -0.13503632 -0.0650478
0.12993509 -0.15658964 0.04161343 0.07634592 -0.19647604 0.16127071 0.14496279 0.09558663
-0.010538414 -0.120551534 -0.10387215 -0.007757932 -0.07679722 0.11544329 0.17147607 0.0091897845
4.8428774e-05 0.10542843 -0.11756935 0.19731957 -0.17207119 0.057744354 0.012034416 -0.09092552
-0.07441766 0.07945001 0.050934136 0.18656734 0.07942444 -0.08139247 0.17921552 -0.19160928
-0.18315543 -0.053756073 -0.0895315 -0.047461823 0.14832556 0.119615704 -0.0711412 -0.07144694
0.047235936 0.08414447 0.10890633 0.13609943 0.08711016 0.15134808 0.14351109 -0.004068956
0.04048042 0.12179628 -0.12771092 0.08842093 -0.04038647 0.032181785 -0.03259346 0.09861773
0.121947825 -0.0019157082 0.029842779 -0.055875987 0.11943647 -0.16973664 -0.101577 -0.007873282
0.05439058 0.115786225 -0.13446873 -0.0018988401 0.1953089 0.094117284 0.13126877 -0.17233576
0.03054738 0.018299147 0.15366387 -0.13415906 0.12592188 -0.043375105 -0.10434365 -0.078358814
-0.047308505 0.1710777 -0.022129893 0.058461905 -0.12931396 -0.12620184 0.008101493 -0.09084349
-0.053545818 0.044542193 0.1919722 -0.12390983 0.109704345 0.08841422 -0.17606708 -0.11422578
0.09509614 -0.08747407 -0.13743299 0.15409121 0.09615809 -0.15800776 0.070129514 -0.0028297156
-0.13168915 0.0574376 0.021634772 -0.06257515 -0.1519828 0.19389674 0.042407528 -0.13357672
0.1672253 -0.18510687 -0.06794801 0.14546487 0.064076185 -0.08250033 0.14889336 0.041873068
-0.036581516 0.09603861 -0.11772528 0.11688393 0.17858618 -0.060912043 0.15741426 -0.05631517
0.026455775 0.03731574 0.04791066 0.101705045 -0.12739035 -0.0032338798 -0.03467855 0.12129834
0.07569963 -0.03402649 0.17756069 -0.040700182 -0.11285215 -0.13627052 -0.09341139 -0.0889841
-0.13567355 -0.1085325 0.040039673 -0.017343268 0.07727343 0.09408608 -0.06833467 -0.0482575
0.1703018 0.18301252 0.16956279 0.13345411 0.02049093 -0.014635548 -0.09292421 -0.028224677
-0.13010877 0.032295704 0.16596976 0.124344796 0.009741738 0.17131782 -0.034367353 -0.19377165
0.050941408 0.19299522 -0.14819697 -0.1638101 -0.08904066 -0.18275309 0.034226432 0.057982028
-0.14379513 -0.19113155 0.15573013 0.19131252 -0.04583621 0.0825623 0.1289675 -0.04070151
-0.15047558 0.10709375 -0.123668164 -0.10792827 -0.18385553 0.031533018 -0.074091166 0.08433068
0.106765896 -0.046224743 -0.020846948 0.18417358 -0.14077047 0.11861962 0.14931068 0.11135277
0.13860422 -0.15225959 -0.100039594 -0.13082 0.15315914 -0.1600467 -0.123019435 -0.0789046
-0.0013795197 0.1623765 -0.008810714 0.0003811121 -0.009739891 0.12469548 -0.19275783 0.109238595
-0.0043227375 0.088970274 0.048777387 0.19299632 0.17144471 -0.08576572 0.16337743 -0.17779917
0.080898374 0.1597834 0.09259793 -0.053984 0.1871205 0.01234448 -0.17819352 -0.18231285
0.1845178 -0.15626518 -0.034901112 -0.036709175 0.16796297 0.0028244853 0.05065213 0.15395734

dense_474/bias:0 f4 [23]
00000000: 0000 0000 0000 0000 0000 0000 0000 0000
00000010: 0000 0000 0000 0000 0000 0000 0000 0000
00000020: 0000 0000 0000 0000 0000 0000 0000 0000
00000030: 0000 0000 0000 0000 0000 0000 0000 0000
00000040: 0000 0000 0000 0000 0000 0000 0000 0000
00000050: 0000 0000 0000 0000 0000 0000
0.0 0.0 0.0 0.0 0.0 0.0 0.0 0.0
0.0 0.0 0.0 0.0 0.0 0.0 0.0 0.0
0.0 0.0 0.0 0.0 0.0 0.0 0.0

dense_466/kernel:0 f4 [4, 16]
00000000: 1007 593e 26be 8cbe 3e97 9f3e ee81 e73e
00000010: 5438 003e c276 da3e 774e b4be 0aba 01bf
00000020: d024 663e b809 b93d dea3 093f 3463 183e
00000030: c8ef 713e 7300 b8be c84b 53be 00ef 833c
00000040: c4e4 983e 60ac 813d d8ad c8bd 3ce8 c73e
00000050: 7c13 89bd 72be ad3e 23a5 a8be 5075 f93e
00000060: 0411 08bf 4890 98be e232 d63e e066 a33e
00000070: e4f8 03bf 581c 98bd 9824 c53e 0e0e 953e
00000080: c803 af3d 56e6 913e 7883 d6be 36aa 0a3f
00000090: 8001 cc3e 88e3 cfbd f0c3 aa3d 4078 e83d
000000a0: e094 823c 18ee cdbe a441 ebbe 90cb e93d
000000b0: 34c3 a7bd 301d c7bd 4e95 c1be ac79 093e
000000c0: a421 f13e 141a 08bf 345d fbbe cc9a 0a3e
000000d0: 1cf7 01bf e01c c3bd a6cf 9abe 98cb 5c3e
000000e0: 2b35 babe b0e8 323d 163a ca3e a06d b8bc
000000f0: 24e7 a7bd 0445 17be 3e2e 08bf ec99 b73e
0.211941 -0.27488822 0.31170076 0.45216316 0.12521487 0.4266873 -0.35216114 -0.506745
0.2247498 0.09035057 0.53765666 0.14881593 0.23626626 -0.35937843 -0.20634377 0.016105175
0.29862034 0.06331706 -0.09798783 0.39044368 -0.066931695 0.3393436 -0.3293849 0.48722315
-0.53150964 -0.29797578 0.41835696 0.31914425 -0.5155165 -0.07427281 0.3850448 0.29112285
0.08545643 0.28496045 -0.41897178 0.5416597 0.39844894 -0.1015082 0.08338153 0.11351061
0.01594013 -0.40220714 -0.45948517 0.114157796 -0.08191529 -0.09722364 -0.37809223 0.1342532
0.47095978 -0.5316479 -0.49094546 0.13535613 -0.50767684 -0.09526992 -0.30236548 0.2156204
-0.3636869 0.04367894 0.3949744 -0.02251321 -0.081983835 -0.14772421 -0.5319556 0.3585962

dense_466/bias:0 f4 [16]
00000000: 0000 0000 0000 0000 0000 0000 0000 0000
00000010: 0000 0000 0000 0000 0000 0000 0000 0000
00000020: 0000 0000 0000 0000 0000 0000 0000 0000
00000030: 0000 0000 0000 0000 0000 0000 0000 0000
0.0 0.0 0.0 0.0 0.0 0.0 0.0 0.0
0.0 0.0 0.0 0.0 0.0 0.0 0.0 0.0

dense_467/kernel:0 f4 [4, 16]
00000000: a06d fb3d 9669 9cbe 482c 083f e37f 9ebe
00000010: 204a 91bd 6083 a03d 5e91 d6be 73bb 96be
00000020: eebb adbe 8cfb ad3e 68ad f1be 10e4 7bbd
00000030: 94a8 e0bd ec11 e03e 8a97 b33e d0cb a33e
00000040: c6cd 8a3e 5175 f1be 9a3c ecbe a8f1 debd
00000050: d267 0b3f 180e 64be c83b a23e eabf fbbe
00000060: 64f7 4a3e e4c5 083f ac3d aa3e f789 c0be
00000070: cef1 dcbe 30cb 813d 7c6c c5be decb b53e
00000080: 8a78 8cbe 82da e53e 6439 f73e e090 f03c
00000090: a04b 083f 107b 603d c807 383e bd28 c7be
000000a0: 66e2 26be b05e 03bf 3ce7 0c3e 7cdd 5f3e
000000b0: a8f2 cc3e 946a 1e3e 30c6 a93d 5ee1 dd3e
000000c0: bbd0 e1be 500e 233e 1876 f23e f81d 76be
000000d0: 8615 98be d811 cf3e 4037 49bd fa71 043f
000000e0: 002e 34bc 0013 9f3b a4ed ac3e 5621 8f3e
000000f0: b4b9 ef3e 704f 1e3e f890 cc3e 5049 9dbe
0.12276769 -0.30549306 0.5319257 -0.30956945 -0.07094216 0.07837558 -0.4190778 -0.29439887
-0.3393244 0.33980978 -0.4720261 -0.061496794 -0.10969654 0.43763673 0.35076553 0.31991434
0.27110118 -0.47159818 -0.46139985 -0.10885936 0.5445529 -0.22271001 0.31686234 -0.49169856
0.19820935 0.5342696 0.33250177 -0.3760526 -0.43153232 0.06337583 -0.3855933 0.355071
-0.27435714 0.4489327 0.48285973 0.029365957 0.53240395 0.05480486 0.17971718 -0.38898268
-0.16297302 -0.51316357 0.13760084 0.21861833 0.40028882 0.15470344 0.082897544 0.43336004
-0.4410456 0.15923429 0.47355723 -0.2403487 -0.2970392 0.404433 -0.049124956 0.51736414
-0.010997295 0.00485456 0.33775055 0.2795512 0.46821368 0.1545999 0.39954352 -0.30719995

dense_467/bias:0 f4 [16]
00000000: 0000 0000 0000 0000 0000 0000 0000 0000
00000010: 0000 0000 0000 0000 0000 0000 0000 0000
00000020: 0000 0000 0000 0000 0000 0000 0000 0000
00000030: 0000 0000 0000 0000 0000 0000 0000 0000
0.0 0.0 0.0 0.0 0.0 0.0 0.0 0.0
0.0 0.0 0.0 0.0 0.0 0.0 0.0 0.0

dense_468/kernel:0 f4 [4, 16]
00000000: f8c5 e03e 7638 55be e073 a2be e439 a53e
00000010: ac94 883e aa7d b7be 7a3a 2bbe f87c 8cbd
00000020: 64af 7ebe 3af9 9c3e 2e01 b9be 80e0 29bc
00000030: debb bd3e d843 413e ace5 ffbd 9073 d43d
00000040: b2e3 a4be eee7 923e 603d c4bc 28bf fc3d
00000050: 709d 033d 344a 053f cadf 053f 1ea2 18be
00000060: 7116 8abe 0a20 bb3e 7019 0a3d e6c1 e43e
00000070: e45b f73e 9e2c e5be bc04 06bf fb5b 8fbe
00000080: e884 a2be 2057 733e 0c61 e53e b437 343e
00000090: 48ed 58be 5817 413e ec9b ab3e 0004 9bbd
000000a0: 74d8 5e3e 1c51 4c3e a038 ec3d bce3 a5bd
000000b0: feae 9cbe 3ed2 5cbe c61e 0bbe 04c4 28be
000000c0: 0ecc 8d3e c866 6e3e 3816 9fbe 1e27 9a3e
000000d0: 4048 cb3c 8abc aebe 724d f4be a024 c6be
000000e0: 2ef6 c63e e8fd d63d acdf e83e 9ae9 aa3e
000000f0: ea41 1dbe 0665 c73e e679 52be 1a17 0bbe
0.43901038 -0.2082232 -0.3172903 0.3227073 0.26675928 -0.35838062 -0.16721526 -0.068597734
-0.24871594 0.30658895 -0.36133713 -0.010368466 0.37057394 0.18873537 -0.12494978 0.10373604
-0.32204968 0.28692573 -0.023955047 0.12341148 0.032132566 0.5206635 0.522946 -0.14905593
-0.26970246 0.3654788 0.033715665 0.44679183 0.48312294 -0.44760603 -0.52350974 -0.27999863
-0.31742024 0.23763704 0.44800603 0.17599374 -0.21184266 0.18856561 0.33517396 -0.07569122
0.21762258 0.19952816 0.11534238 -0.081000775 -0.30602258 -0.21564576 -0.13585958 -0.16481024
0.27694744 0.23281395 -0.3107164 0.3010797 0.024814725 -0.3412822 -0.47715336 -0.38699818
0.38859695 0.104976475 0.45483148 0.3338135 -0.15357175 0.38944262 -0.20554313 -0.13583031

dense_468/bias:0 f4 [16]
00000000: 0000 0000 0000 0000 0000 0000 0000 0000
00000010: 0000 0000 0000 0000 0000 0000 0000 0000
00000020: 0000 0000 0000 0000 0000 0000 0000 0000
00000030: 0000 0000 0000 0000 0000 0000 0000 0000
0.0 0.0 0.0 0.0 0.0 0.0 0.0 0.0
0.0 0.0 0.0 0.0 0.0 0.0 0.0 0.0

dense_469/kernel:0 f4 [4, 16]
00000000: 0032 b9bc a81b b23d 7d9a fabe 7253 883e
00000010: 9987 84be 606c 403d 2c95 c2bd fccf ac3e
00000020: 9003 7c3e a04c c63d 9cca 53be 3cea 083f
00000030: 3030 5cbd 70d9 dd3d c85e 313e 804d d13b
00000040: 6c43 023f 26ad 91be 9af5 e7be b071 2cbe
00000050: 1403 df3e 90e3 c5be 7a51 9b3e 166d be3e
00000060: 3bf1 09bf b4ca 473e d08f bc3d 59d2 cdbe
00000070: 4a3a e8be 3e9e bf3e 1a37 08be e0ba 03bd
00000080: 5cb3 043e 8029 713d 6ae5 debe 5e7e 72be
00000090: 48ea 02bf 9655 073f fa70 d13e 80cd 14bc
000000a0: fc60 08bf 240f 5dbe 6457 0c3e 0c19 643e
000000b0: 9c63 d33e bce7 f13e ac8c 003e 00c3 573b
000000c0: 701a db3e 04dd 3b3e b6b9 97be a0cb e1bd
000000d0: 7838 b6be b089 dcbe b79b e8be 248e 1e3e
000000e0: 14b2 233e 34d4 f73e dc35 403e 7258 013f
000000f0: 80a2 343c dce5 503e fbf2 a6be 0095 193e
-0.02260685 0.08696681 -0.4894599 0.26626164 -0.25884703 0.046978354 -0.095011085 0.3375243
0.24610734 0.09682584 -0.20682758 0.53482413 -0.053756893 0.108324885 0.17321312 0.0063874125
0.5088413 -0.28452414 -0.45304567 -0.16840243 0.43557036 -0.3865018 0.303356 0.371926
-0.53883713 0.19510919 0.092071176 -0.40199545 -0.4535697 0.37425417 -0.1330227 -0.03216064
0.12959045 0.058877468 -0.43534404 -0.23681018 -0.51138735 0.5286497 0.40906507 -0.009082198
-0.53272986 -0.21587807 0.13705212 0.2227518 0.41286933 0.47247112 0.12553662 0.0032922626
0.42793608 0.1834603 -0.29633874 -0.110251665 -0.35589957 -0.43073797 -0.454313 0.1548391
0.159859 0.48404086 0.18770546 0.5052558 0.011025071 0.20400184 -0.32607254 0.14998245

dense_469/bias:0 f4 [16]
00000000: 0000 0000 0000 0000 0000 0000 0000 0000
00000010: 0000 0000 0000 0000 0000 0000 0000 0000
00000020: 0000 0000 0000 0000 0000 0000 0000 0000
00000030: 0000 0000 0000 0000 0000 0000 0000 0000
0.0 0.0 0.0 0.0 0.0 0.0 0.0 0.0
0.0 0.0 0.0 0.0 0.0 0.0 0.0 0.0

dense_470/kernel:0 f4 [4, 16]
00000000: 204e 383e 5f15 eebe 6e13 9dbe a8d6 02bf
00000010: 500c 013d 6075 6cbe 4841 dcbe 6481 53be
00000020: 6c54 273e 0c3e ac3e f4e1 8dbd 2ea3 b73e
00000030: fcbe e73e 02d1 b4be 02e4 c33e 9865 2dbe
00000040: 24c9 90bd 8844 083f 0005 593e 9eac 00bf
00000050: 7b2d dcbe 28e2 8b3d 8061 273c 029b dabe
00000060: 92f0 0b3f 8452 d4be 9816 5ebe fc68 be3e
00000070: 707d adbe dc47 9abd 4069 fb3d 0c4c 3b3e
00000080: 70eb 00be 587e 8c3d 68d2 79bd ec9b 5f3e
00000090: 54f3 c3be 3ade 0bbf da70 64be 9c87 d2be
000000a0: 36d8 5fbe f4db fdbe e08d 19be c0e3 a13c
000000b0: e6fa babe 1c66 ec3e 24be bbbe 3606 a0be
000000c0: 8051 8f3c f06a 41bd b870 58bd 8dbf 0abf
000000d0: 5cd2 e33e 60c7 febc 48b0 993e 5448 073e
000000e0: 9c9f bf3e d6ac afbe 1072 d0be 0cc4 2d3e
000000f0: a067 803c a03b 24bd 34f2 343e 0288 b4be
0.17998552 -0.4650068 -0.30678886 -0.5110879 0.031505883 -0.2309165 -0.43018556 -0.20654827
0.16340798 0.33641088 -0.06927863 0.35866684 0.45262897 -0.3531571 0.38259894 -0.16933286
-0.070696145 0.5322957 0.21193314 -0.5026339 -0.4300345 0.06830245 0.010216117 -0.42696387
0.54663956 -0.41469204 -0.21688306 0.37189472 -0.33884764 -0.07533237 0.12275934 0.18290728
-0.12589812 0.06860036 -0.060991675 0.21836823 -0.38271582 -0.54635966 -0.22308674 -0.41119087
-0.21859822 -0.49581873 -0.14995527 0.01976192 -0.36519545 0.46171653 -0.36668503 -0.3125474
0.017494917 -0.047221124 -0.052841872 -0.54198533 0.4449643 -0.031100929 0.30017304 0.13211185
0.3742646 -0.3431155 -0.40712023 0.16969317 0.015674412 -0.040095925 0.17670518 -0.35260016

dense_470/bias:0 f4 [16]
00000000: 0000 0000 0000 0000 0000 0000 0000 0000
00000010: 0000 0000 0000 0000 0000 0000 0000 0000
00000020: 0000 0000 0000 0000 0000 0000 0000 0000
00000030: 0000 0000 0000 0000 0000 0000 0000 0000
0.0 0.0 0.0 0.0 0.0 0.0 0.0 0.0
0.0 0.0 0.0 0.0 0.0 0.0 0.0 0.0

dense_471/kernel:0 f4 [4, 16]
00000000: 12da 033f 20b6 bb3c 984b 62be f382 87be
00000010: a098 ea3d b407 a4bd 9804 eabd 7051 913e
00000020: 6005 abbd 0406 edbd ddbb 8bbe 34a2 ec3e
00000030: 3cc3 ed3e 33b4 e9be 9674 f7be 4475 093f
00000040: fe7e 813e d497 b8be 30ab 6f3d e00d 873c
00000050: aa20 a7be 5c3d 1a3e 4002 e6be f4e1 debe
00000060: 067a c3be bc9c bb3e 7ea8 03bf a84a f2be
00000070: 1d0c ddbe b66d 09bf dc7c f83e 9842 db3e
00000080: e815 8e3d 9c53 a7bd 163d e9be 7239 30be
00000090: 1a34 edbe 8a04 79be faf6 073f c0a3 d83e
000000a0: 80ef 933b 0c5d 97bd ea2d cfbe 6a48 37be
000000b0: e619 4bbe 80ae da3e 743d ffbe bc44 243e
000000c0: 145a bcbd c02a f23c c8b6 003f ec0e ec3e
000000d0: e0ef 57bd 6a35 0b3f 4838 d33d d867 1dbe
000000e0: e4da 943e e0e8 d33e ee6b 4ebe 5029 073f
000000f0: 08e4 f7bd e563 cbbe d7c5 05bf 99d2 fabe
0.51504624 0.022913992 -0.22099149 -0.26467094 0.11454892 -0.08009282 -0.114266574 0.28382444
-0.083506346 -0.11573413 -0.27291766 0.462175 0.46438015 -0.45645294 -0.48331136 0.5369456
0.252922 -0.36053336 0.058512866 0.016486108 -0.32642108 0.15062469 -0.44923592 -0.43531764
-0.38179034 0.36643016 -0.51428974 -0.47322583 -0.43173304 -0.5368303 0.4853276 0.42824244
0.06937772 -0.08170244 -0.45554417 -0.17209414 -0.46328813 -0.24318138 0.5311123 0.4231243
0.0045146346 -0.07390794 -0.40464717 -0.17898718 -0.19834098 0.42711258 -0.49851573 0.16041845
-0.091968685 0.0295614 0.502789 0.46105134 -0.052718997 0.5437838 0.10313469 -0.15371644
0.2907325 0.41388607 -0.2015836 0.5279741 -0.121040404 -0.3972465 -0.52255005 -0.48988798

dense_471/bias:0 f4 [16]
00000000: 0000 0000 0000 0000 0000 0000 0000 0000
00000010: 0000 0000 0000 0000 0000 0000 0000 0000
00000020: 0000 0000 0000 0000 0000 0000 0000 0000
00000030: 0000 0000 0000 0000 0000 0000 0000 0000
0.0 0.0 0.0 0.0 0.0 0.0 0.0 0.0
0.0 0.0 0.0 0.0 0.0 0.0 0.0 0.0

dense_472/kernel:0 f4 [4, 16]
00000000: e42e e63e 2060 02bf 506c 06bd 78de bd3d
00000010: 98e4 c93e b1b7 93be 1ce1 7cbe f894 e2be
00000020: f8c6 923e 009b a23d fc14 393e 60f0 1cbe
00000030: bcd8 813e 5c70 853e 82bb 50be cea2 893e
00000040: aa3b 1cbe eccd 9abd 8cd6 98be e5f5 dabe
00000050: be11 013f d844 56be 600e 9c3c e205 dfbe
00000060: f04d f23e d828 9a3d dc67 5b3e 0e25 0c3f
00000070: 0cd2 1cbe 6907 bdbe 9c09 533e 581f 55bd
00000080: 9450 90bd 2eb5 843e 0008 16bc 6594 ccbe
00000090: 60e9 2bbe 2083 543e 8044 07bf 90fe f73e
000000a0: e8ae 263e 1e69 b8be 1cdc 2d3e e84d c1bd
000000b0: 4d5f e3be a876 d13d 3033 7e3d 3112 0bbf
000000c0: 9c1e 5d3e 4041 e53c 2e14 65be 00d0 483a
000000d0: fcb1 a33e 82a4 ac3e 1d3c 84be 8056 f03d
000000e0: d444 e43e f014 21be 7a4a c33e 206b d53e
000000f0: 6bc1 9fbe 88b4 be3e f83c c73e 0064 a7be
0.4495765 -0.50927925 -0.03281814 0.09270948 0.39432216 -0.28851083 -0.24695247 -0.4425428
0.28667426 0.0793972 0.18074411 -0.15326071 0.25360668 0.26062286 -0.20384029 0.26882023
-0.15257135 -0.07558808 -0.29851186 -0.42765728 0.504177 -0.209247 0.019049823 -0.43559176
0.47325087 0.075273216 0.21426338 0.5474404 -0.15314502 -0.36919716 0.20609134 -0.052031845
-0.07046619 0.2591948 -0.009157181 -0.39956966 -0.16788244 0.20753145 -0.528389 0.48436403
0.16277659 -0.36017698 0.16978496 -0.094386876 -0.44408646 0.1022771 0.062060535 -0.5432463
0.21593708 0.027985215 -0.22370979 0.0007660389 0.3197173 0.3371926 -0.25827113 0.117352486
0.44583762 -0.15730643 0.3814276 0.41683292 -0.31202254 0.3724711 0.38913703 -0.3269348

dense_472/bias:0 f4 [16]
00000000: 0000 0000 0000 0000 0000 0000 0000 0000
00000010: 0000 0000 0000 0000 0000 0000 0000 0000
00000020: 0000 0000 0000 0000 0000 0000 0000 0000
00000030: 0000 0000 0000 0000 0000 0000 0000 0000
0.0 0.0 0.0 0.0 0.0 0.0 0.0 0.0
0.0 0.0 0.0 0.0 0.0 0.0 0.0 0.0

dense_473/kernel:0 f4 [4, 16]
00000000: 08a1 0e3e 7e36 46be 165e 19be b81a ff3e
00000010: d081 ed3e 3c09 02bf 609c 453e 1c33 803e
00000020: 787d 9bbd f0ed ae3e 20a8 e8bc 58a3 863e
00000030: ac30 683e 803f 67bd 6868 0f3e 30b0 253e
00000040: 9ac9 27be 18aa 033f d0fa b13e 4875 023f
00000050: f0f7 b33e 98c8 a53e d440 c2bd 0e38 80be
00000060: 2453 7d3e a0d7 d83c 38b0 42be 0879 08be
00000070: 688f b43e 74c9 753e 8ef3 3ebe faf0 dfbe
00000080: d059 7ebd a4cd cfbe 5661 0b3f 68c0 b63d
00000090: fac0 db3e 485b de3e 4c40 ee3e 8078 ff3c
000000a0: 94f8 4c3e a2ca 6ebe 9bbc 97be dc7e e1be
000000b0: eb91 99be 00c8 93ba 202e 853e 5492 0a3f
000000c0: b079 ee3e 8024 a1bc 20ad 72be c609 c93e
000000d0: 8022 553d c6f9 1ebe 4011 e93e 60d3 a73c
000000e0: 8433 343e e657 d1be 9409 043f 10fc 27be
000000f0: 5621 b93e a479 d0be 80d0 ad3d acb5 13be
0.13928616 -0.19356725 -0.14977297 0.49825072 0.46388102 -0.5079534 0.19297934 0.25038993
-0.07592291 0.34165907 -0.02840048 0.26296496 0.22674817 -0.056457043 0.14004672 0.16180491
-0.16385499 0.5143142 0.34761667 0.50960207 0.351501 0.32379603 -0.09485021 -0.25042766
0.24738747 0.026470006 -0.19012535 -0.1332742 0.3526566 0.2400263 -0.18647596 -0.43738538
-0.06209737 -0.4058658 0.544454 0.08923417 0.42920667 0.43429017 0.4653343 0.031185389
0.200167 -0.23319486 -0.29636082 -0.440421 -0.2999414 -0.0011274815 0.26011753 0.5412953
0.46577215 -0.019670725 -0.23698854 0.3926527 0.052034855 -0.15524969 0.45520973 0.020486534
0.17597777 -0.40887374 0.51577115 -0.16404748 0.36158246 -0.40717804 0.08487034 -0.14424771

dense_473/bias:0 f4 [16]
00000000: 0000 0000 0000 0000 0000 0000 0000 0000
00000010: 0000 0000 0000 0000 0000 0000 0000 0000
00000020: 0000 0000 0000 0000 0000 0000 0000 0000
00000030: 0000 0000 0000 0000 0000 0000 0000 0000
0.0 0.0 0.0 0.0 0.0 0.0 0.0 0.0
0.0 0.0 0.0 0.0 0.0 0.0 0.0 0.0

dense_457/kernel:0 f4 [4, 16]
00000000: b4c5 04bf d845 7fbe 0c06 4b3e 8497 b03e
00000010: 52ca 62be 9e45 8cbe 22f6 883e e292 7dbe
00000020: f47d d4bd 9ea7 093f 300b d03e 8083 553e
00000030: 363a 01bf 79e1 82be 10d5 11bd 36a6 87be
00000040: 303f c03e 46c9 debe 0684 9b3e c075 643c
00000050: 3802 83bd 88c4 debd 3018 a6bd 70e3 1cbe
00000060: c012 903e 9086 3abd 98af 013e e0dc c93d
00000070: 9cae b4be 743e df3e 901d 43bd d014 7abd
00000080: 4c0b b23e 104f 763e 6233 24be c026 18bd
00000090: 8470 683e d04b 3ebd 73d9 f5be 6cfb e9be
000000a0: 9827 d0bd 3b23 09bf c88b ac3d 6466 dfbd
000000b0: 7069 dcbe 4856 2a3e a80a 273e f174 06bf
000000c0: a824 413e e6f6 09bf de75 e23e 3091 d5be
000000d0: f438 80bd 14ff abbe 8058 933d 0a7e ad3e
000000e0: 72d9 b23e 40da b0bc 8829 01bf 504a f0be
000000f0: 186d 913e 405a 683d 6824 7d3e b075 9fbd
-0.5186417 -0.24928987 0.19826525 0.34490597 -0.22147492 -0.27396864 0.26750284 -0.24763063
-0.10375586 0.5377139 0.40633535 0.20850945 -0.5047945 -0.25562647 -0.035603583 -0.26493996
0.37548208 -0.43512934 0.30374163 0.013944089 -0.063969076 -0.10877329 -0.08110082 -0.15321136
0.28139305 -0.045538485 0.1266464 0.09856582 -0.35289466 0.43602335 -0.047635615 -0.061055005
0.34774244 0.24053597 -0.16035226 -0.03714633 0.22699171 -0.04645902 -0.48017463 -0.45699632
-0.10163802 -0.5356938 0.08425099 -0.10908201 -0.43049192 0.16634476 0.16312659 -0.5252219
0.1886164 -0.5389236 0.4423055 -0.41712332 -0.06260863 -0.33593047 0.071946144 0.33885223
0.34931523 -0.021588445 -0.50453997 -0.46931696 0.28403544 0.056726694 0.24720919 -0.07786119

dense_457/bias:0 f4 [16]
00000000: 0000 0000 0000 0000 0000 0000 0000 0000
00000010: 0000 0000 0000 0000 0000 0000 0000 0000
00000020: 0000 0000 0000 0000 0000 0000 0000 0000
00000030: 0000 0000 0000 0000 0000 0000 0000 0000
0.0 0.0 0.0 0.0 0.0 0.0 0.0 0.0
0.0 0.0 0.0 0.0 0.0 0.0 0.0 0.0

dense_458/kernel:0 f4 [4, 16]
00000000: b050 b43e 2318 debe 76bc 83be 18eb 99be
00000010: 1693 b63e b061 843e 646d 3fbe a91e 8cbe
00000020: 083e 973e 8047 483d b067 4b3d 1089 0fbd
00000030: 2063 f03c e410 713e 0026 adbb 9ed7 a53e
00000040: 5f9e 05bf 9fa0 02bf 0018 f03d 04a1 89bd
00000050: 7637 f7be 7d95 09bf 7804 f13e 5cd5 0cbe
00000060: 642b c3bd 40ca 06bd bc0d ecbe 5262 f9be
00000070: c713 ffbe 40d4 77be 7855 cd3d 0066 a6bc
00000080: d0de 413e 9c8d b83e c8a5 f03e e088 be3c
00000090: 36ba c13e 0040 1838 1a29 d33e 62d9 ad3e
000000a0: fc44 223e da5f aabe 3016 483d e178 0bbf
000000b0: 98f9 9bbd a2a4 043f 64a1 933e 8c2d 613e
000000c0: c7b0 04bf 0082 2ebb 107b 3d3e 9c5d b23e
000000d0: 60ed ec3d 272a f4be 401b a73d 189f 9b3d
000000e0: 0818 78be 1c7d 203e f469 cb3e 042c f0be
000000f0: 9aa3 41be 90a2 be3d 40c6 e73c 4cd9 ec3e
0.3521781 -0.4337779 -0.25729722 -0.30062175 0.35659093 0.2585578 -0.18694073 -0.27367142
0.29539514 0.048896313 0.04965943 -0.035042822 0.029344141 0.235416 -0.005284071 0.32391065
-0.5219478 -0.5102634 0.11723328 -0.067201644 -0.482845 -0.53743726 0.47073722 -0.13753265
-0.095297605 -0.032907724 -0.46104228 -0.48707825 -0.49819776 -0.2420206 0.100260675 -0.02031231
0.18932652 0.3604554 0.4700148 0.023258626 0.3783738 3.629923e-05 0.41242296 0.33954912
0.15846628 -0.33276254 0.048849285 -0.5448132 -0.076159656 0.5181371 0.2883407 0.21990031
-0.5183224 -0.002662778 0.18503976 0.34837043 0.11568713 -0.4768841 0.081594944 0.07598704
-0.24227917 0.15672725 0.39729273 -0.4690858 -0.18910065 0.0930835 0.028292775 0.46259534

dense_458/bias:0 f4 [16]
00000000: 0000 0000 0000 0000 0000 0000 0000 0000
00000010: 0000 0000 0000 0000 0000 0000 0000 0000
00000020: 0000 0000 0000 0000 0000 0000 0000 0000
00000030: 0000 0000 0000 0000 0000 0000 0000 0000
0.0 0.0 0.0 0.0 0.0 0.0 0.0 0.0
0.0 0.0 0.0 0.0 0.0 0.0 0.0 0.0

dense_459/kernel:0 f4 [4, 16]
00000000: d0c0 3b3e c858 19be a8cb cdbe be0e 063f
00000010: 3497 bf3e c82d 7e3e 8e24 57be cca1 dfbe
00000020: 8c86 273e 09ad a7be 947e 313e a0cf 49be
00000030: 802a f73d d212 78be 1786 97be 007c 9abb
00000040: b4bf 0f3e da14 823e b4c5 123e b46b ecbe
00000050: 4490 d53e 48df a63e ec8d c63e 104d 9b3d
00000060: c0a6 79bd 3a4f 9abe c0ab 63bc 84ef 95bd
00000070: 3b3d 0bbf c8a9 d43d 58c1 e5be 52b5 b13e
00000080: 83ce 06bf ee73 b63e 003c 393a 1456 9f3e
00000090: 862d 14be d066 ad3e 7079 b93e 90b0 693d
000000a0: c6f3 77be c2fc 58be 58ed 66be 1200 e0be
000000b0: a573 bebe c083 213e 4a2f 26be e209 b63e
000000c0: 0000 523b 96d9 04bf bd72 ffbe d49d aabe
000000d0: 4a00 0c3f f62c 11be 529d a3be 51bd eebe
000000e0: c096 b43e 8090 203c f100 dabe 4ce4 7cbe
000000f0: 1421 51be 907f 373d 94ec 82bd c322 e5be
0.18335271 -0.14975274 -0.4019444 0.52366245 0.37420046 0.24822152 -0.21010038 -0.4367813
0.1635992 -0.32749203 0.17333442 -0.19708109 0.12068653 -0.2422593 -0.2959449 -0.004714489
0.14037973 0.25406533 0.1433323 -0.4617592 0.41711628 0.32592225 0.38780153 0.07583058
-0.06095004 -0.3013857 -0.013895929 -0.073210746 -0.54390305 0.10383946 -0.44874072 0.3470865
-0.5265886 0.35635322 0.00070661306 0.3112036 -0.14470491 0.33867502 0.36225462 0.05705315
-0.24214086 -0.2119017 -0.22551477 -0.43750054 -0.37197605 0.15772915 -0.16228977 0.35554415
0.0032043457 -0.5189451 -0.49892226 -0.33323538 0.5468794 -0.14177307 -0.31955963 -0.46628812
0.35271263 0.0098000765 -0.42578843 -0.24696463 -0.20422775 0.044799387 -0.0639278 -0.44753084

dense_459/bias:0 f4 [16]
00000000: 0000 0000 0000 0000 0000 0000 0000 0000
00000010: 0000 0000 0000 0000 0000 0000 0000 0000
00000020: 0000 0000 0000 0000 0000 0000 0000 0000
00000030: 0000 0000 0000 0000 0000 0000 0000 0000
0.0 0.0 0.0 0.0 0.0 0.0 0.0 0.0
0.0 0.0 0.0 0.0 0.0 0.0 0.0 0.0

dense_460/kernel:0 f4 [4, 16]
00000000: 0091 c83e 986b f7bd 8341 bebe 1474 f93e
00000010: cb90 e8be 8a03 0c3f 8c0d 53be 1070 003e
00000020: da2b 91be 5c7c 033e 04d7 b93e e2d4 c63e
00000030: 70da cc3d 18fa 193e 34e1 8e3e a259 0bbf
00000040: b0fb b03d ac2e 0b3f 3e6d cbbe 0cf9 f13e
00000050: c038 ec3d 0010 9a3e abbd 84be e0f5 0dbe
00000060: b0b6 a6bd 7654 01be b1af d9be 40f1 053f
00000070: 7277 9a3e d26a e73e af41 85be ecfe 9dbd
00000080: fe23 d23e 80ad db3e a42a debe 38d7 9bbd
00000090: e088 823c cdbb acbe ecb4 aebe 4076 b13e
000000a0: a882 853d d0aa fd3e aeb2 053f a7f2 07bf
000000b0: 1caa 773e f4f3 443e c2be 22be f075 8a3e
000000c0: 3c23 383e 0c47 e7be e894 873e 5013 8d3d
000000d0: 066b 54be e098 523e 52e3 d6be c8f8 993d
000000e0: 10a6 ee3d 000f db3d c475 7f3e 5efc 1bbe
000000f0: 22a4 0cbe 03fe a5be b950 05bf 94ef 58be
0.39173126 -0.12081069 -0.37159356 0.48721373 -0.45422968 0.546929 -0.20610636 0.12542748
-0.2835377 0.12840408 0.36296856 0.38834292 0.10002601 0.1503681 0.2790619 -0.54433644
0.086417556 0.5436809 -0.39731783 0.4726032 0.11534262 0.30090332 -0.25925955 -0.13863325
-0.081403136 -0.12629876 -0.42516854 0.52321243 0.30169255 0.45198685 -0.26026675 -0.07714638
0.41043085 0.42905807 -0.43391907 -0.07609409 0.015934408 -0.3373703 -0.34122407 0.3466053
0.06519061 0.49544382 0.5222577 -0.53104633 0.24185985 0.19233686 -0.15893081 0.27043104
0.17982191 -0.45171392 0.26480794 0.06888449 -0.20743951 0.2056613 -0.41970307 0.075181544
0.11652768 0.106962204 0.24947268 -0.15232989 -0.13734487 -0.32420358 -0.520763 -0.21185142

dense_460/bias:0 f4 [16]
00000000: 0000 0000 0000 0000 0000 0000 0000 0000
00000010: 0000 0000 0000 0000 0000 0000 0000 0000
00000020: 0000 0000 0000 0000 0000 0000 0000 0000
00000030: 0000 0000 0000 0000 0000 0000 0000 0000
0.0 0.0 0.0 0.0 0.0 0.0 0.0 0.0
0.0 0.0 0.0 0.0 0.0 0.0 0.0 0.0

dense_461/kernel:0 f4 [4, 16]
00000000: 3ade c93e 70cd 073d 84b0 8f3e 3841 ab3d
00000010: a062 b53d 4c66 9e3e 3a92 883e 23c3 b1be
00000020: 8c16 ee3e 667c a2be 40d5 d4bc b89d f83e
00000030: 44b8 bcbe f085 3a3e 767a 7fbe 88e2 1ebe
00000040: da9e bd3e 80e9 07bc c85b c13e 44fb 1f3e
00000050: 009a 92ba 3ce1 1d3e 3539 e4be 4c5c 2c3e
00000060: 50d6 41bd 8d1d d5be 5ebb 7abe f037 2e3d
00000070: 349e f6bd 5c3a c8be a4fe dc3e 1855 dd3d
00000080: 6cdf 213e e67a 063f 605c 3b3e 4c28 1a3e
00000090: bac0 cabe e22c 8abe 94a6 033f e05e 043f
000000a0: f309 f7be fc99 c8bd e65a b53e e200 b1be
000000b0: d42d c43e 5cb1 52be 803a 393c ad7d fdbe
000000c0: f04f b83e 463c 68be 18df f23e 38c7 63bd
000000d0: 5c64 d7be 30d0 e93e b0a7 403d 2f63 0abf
000000e0: 507b fa3d 103c 333d a4bc 64be a8d6 8a3e
000000f0: a6d0 063f b89f a9be 1ebc 83be f210 d2be
0.39427358 0.033154905 0.28064358 0.08362049 0.08856702 0.3093742 0.26674062 -0.3471919
0.46501577 -0.31735533 -0.025980592 0.4855783 -0.36859334 0.18215156 -0.24949059 -0.15516102
0.37035257 -0.008295417 0.37765336 0.15623194 -0.0011184812 0.15417951 -0.44574896 0.16832083
-0.047323525 -0.41624108 -0.24485537 0.042533815 -0.120418936 -0.39107025 0.43163025 0.10807246
0.15807885 0.5253128 0.18296957 0.15054435 -0.39600164 -0.26987368 0.51426053 0.5170727
-0.48249778 -0.09794995 0.35420913 -0.34570986 0.38316214 -0.2057547 0.011305451 -0.49509946
0.35998487 -0.22679242 0.47435832 -0.05560991 -0.42068756 0.45666647 0.04703492 -0.5405759
0.12230551 0.043758452 -0.22337586 0.27116895 0.5266212 -0.33129668 -0.2572946 -0.41028553

dense_461/bias:0 f4 [16]
00000000: 0000 0000 0000 0000 0000 0000 0000 0000
00000010: 0000 0000 0000 0000 0000 0000 0000 0000
00000020: 0000 0000 0000 0000 0000 0000 0000 0000
00000030: 0000 0000 0000 0000 0000 0000 0000 0000
0.0 0.0 0.0 0.0 0.0 0.0 0.0 0.0
0.0 0.0 0.0 0.0 0.0 0.0 0.0 0.0

dense_462/kernel:0 f4 [4, 16]
00000000: 0e6f 23be 20a7 493d 1261 043f ae14 34be
00000010: ac40 66be 44f8 d8bd 7cdf e1bd 5e9a 76be
00000020: ce84 cc3e cc7d 043f ba93 e1be 0056 c43e
00000030: 3c6d a03e 304a 5a3e 9e63 d23e 28eb 26be
00000040: 8e65 053f d099 e03e fcdd f93e 0039 00bc
00000050: fab3 b73e 4c54 643e 04e2 b9be b4ce a73e
00000060: c476 2abe 900a c7be b4bd 0b3f 51b1 d7be
00000070: 48fe 75bd 3020 03bf 124f dd3e 84d0 d6bd
00000080: 203e 563e 00a0 4a3c f0e6 e93d 6863 9c3e
00000090: e655 e63e 0056 eb3b 14b2 97be 9091 813e
000000a0: 0ca3 41be fa48 d9be fc0b 02be e048 cd3d
000000b0: 881d 793e 2af4 95be 8bba 98be dd98 bdbe
000000c0: 18df e9be 088d 73bd 24f8 473e 8a24 cebe
000000d0: 5c7c afbe a052 debc e4ab 09be 30f0 be3d
000000e0: c0af 883c 1814 743e 64b8 4b3e 92af c03e
000000f0: f8a1 263e 0874 883e 7273 c43e 9ada b33e
-0.15960333 0.04923165 0.5171062 -0.17586014 -0.22485608 -0.10594228 -0.110289544 -0.24082324
0.39945072 0.5175445 -0.4405802 0.38346863 0.3133334 0.21317363 0.41091627 -0.16300642
0.52108085 0.4386735 0.48802173 -0.00782609 0.358795 0.22297782 -0.3630525 0.3277489
-0.16646868 -0.38875246 0.5458634 -0.4212747 -0.060056955 -0.5122099 0.43224388 -0.1048899
0.20922136 0.012367249 0.11421001 0.3054459 0.4498741 0.007181883 -0.2962805 0.25306368
-0.18909854 -0.4243849 -0.12699884 0.100236654 0.24327672 -0.29287845 -0.2982982 -0.37030688
-0.4567802 -0.05946067 0.19528252 -0.40262252 -0.34274566 -0.027139008 -0.13444477 0.09323156
0.016685367 0.2383579 0.19894558 0.3763395 0.16272724 0.26651025 0.38369328 0.35127717

dense_462/bias:0 f4 [16]
00000000: 0000 0000 0000 0000 0000 0000 0000 0000
00000010: 0000 0000 0000 0000 0000 0000 0000 0000
00000020: 0000 0000 0000 0000 0000 0000 0000 0000
00000030: 0000 0000 0000 0000 0000 0000 0000 0000
0.0 0.0 0.0 0.0 0.0 0.0 0.0 0.0
0.0 0.0 0.0 0.0 0.0 0.0 0.0 0.0

dense_463/kernel:0 f4 [4, 16]
00000000: a466 f2bd 802a a6be 2dc4 f7be 88c1 f83e
00000010: bc71 a0be 6cd7 313e 0a79 013f 19ee 06bf
00000020: d4c8 cfbd fcbb dcbd f241 2abe bafd e53e
00000030: c87f fdbe 07be d8be 84cd e4bd bcfd fe3e
00000040: c1f5 e7be 9752 88be e08e a13d 6025 713d
00000050: 38cd bc3d fcc1 ef3e 003e e63e db19 06bf
00000060: 7c05 9c3e d07c af3d 0c00 bcbd a037 e03c
00000070: 5e17 efbe f030 d43e f847 0bbf e40e acbe
00000080: 747e 783e 92ff c2be c833 9bbe 80c3 7cbc
00000090: 68c7 30be 33fa afbe 9eed dbbe 6283 803e
000000a0: 283a 173e ace3 9cbd 4876 e4be 54ca 69be
000000b0: a0de abbe 178b 8abe 0068 de3a 80fa e4bd
000000c0: 2368 efbe 4852 873d 10a1 093f 18a3 013e
000000d0: 6a8d 01bf 3831 c8be 0431 0fbe 4e2a 9a3e
000000e0: 2a22 c73e 926c dcbe 7076 c93d c8ef 96bd
000000f0: a11a 0cbf 50a1 fa3d 001f 233c 4965 d7be
-0.118359834 -0.324543 -0.48391858 0.48585153 -0.31336772 0.17367333 0.50575316 -0.5270706
-0.10145727 -0.10778043 -0.16626719 0.4492014 -0.49511552 -0.4233248 -0.111720115 0.4980296
-0.45304683 -0.2662551 0.07888579 0.058873534 0.0921883 0.46827686 0.44969177 -0.523832
0.30472934 0.08568728 -0.091796964 0.027370274 -0.46697515 0.41443586 -0.5440669 -0.3360511
0.24266988 -0.3808561 -0.30312943 -0.01542747 -0.17263567 -0.34370574 -0.42954725 0.25100237
0.14768279 -0.076606125 -0.4462149 -0.22831088 -0.33568287 -0.27059242 0.001696825 -0.111805916
-0.46759138 0.06607491 0.53761387 0.12659872 -0.50606406 -0.3910005 -0.13983542 0.301104
0.38893253 -0.43051583 0.09837043 -0.073699534 -0.5472813 0.12237799 0.009956121 -0.42069462

dense_463/bias:0 f4 [16]
00000000: 0000 0000 0000 0000 0000 0000 0000 0000
00000010: 0000 0000 0000 0000 0000 0000 0000 0000
00000020: 0000 0000 0000 0000 0000 0000 0000 0000
00000030: 0000 0000 0000 0000 0000 0000 0000 0000
0.0 0.0 0.0 0.0 0.0 0.0 0.0 0.0
0.0 0.0 0.0 0.0 0.0 0.0 0.0 0.0

dense_464/kernel:0 f4 [4, 16]
00000000: da8d c83e 5edf edbe c2c6 5ebe 7421 983e
00000010: 809e 4b3d 4e9e 0b3f 8c1c a8be 20d3 d03c
00000020: f273 ebbe 204d 893d 3c43 b9bd 5015 07bd
00000030: 44d6 013e 44dd f53e 41f5 9cbe 0ea3 cfbe
00000040: 5255 853e 6634 a9be baee dc3e c0ab d73d
00000050: 5227 04be 5abf 053f 1068 053f 2a8d a73e
00000060: 4ed1 cf3e 40e9 d33e a417 6d3e d86a a1be
00000070: 76b5 9e3e d003 ff3d 0ada 1ebe eef9 63be
00000080: 2390 acbe 20ee cf3c 4095 f4be 688c 033f
00000090: 5c43 393e 6091 d7bd bfb0 05bf f8c2 d2be
000000a0: 7ebf c23e aaa1 c7be dc26 23be 40b4 043d
000000b0: 36cd 8cbe 78ad b43d 1cf8 283e 7207 ebbe
000000c0: 9ece 60be a2d2 043f b863 7fbd e2ec c83e
000000d0: 1ed0 953e fc69 bfbe de0a acbe f071 c03e
000000e0: 10be c13d e3d2 89be 785e 043f f21b cc3e
000000f0: 8c59 5a3e d689 d43e e9da ecbe a039 753d
0.39170724 -0.46459478 -0.21755508 0.29713023 0.049711704 0.5453843 -0.3283428 0.025491297
-0.45986897 0.067041636 -0.09046027 -0.03297931 0.12679392 0.48020375 -0.30655864 -0.40554088
0.26041657 -0.3304779 0.43150884 0.105308056 -0.12905625 0.52245104 0.5211191 0.32724887
0.40589374 0.41388893 0.2315355 -0.31526828 0.3099782 0.12451899 -0.15512863 -0.2226331
-0.33703718 0.025382102 -0.4777012 0.5138612 0.18092102 -0.10525775 -0.5222282 -0.41164374
0.38036722 -0.38990527 -0.15932792 0.032398462 -0.27500314 0.08822149 0.16500896 -0.45904118
-0.21953818 0.518839 -0.06235096 0.39243227 0.29260343 -0.37385547 -0.3360204 0.37586927
0.0946008 -0.26918706 0.5170665 0.3986507 0.21323222 0.4151141 -0.46260765 0.05986941

dense_464/bias:0 f4 [16]
00000000: 0000 0000 0000 0000 0000 0000 0000 0000
00000010: 0000 0000 0000 0000 0000 0000 0000 0000
00000020: 0000 0000 0000 0000 0000 0000 0000 0000
00000030: 0000 0000 0000 0000 0000 0000 0000 0000
0.0 0.0 0.0 0.0 0.0 0.0 0.0 0.0
0.0 0.0 0.0 0.0 0.0 0.0 0.0 0.0

dense_439/kernel:0 f4 [4, 16]
00000000: 3efe 9cbe 43e9 d8be 88d6 8fbe aa10 cabe
00000010: 04f8 0a3f 8092 063f a021 b93d 567f 46be
00000020: 80c0 f1bc 800a 20bd 1a1d babe 6e22 abbe
00000030: 8012 1d3d 0cb5 213e 3b28 92be a459 08be
00000040: 4e79 8c3e 3252 a3be 7854 ed3e b4fd f03e
00000050: 6e6e 0fbe f0af 41bd 9cb9 c93e 18b4 a0be
00000060: 0002 6a3b a3aa f7be 00b4 5bbd 1c07 a0bd
00000070: 020b c3be d84e c4bd fc26 d5be d0f2 bd3d
00000080: 7474 c63e b0e7 bf3e 8e6b bdbe b24f 62be
00000090: aaa9 c43e 50c9 413d c066 c23d ae53 0a3f
000000a0: 5853 d1be 805d a23d e875 bcbe 98a9 a93e
000000b0: 2b9a 99be 4cac 513e fed6 963e fc00 ddbe
000000c0: 6074 323e 66a2 d0be b063 96bd e060 3ebd
000000d0: 2018 fb3c 4d10 f9be 5a6c 7fbe 38b5 ed3d
000000e0: be64 cc3e b439 693e a093 c9bc 2898 f03e
000000f0: 1acd 05be 37ff f4be e6e7 0b3f 7096 293d
-0.3066272 -0.42365465 -0.28093362 -0.3946584 0.5428469 0.5256729 0.090396166 -0.19384512
-0.029510736 -0.039072514 -0.36350328 -0.33424705 0.03834772 0.1579172 -0.28546318 -0.13315445
0.27436298 -0.31898648 0.46353507 0.4706856 -0.1400697 -0.047286928 0.3939942 -0.313874
0.0035706758 -0.48372373 -0.05363846 -0.07813856 -0.38094336 -0.09585351 -0.41631305 0.092748284
0.38760722 0.3748145 -0.3699612 -0.22100714 0.38410693 0.047311127 0.09492254 0.54033935
-0.408839 0.0792799 -0.36808705 0.33137202 -0.30000433 0.20475882 0.294609 -0.43164814
0.17427206 -0.407489 -0.07343233 -0.046479106 0.030651152 -0.4864525 -0.24943677 0.1160683
0.3992061 0.22775918 -0.024606526 0.46991086 -0.13066521 -0.47850963 0.54650724 0.041403234

dense_439/bias:0 f4 [16]
00000000: 0000 0000 0000 0000 0000 0000 0000 0000
00000010: 0000 0000 0000 0000 0000 0000 0000 0000
00000020: 0000 0000 0000 0000 0000 0000 0000 0000
00000030: 0000 0000 0000 0000 0000 0000 0000 0000
0.0 0.0 0.0 0.0 0.0 0.0 0.0 0.0
0.0 0.0 0.0 0.0 0.0 0.0 0.0 0.0

dense_440/kernel:0 f4 [4, 16]
00000000: 946b d83e 5405 fd3e f07c 2dbe aced af3e
00000010: 0041 e33b f6fb 00bf 9dc3 eabe 22ac b5be
00000020: 30f0 ca3e eec6 8c3e c857 9ebd 4808 b0bd
00000030: ad0a a2be 040b 00bf 18b2 f83e 8cda f93e
00000040: 2033 04be 52b7 e43e af0e 80be 6054 06bd
00000050: 2c90 c3be c8fc 383e c21c 05bf 1ad8 1cbe
00000060: c8ca dcbe cd10 c4be 9c27 783e a879 973d
00000070: 3f30 87be 8656 bb3e f944 f0be 54a0 863e
00000080: b428 493e 8877 903e de96 62be c057 f33c
00000090: e059 f53d 9a4a bebe 06c0 8dbe 804b dabe
000000a0: 5631 c03e 893b e0be 6840 cc3e d7d5 fbbe
000000b0: aaff b33e e6ce a63e b218 9cbe 28c4 b4be
000000c0: 64a8 b4bd 70e6 803e fee7 993e c0c6 503d
000000d0: 1ca3 243e 01f9 cabe a00f 69be d045 ac3d
000000e0: 0003 c23d 40a9 0b3c d1fe fdbe f84f fe3e
000000f0: e856 083f c0b1 4a3d a8e7 c5bd 486b b0bd
0.42269576 0.49418128 -0.16942191 0.34361017 0.006935239 -0.5038446 -0.45852366 -0.3548289
0.39636374 0.2749552 -0.07731587 -0.085953295 -0.3164877 -0.5001681 0.48573375 0.4879955
-0.12910128 0.44671112 -0.25011203 -0.03279531 -0.38195932 0.18065178 -0.51997006 -0.15316811
-0.4312346 -0.38294068 0.2423386 0.07396251 -0.26403996 0.3658945 -0.46927622 0.26294196
0.19644433 0.28216195 -0.22127864 0.029704928 0.11980033 -0.3716629 -0.27685565 -0.42635727
0.3753764 -0.43795422 0.39892888 -0.49186584 0.35155994 0.32579726 -0.3048759 -0.35305905
-0.088211805 0.2517581 0.30059808 0.050970793 0.16077846 -0.396431 -0.22759867 0.08411753
0.094732285 0.008524239 -0.49608472 0.49670386 0.5325761 0.04948592 -0.096633255 -0.08614212

dense_440/bias:0 f4 [16]
00000000: 0000 0000 0000 0000 0000 0000 0000 0000
00000010: 0000 0000 0000 0000 0000 0000 0000 0000
00000020: 0000 0000 0000 0000 0000 0000 0000 0000
00000030: 0000 0000 0000 0000 0000 0000 0000 0000
0.0 0.0 0.0 0.0 0.0 0.0 0.0 0.0
0.0 0.0 0.0 0.0 0.0 0.0 0.0 0.0

dense_441/kernel:0 f4 [4, 16]
00000000: dab6 69be c0a9 27bc 96e9 9bbe e4c8 e0bd
00000010: ce1f 38be 27a6 09bf 442b a8bd 769e e13e
00000020: b093 4b3d fc88 cdbe 6003 f23c d21e 063f
00000030: 7c8f e13e c485 ccbd d62e ab3e de50 ce3e
00000040: a4dd fe3e 7846 fabd 00c9 713c 60e3 f2bc
00000050: a1ee 02bf 0ab4 7fbe eafb a03e 249c 7bbe
00000060: 60bc b33e 1c37 a0bd aab4 07bf baf4 8bbe
00000070: 44ac c9bd 0061 333e 0885 6b3e 8ac9 0dbe
00000080: 9051 fc3e d078 49be a0e6 193d 00fc dbbc
00000090: 7513 fabe ec10 9e3e f028 c4be 9e46 873e
000000a0: 6427 b23e 1425 fa3e 247a 033f 58ad a5be
000000b0: 2092 94bd c0d7 9ebd 6068 56be 68ed 7ebd
000000c0: 803b fbbe b234 d7be 643b 1f3e 688a 9dbe
000000d0: 8e47 f0be d204 9abe 4a21 ac3e f870 53bd
000000e0: b8b4 88be 37f6 09bf f990 d0be 963b 60be
000000f0: ac8e 07be 97b4 87be 5453 e03e 90da 663d
-0.22823659 -0.010233343 -0.3045165 -0.10975817 -0.17980883 -0.53769153 -0.08211377 0.4406621
0.049701393 -0.40143573 0.029542625 0.5239078 0.44054782 -0.09986451 0.3343417 0.40296072
0.49778473 -0.12220472 0.014757395 -0.029649436 -0.5114537 -0.24971023 0.31442195 -0.24571282
0.35104656 -0.07823011 -0.53010046 -0.2733515 -0.0984731 0.17517471 0.22999966 -0.13846412
0.49280977 -0.19674993 0.037573457 -0.026853561 -0.4884297 0.30872285 -0.38312483 0.26421064
0.34795678 0.48856413 0.51358247 -0.32358813 -0.07254434 -0.07755995 -0.20938253 -0.062238127
-0.49068832 -0.4203239 0.1555 -0.30769658 -0.46929592 -0.30081803 0.33619148 -0.051621407
-0.26700377 -0.5389132 -0.40735605 -0.2189773 -0.13238019 -0.26504967 0.43813574 0.05636078

dense_441/bias:0 f4 [16]
00000000: 0000 0000 0000 0000 0000 0000 0000 0000
00000010: 0000 0000 0000 0000 0000 0000 0000 0000
00000020: 0000 0000 0000 0000 0000 0000 0000 0000
00000030: 0000 0000 0000 0000 0000 0000 0000 0000
0.0 0.0 0.0 0.0 0.0 0.0 0.0 0.0
0.0 0.0 0.0 0.0 0.0 0.0 0.0 0.0

dense_442/kernel:0 f4 [4, 16]
00000000: 1cfa de3e bddf 0abf 06a5 093f 3c27 863e
00000010: 6ab6 093f 7c3d 0a3e 2052 f33e dc7c 6a3e
00000020: 6c96 0abf 00e2 7cbe 50ef a93e a066 a43e
00000030: c022 cc3d 7001 c9bd 3433 023f a6a3 03bf
00000040: eacd 943e c846 c93d a2ae cabe 6007 dc3d
00000050: 8072 ab3e 7052 043d ec0e 07be 92c4 d33e
00000060: a0a4 043d 54b6 86bd 6dce 84be 78fb 2dbe
00000070: b894 9abe 72ca ce3e e4b1 9d3e c03b f23c
00000080: f4b7 ee3e 3a2a 60be aeb8 0a3f 7cab b3bd
00000090: c0ea 00be ea94 0abe 16e7 2ebe dc7a 99be
000000a0: b84f 9cbe 145b 07bf 6845 99be aaae 9e3e
000000b0: b098 a9be f8bf d13e 1148 eabe 8034 86bb
000000c0: 0092 b53b 6c0a a8be e03d d53c 36a9 fabe
000000d0: 185c 833e d8b2 a63d 3210 093f 6c06 2a3e
000000e0: 54c9 bcbe 3f45 9cbe 9087 1b3e 9a47 f3be
000000f0: 5032 3abe 90a3 f4bd ba08 c1be 523f 963e
0.43550193 -0.5424765 0.5376743 0.26201808 0.53793967 0.13500017 0.47523594 0.22899193
-0.54135776 -0.24695587 0.33190393 0.32109547 0.099675655 -0.09814727 0.5085938 -0.5142158
0.2906335 0.098279536 -0.3958636 0.10743594 0.33485794 0.03230518 -0.13189286 0.4136091
0.03238356 -0.06577745 -0.2593874 -0.16990459 -0.30191588 0.4038883 0.30799782 0.029569507
0.4662472 -0.21891108 0.5418805 -0.087729424 -0.1258955 -0.13533369 -0.1708034 -0.29976547
-0.3052957 -0.5287335 -0.29935765 0.30992633 -0.33124304 0.40966773 -0.45758107 -0.004095614
0.005541086 -0.3282045 0.02603048 -0.48957223 0.256562 0.081395805 0.5354034 0.16604012
-0.3687235 -0.3052158 0.15188432 -0.47515565 -0.18183255 -0.119452596 -0.3770197 0.29345185

dense_442/bias:0 f4 [16]
00000000: 0000 0000 0000 0000 0000 0000 0000 0000
00000010: 0000 0000 0000 0000 0000 0000 0000 0000
00000020: 0000 0000 0000 0000 0000 0000 0000 0000
00000030: 0000 0000 0000 0000 0000 0000 0000 0000
0.0 0.0 0.0 0.0 0.0 0.0 0.0 0.0
0.0 0.0 0.0 0.0 0.0 0.0 0.0 0.0

dense_443/kernel:0 f4 [4, 16]
00000000: 176f b8be 7e72 bfbe 88a2 ed3d 7b49 edbe
00000010: fc09 c9be b8da f9be d856 c6be ac9c 7e3e
00000020: 60a4 443d 025a 023f 3450 e8bd 00e0 873d
00000030: a20a be3e 08e0 713e 1e8b ccbe 00ff d8be
00000040: 50a0 c13e 0824 ae3e 4011 72bc 601e 0dbe
00000050: e076 f73e 20ef 053f 5453 413e 58cc 7bbe
00000060: acad 83be 2e36 70be 6497 d8bd 6ec2 a9be
00000070: 440b cfbe 6626 ecbe 509c 303d 301e 563d
00000080: 6c19 f9bd a040 743e 8e80 b1be e019 3c3d
00000090: 6c50 05bf 8405 49be f8b6 9e3e 4e0a 053f
000000a0: 8020 d3bc 66fd 0a3f 61d6 8fbe 40ea 6e3d
000000b0: a265 ca3e 54ad 893e 80dc ac3d a81f 9b3d
000000c0: 3071 4c3e 2eb9 7abe a0bc 9dbc 9069 dbbd
000000d0: 0087 e0bb ae23 df3e 5466 6ebe d85f 463e
000000e0: a650 093f 99e1 f9be acee 0abf a4f9 953e
000000f0: e074 d23d b269 9fbe aed3 9b3e 91fe a2be
-0.36022255 -0.37392038 0.11603266 -0.46345124 -0.3926543 -0.48799682 -0.38738132 0.24864453
0.048008323 0.5091859 -0.113434225 0.066345215 0.37117487 0.23620617 -0.39949888 -0.4238205
0.3781762 0.34011865 -0.0147746205 -0.13781118 0.48332882 0.52318 0.18879443 -0.2458967
-0.2571844 -0.23458168 -0.105757505 -0.3315615 -0.40438282 -0.46123046 0.04311782 0.052274883
-0.12163052 0.23852777 -0.34668392 0.045923114 -0.5207584 -0.1963101 0.3099897 0.5196885
-0.025772333 0.54292905 -0.28093246 0.058328867 0.39530665 0.2689005 0.084404945 0.07574397
0.19965053 -0.24484703 -0.019254982 -0.10713494 -0.0068520308 0.4358191 -0.23281223 0.19372499
0.53638685 -0.4880493 -0.54270434 0.29292023 0.102761984 -0.31135327 0.30434936 -0.31834844

dense_443/bias:0 f4 [16]
00000000: 0000 0000 0000 0000 0000 0000 0000 0000
00000010: 0000 0000 0000 0000 0000 0000 0000 0000
00000020: 0000 0000 0000 0000 0000 0000 0000 0000
00000030: 0000 0000 0000 0000 0000 0000 0000 0000
0.0 0.0 0.0 0.0 0.0 0.0 0.0 0.0
0.0 0.0 0.0 0.0 0.0 0.0 0.0 0.0

dense_444/kernel:0 f4 [4, 16]
00000000: 3826 8b3e 0308 99be aeaa 873e d2db bbbe
00000010: 92ab b93e c00a 043c 480e 56bd 147c e93e
00000020: fcaf 003f 68d6 923d d0c3 24bd 80a1 963e
00000030: 865f 8f3e c041 ee3e f7da 07bf d829 d93d
00000040: a036 8fbc 3c26 67be 0247 a53e bcb4 36be
00000050: 008a 55be 2c91 9cbd a01d 4bbd b04e 60be
00000060: 8862 e83d b8f3 993d f6d1 a83e b98d 91be
00000070: c073 5e3e e49c 82be cce0 523e a0ac b5bd
00000080: 06ec 6cbe 91f1 b4be f49f 973e 6147 07bf
00000090: 4af1 00be 6cd8 e63e c76d f0be e255 96be
000000a0: 4ae8 aebe 9808 f3be 06fe c33e e2d9 9e3e
000000b0: 6371 c0be d8a8 e1bd 9a2e 833e 0090 fb3b
000000c0: bb09 adbe 8289 24be 005e 9f3a c4b3 f23e
000000d0: aae0 c4be 200e a1bc 17ce 02bf 4622 e63e
000000e0: 126b db3e ee4b 62be 2c6d b4bd 784a febd
000000f0: 49f1 a4be 087d c8bd fa9e ce3e b8a5 c33e
0.27177596 -0.29888925 0.26497406 -0.36691147 0.3626371 0.008059204 -0.052259713 0.45602477
0.5026853 0.07169801 -0.040225804 0.2942009 0.28002566 0.46534538 -0.5306849 0.10603684
-0.017482102 -0.22573179 0.32280737 -0.17842382 -0.20853424 -0.07644877 -0.0495888 -0.21905017
0.11346918 0.07517189 0.32972687 -0.28428438 0.21723843 -0.25510323 0.20593566 -0.08870816
-0.23136911 -0.3534055 0.29614222 -0.5284329 -0.12592044 0.45086992 -0.46958753 -0.29362398
-0.34161597 -0.47467494 0.38279742 0.31025606 -0.37586507 -0.110185325 0.25621492 0.0076770782
-0.33796486 -0.1606808 0.0012158751 0.47402775 -0.38452655 -0.019660056 -0.5109572 0.44948024
0.42855126 -0.22099277 -0.088098854 -0.124165475 -0.32215336 -0.09789473 0.40355664 0.3821237

dense_444/bias:0 f4 [16]
00000000: 0000 0000 0000 0000 0000 0000 0000 0000
00000010: 0000 0000 0000 0000 0000 0000 0000 0000
00000020: 0000 0000 0000 0000 0000 0000 0000 0000
00000030: 0000 0000 0000 0000 0000 0000 0000 0000
0.0 0.0 0.0 0.0 0.0 0.0 0.0 0.0
0.0 0.0 0.0 0.0 0.0 0.0 0.0 0.0

dense_445/kernel:0 f4 [4, 16]
00000000: 7cb6 c6bd 50ee 7e3e a0d3 e13d a831 a43d
00000010: f0c7 00bf b08f fcbe 3c58 b0be 9e1c 01bf
00000020: 082e 823d e81d 323e d658 84be 1c66 563e
00000030: 1ca8 a4bd b896 b3be 2c28 033f 3857 9f3d
00000040: a3d9 09bf 20a6 bdbd 8e3d 30be 30e9 43bd
00000050: 4852 fb3e 6080 9ebc 76bd 933e e0c0 023f
00000060: a087 f8be eef0 013f fbca 8dbe 0a6a 0cbe
00000070: 58bf f73d ed82 09bf 80fd cbbc 0081 173b
00000080: 68db 0a3f 2a39 ddbe 8001 cbbc 4eee af3e
00000090: a4d0 b5be b8d9 7cbd c5f9 03bf 690f a5be
000000a0: be3b fdbe 20c9 c53d 5891 07be 84f5 f33e
000000b0: a01d aabd f83d 51be d947 c4be 6ad8 f0be
000000c0: 536e c2be 92c4 0a3f af9a b4be 08bb 683e
000000d0: 74df 023f 4961 f6be 2c8b eebd 901e 783d
000000e0: 5079 ff3e b4cf c83e d87c 70bd b828 8b3e
000000f0: 208a 723d 626a a33e 2498 873e 000e 463d
-0.09702775 0.24895597 0.110266924 0.08017284 -0.5030508 -0.49328375 -0.34442317 -0.5043429
0.06356436 0.17394221 -0.25849026 0.20937389 -0.08039877 -0.35075927 0.5123317 0.077803075
-0.5384771 -0.092602015 -0.17210981 -0.047829807 0.49086213 -0.019348323 0.28855485 0.51075554
-0.48540974 0.50758255 -0.27693924 -0.13712326 0.12097043 -0.537154 -0.024901152 0.0023117661
0.5424104 -0.43207675 -0.024780989 0.343615 -0.35510743 -0.06173107 -0.51552993 -0.3223832
-0.49459642 0.09657502 -0.13239038 0.4764825 -0.08306432 -0.20433795 -0.38336065 -0.4704011
-0.37974796 0.5420619 -0.35274264 0.22727597 0.5112221 -0.48121098 -0.11647639 0.06057602
0.49897242 0.39220965 -0.05871281 0.27179503 0.059213758 0.319171 0.26483262 0.048353195

dense_445/bias:0 f4 [16]
00000000: 0000 0000 0000 0000 0000 0000 0000 0000
00000010: 0000 0000 0000 0000 0000 0000 0000 0000
00000020: 0000 0000 0000 0000 0000 0000 0000 0000
00000030: 0000 0000 0000 0000 0000 0000 0000 0000
0.0 0.0 0.0 0.0 0.0 0.0 0.0 0.0
0.0 0.0 0.0 0.0 0.0 0.0 0.0 0.0

dense_446/kernel:0 f4 [4, 16]
00000000: 503d 553d 7e9f 5abe 40bc cfbe 5c5c ed3e
00000010: 6cf3 fe3e 04e4 bcbe 4539 aabe 6cdd 38be
00000020: 0b30 8dbe 576f bfbe 0276 9c3e b7f8 91be
00000030: b32c d9be 60f1 c33e 46e1 10be bc8d d93e
00000040: e42f 97be bcc7 073e 7e0e 04bf cd65 ddbe
00000050: dd93 08bf 10f0 0bbd c439 0d3e d0e9 3b3d
00000060: 3cfd 90bd a838 b03e ceaa aabe aaba e1be
00000070: 406f 9bbc 0080 bab9 fe1b 68be 480b 04be
00000080: c094 963e e844 1f3e 46dd b5be d0af 1cbe
00000090: 541b af3e 3078 c8be 3ff0 88be 6079 8dbc
000000a0: cdaf 01bf f0b4 17bd c069 9c3d f599 0abf
000000b0: aa0c 013f 9842 873e 8054 2e3c debd a63e
000000c0: 505f 3d3d 5d27 cabe 2cc2 c9be 3817 c83e
000000d0: 88a8 e93e d8a0 8d3d 8451 053e 6fd4 9dbe
000000e0: a849 babd 966d 94be 40fe cdbd d1d6 8ebe
000000f0: 0acb dc3e f0a4 523e 2230 84be 9ce8 623e
0.052060425 -0.21349904 -0.4057331 0.46359527 0.4979509 -0.36892712 -0.33246818 -0.18053216
-0.27575716 -0.37389633 0.30558783 -0.28510067 -0.42416915 0.38270092 -0.14148435 0.42490947
-0.29528725 0.13259786 -0.51584613 -0.4324173 -0.5335062 -0.03416449 0.13791567 0.045877278
-0.070795506 0.34418225 -0.3333344 -0.44087726 -0.018973947 -0.00035572052 -0.22666928 -0.12894928
0.29410362 0.1555363 -0.3552038 -0.15301442 0.34200537 -0.39154196 -0.26745793 -0.01726979
-0.50658876 -0.03703779 0.07637358 -0.5414117 0.5040995 0.26417994 0.010640264 0.32566732
0.046233475 -0.39483157 -0.39405954 0.39080215 0.45636392 0.06915444 0.13019377 -0.30826136
-0.0909608 -0.28989857 -0.1005826 -0.27898267 0.43123657 0.20570731 -0.25817972 0.22159046

dense_446/bias:0 f4 [16]
00000000: 0000 0000 0000 0000 0000 0000 0000 0000
00000010: 0000 0000 0000 0000 0000 0000 0000 0000
00000020: 0000 0000 0000 0000 0000 0000 0000 0000
00000030: 0000 0000 0000 0000 0000 0000 0000 0000
0.0 0.0 0.0 0.0 0.0 0.0 0.0 0.0
0.0 0.0 0.0 0.0 0.0 0.0 0.0 0.0
