captcha_model_dense_parallel.onnx (onnx, 630026 bytes, 102 tensors)

dense_1474/kernel:0 f4 [32, 23]
000000 5a 56 24 be 2c da 4d 3e d8 6c 9a be 38 10 61 3d
       -0.16048566 0.20102757 -0.30161166 0.054947108
000010 e0 f8 6a 3e 10 77 16 bd 5c 4e ea 3d 88 29 81 bd
       0.22946501 -0.03673464 0.11440727 -0.063067496
000020 eb a6 01 be 06 bf 45 be 0c e3 84 be 4d 2a 96 be
       -0.1266133 -0.19311151 -0.25954473 -0.29329148
000030 73 cb 22 be be d2 a4 3e 14 5a 29 3e 7e 35 82 be
       -0.15897922 0.32192034 0.16538268 -0.25431436
000040 ba a2 54 be 5a b5 8a 3e 6e c1 71 be 54 48 21 be
       -0.207652 0.27091485 -0.23608944 -0.15750247
000050 1c 11 63 be 84 94 0f 3e 38 fb 31 bd d0 91 5d 3e
       -0.22174495 0.14021498 -0.04345247 0.21637654
000060 79 42 47 be d6 8f c4 bd 1c 51 40 3e 09 e0 a5 be
       -0.19458951 -0.09597747 0.18780941 -0.32397488
000070 88 d2 70 be 4c 0f f1 3d b8 18 44 bd 05 d3 3e be
       -0.23517811 0.11770496 -0.047875136 -0.18635185
000080 00 b2 70 3e 9c 47 f3 3d aa 95 08 3e b1 0a 44 be
       0.23505402 0.11878893 0.13338342 -0.19144703
000090 08 6a 45 bd 74 5b 7d 3e d8 80 45 3e d8 92 2b 3d
       -0.048196822 0.24741918 0.19287431 0.041888088
0000a0 08 f3 b5 3d 71 89 01 be 04 64 6f 3e 54 6d 3c 3e
       0.08884245 -0.12650086 0.23377997 0.1840108
0000b0 90 02 65 bd 66 c0 82 be b8 b0 32 bd de 6b a3 be
       -0.055910647 -0.25537413 -0.043625563 -0.31918234
0000c0 54 c2 9e 3d 00 dc c5 bc e4 0f 3f 3e 32 f1 9a be
       0.07751909 -0.024152756 0.18658406 -0.30262142
0000d0 d4 e7 ca bd 7c 18 9c 3e ac 61 c1 bd 08 90 a7 be
       -0.09907499 0.3048743 -0.094424576 -0.32727075
0000e0 80 88 63 3c e0 83 4a bc d0 69 c4 bd 98 c4 69 3e
       0.013887525 -0.012360543 -0.09590495 0.22828901
0000f0 2e 17 a9 3e 40 65 30 3e 2e 2c 7d be 18 91 30 3e
       0.33025497 0.17226124 -0.24723884 0.17242849
000100 93 3a 8d be 10 f6 ec 3d e4 ad 55 3e 00 80 f0 3d
       -0.2758375 0.1157037 0.20867115 0.11743164
000110 f2 05 88 3e 1e 2e 7e be 54 8b 96 3d 94 ef 60 be
       0.26567036 -0.2482228 0.073507935 -0.21966392
000120 c8 47 1e bd 1c 9f ff bd 00 2d 50 3e 8d 9d 98 be
       -0.038642675 -0.124815196 0.20329666 -0.29807702
000130 f8 63 53 3e b9 4c 2d be 9e 27 27 3e 16 d6 24 3e
       0.20643604 -0.16923799 0.16323707 0.16097292
000140 9a 35 35 be 4e 05 47 be 03 19 60 be 50 24 e3 3d
       -0.17696229 -0.19435617 -0.21884541 0.110909104
000150 c2 bd a1 3e 4a 6f 8a be 2b ae 92 be 28 fd 10 3d
       0.31590086 -0.27038032 -0.28648505 0.03539768
000160 80 b2 1c 3e 60 94 26 3d 2a 34 eb bd b8 40 72 be
       0.15302467 0.040668845 -0.11484559 -0.236575
000170 90 21 15 be 80 b9 d2 3d fc 44 fa 3d c6 e7 8a 3e
       -0.14563584 0.102892876 0.12220189 0.27129954
000180 35 f0 8e be c8 90 e1 3d cc 17 6a 3e b8 04 42 3d
       -0.27917638 0.11013943 0.2286064 0.04736778
000190 5c b0 fe 3d 8a 44 8e 3e 65 af 16 be 74 c9 db bd
       0.12435982 0.27786666 -0.14715345 -0.107317835
0001a0 ea 12 84 be 98 57 88 be 98 2a 2d 3d 89 25 80 be
       -0.2579568 -0.2662933 0.04227695 -0.25028637
0001b0 0c 74 39 3e 68 c2 51 bd fe 4d 8e 3e 42 33 b8 bd
       0.18110675 -0.05121079 0.27793878 -0.08994152
0001c0 c0 a1 10 bc 8a 7a 8a 3e 1a 50 a3 be 7c 8f a2 3d
       -0.008827627 0.27046615 -0.3189705 0.07937524
0001d0 ac d8 87 bd 00 80 b8 39 a6 20 8b 3e 00 e2 9d 3e
       -0.06633124 0.00035190582 0.27173346 0.30836487
0001e0 15 e3 a8 be 8e d2 d4 bd a2 87 aa bd 10 9c d3 bc
       -0.3298575 -0.103917226 -0.08326651 -0.025831252
0001f0 c0 9f 97 3e c0 77 b0 bb f0 d2 5c 3e 50 8a d2 3d
       0.29614067 -0.005385369 0.21564841 0.10280287
000200 9c 2c de bd 4b 5f 1f be 40 61 07 3d 47 94 5f be
       -0.10848352 -0.15563695 0.03305173 -0.21833907
000210 c0 e8 c4 bb 98 77 35 3d 6e 5f 4c be 9c 2d 91 3e
       -0.0060091913 0.044303507 -0.19958279 0.2835511
000220 6c d3 86 3d 20 f1 19 bc 24 5c 22 be 7c 9c a2 3d
       0.06583294 -0.009395868 -0.15855461 0.07940003
000230 f8 1a 9a bd 28 0e 63 be 20 6b 62 3c ca dd 98 be
       -0.07524675 -0.22173369 0.013819486 -0.29856712
000240 af 97 81 be 82 f5 a8 bd 60 36 b4 3d 30 76 64 3d
       -0.25311038 -0.08249952 0.08799434 0.055776775
000250 9d 35 66 be e0 56 65 bc 48 2d 2b bd 4f 63 2d be
       -0.2248139 -0.013997763 -0.04179123 -0.16932414
000260 9c d8 a8 bd 50 1c e1 3d 40 a7 05 3c dc c4 04 3e
       -0.0824444 0.10991728 0.008157551 0.12965721
000270 20 18 de bc af 8a 37 be 40 88 84 be 98 52 61 3e
       -0.027111113 -0.17923997 -0.258852 0.22004163
000280 69 e7 a8 be c0 8b ac 3d 34 3e 9e bd 54 3a b6 3d
       -0.32989052 0.08425093 -0.07726708 0.08897844
000290 80 d9 01 bb c8 43 85 3e a8 08 36 3e e8 7c 77 3e
       -0.0019813478 0.26028275 0.1777674 0.24168742
0002a0 7a 47 dd bd 20 53 60 be 60 16 56 3e 80 51 18 3e
       -0.10804649 -0.2190671 0.20906973 0.1487484
0002b0 0c 8f 8e 3e f7 b2 a2 be fc 95 54 be 90 b9 32 3e
       0.2784351 -0.31777164 -0.2076034 0.17453599
0002c0 51 38 90 be c8 df dd bd 46 e7 51 be 6c f4 0b be
       -0.28167966 -0.108336985 -0.2049838 -0.13667458
0002d0 60 8c 1c 3d 94 3a 60 be 70 98 c5 3c 08 5f 4f 3d
       0.03821981 -0.21897346 0.02412054 0.05062774
0002e0 a2 82 72 be b4 e7 93 3e 29 cf 9d be 42 6d 94 be
       -0.23682645 0.28887713 -0.30822113 -0.28989607
0002f0 ac 99 45 3e 34 2f 2d be 3d 46 9c be d0 ee 65 3d
       0.19296902 -0.16912538 -0.30522338 0.056135952
000300 e2 f9 a2 3e 80 a5 97 3b 44 20 5a 3e 08 0b 85 be
       0.3183127 0.0046278834 0.21301371 -0.2598498
000310 28 eb f1 3d d4 d2 66 3e 6c ad 56 3e 20 fc 7b bc
       0.118124306 0.22541362 0.20964593 -0.0153799355
000320 c8 f0 df bd 74 5d db 3d 60 d8 92 bc e0 cc 06 3e
       -0.10934597 0.10711184 -0.017925441 0.13164091
000330 a0 12 41 3d 10 20 f2 3c f4 58 db bd f0 04 2f 3e
       0.047136903 0.029556304 -0.10710326 0.17091727
000340 28 c1 b3 3d f0 fb 78 bd de c5 a7 3e 08 5e 46 3e
       0.08777076 -0.06078714 0.32768148 0.19371808
000350 51 7e 8e be 69 75 1a be e0 75 79 3e 24 b7 2d 3e
       -0.27830747 -0.15083851 0.24361372 0.16964394
000360 64 01 98 3d 62 87 46 be 7c 15 a5 3e f8 05 a0 bd
       0.0742214 -0.19387582 0.32242954 -0.078136384
000370 b0 49 8e be 1e ba d7 bd be 61 97 3e 94 ff b5 3d
       -0.27790594 -0.10533546 0.2956676 0.08886638
000380 f8 f0 7b bd a0 3e 82 be 88 43 60 bd cc 88 7f 3e
       -0.061509103 -0.25438404 -0.054751903 0.24954528
000390 19 57 9d be 4c 16 84 3e 00 6a a7 3c 31 72 80 be
       -0.30730513 0.2579826 0.020436287 -0.2508712
0003a0 8a d4 a0 3e 20 78 88 bd f4 ef 73 3e f1 6e 33 be
       0.31412154 -0.06663537 0.23822004 -0.1752279
0003b0 2c f7 64 be de 4d 88 be 60 d8 41 bd f0 13 94 bc
       -0.22359914 -0.26621908 -0.047325492 -0.018075913
0003c0 5c 01 b4 bd 78 5e 78 3e 14 79 fc bd 6e 09 09 3e
       -0.08789322 0.24254787 -0.12327781 0.13382503
0003d0 71 cd 24 be 50 24 ee 3d 0e 68 12 be 00 63 e6 3b
       -0.16093995 0.1162802 -0.14297506 0.0070308447
0003e0 7a 63 a8 bd 20 d7 b4 bc d8 df 96 be 00 9d 8f 3c
       -0.08222099 -0.022075236 -0.29467654 0.017530918
0003f0 00 e3 3f 3e 5c ed bf 3d c4 e0 66 be 8e 92 a4 3e
       0.18738937 0.093714446 -0.22546679 0.32143062

dense_1474/bias:0 f4 [23]
000000 00 00 00 00 00 00 00 00 00 00 00 00 00 00 00 00
       0.0 0.0 0.0 0.0
000010 00 00 00 00 00 00 00 00 00 00 00 00 00 00 00 00
       0.0 0.0 0.0 0.0
000020 00 00 00 00 00 00 00 00 00 00 00 00 00 00 00 00
       0.0 0.0 0.0 0.0
000030 00 00 00 00 00 00 00 00 00 00 00 00 00 00 00 00
       0.0 0.0 0.0 0.0
000040 00 00 00 00 00 00 00 00 00 00 00 00 00 00 00 00
       0.0 0.0 0.0 0.0
000050 00 00 00 00 00 00 00 00 00 00 00 00
       0.0 0.0 0.0

dense_1441/kernel:0 f4 [64, 32]
000000 94 fa 78 3e d8 73 97 3d 40 58 d8 3d 80 cc c6 3d
       0.24314338 0.07395142 0.10563707 0.09706974
000010 80 39 df 3d c0 d7 26 bc 58 3b 62 be 10 7a ac bd
       0.10899639 -0.010183275 -0.2209295 -0.08421719
000020 b0 de 8f 3d c0 b3 cc bc ac 2e 78 3e 00 83 06 bd
       0.07024896 -0.024988055 0.24236554 -0.032839775
000030 10 3f 25 3e 10 1a 8e 3d c4 c2 24 3e 20 9f 27 3e
       0.16137338 0.06938565 0.16089922 0.16369295
000040 00 34 87 bc b0 b8 4e bd 00 91 87 bc 00 f4 ef bb
       -0.016504288 -0.0504691 -0.016548634 -0.0073227882
000050 40 6a 3f be 60 c6 85 3d a8 03 92 bd 00 b0 3f 3b
       -0.18692875 0.06531978 -0.071296036 0.0029249191
000060 28 38 71 be 00 19 80 3c 9c 4c 0b be 5c 05 29 be
       -0.23556578 0.01563692 -0.13603443 -0.1650595
000070 d0 3c 13 be 40 8f 0d 3e f0 4e b1 3d a0 4a 9c 3c
       -0.14378667 0.13824177 0.08657634 0.019078553
000080 90 fd 78 be 14 5c 51 3e d0 15 1c 3e a8 0b 6e 3e
       -0.24315476 0.20445281 0.15242696 0.23246634
000090 b8 21 ab bd 00 92 40 3b a8 24 95 3d 90 95 36 3e
       -0.08356041 0.0029383898 0.07282382 0.17830491
0000a0 20 a5 86 bc 68 bf 1b be f0 36 af 3d 30 94 e3 3d
       -0.01643616 -0.15209734 0.085554 0.11112249
0000b0 ec 23 13 3e 24 40 5f 3e 74 d0 35 be 78 1a f8 3d
       0.14369172 0.21801811 -0.177553 0.121144235
0000c0 c0 69 de 3d a8 a1 ba 3d 08 cb b5 3d 40 0d e7 bd
       0.10860014 0.09112865 0.08876616 -0.11281824
0000d0 e0 b1 d9 3c 90 be 0b 3e a8 5a 49 3e 40 c0 5d 3e
       0.026574075 0.13646913 0.19663489 0.21655369
0000e0 b0 35 f1 bd 6c d3 10 3e 5c 21 5b 3e e0 53 02 bd
       -0.11777818 0.14143151 0.21399444 -0.03181827
0000f0 80 33 a5 3b 80 80 95 3b e4 1f 17 be 24 39 25 be
       0.0050415397 0.0045624375 -0.14758259 -0.16135079
000100 e8 4e 4c 3e a0 c5 73 3e 7c 8d 0b be 3c f5 58 be
       0.19951975 0.23805857 -0.13628191 -0.211873
000110 00 f9 b2 bd 00 b7 30 be d0 dc 35 be b4 51 02 be
       -0.08738899 -0.17257309 -0.17760015 -0.1272648
000120 1c f0 65 3e 9c b2 7b be 30 72 7c be 2c 0a 42 be
       0.22454876 -0.24579853 -0.24652934 -0.18949193
000130 7c 82 1d be 24 36 5f be 74 a1 73 be 18 b0 b0 bd
       -0.15381807 -0.21797997 -0.23792058 -0.08627337
000140 4c d5 70 3e c0 8f 71 bd f8 4c 84 bd 94 0c 48 3e
       0.23518866 -0.05897498 -0.06459993 0.19536048
000150 78 3a 9f bd 00 69 44 3d c0 73 8a bc ac b9 42 be
       -0.07774824 0.0479517 -0.016900897 -0.1901614
000160 f8 69 eb 3d d0 95 5b 3e 00 75 78 bb 84 97 4e be
       0.11494821 0.21443868 -0.0037911534 -0.20174986
000170 34 6f 38 3e 98 19 05 be 8c 4b 31 be 08 d4 48 3e
       0.1801117 -0.12998044 -0.17313975 0.19612134
000180 d8 c5 cb bd b0 e0 57 be e8 34 ee 3d 54 fd 26 be
       -0.09949845 -0.21081805 0.11631185 -0.16307575
000190 00 a3 67 be 38 50 de 3d b8 2e 3f 3e 00 e3 ea 3d
       -0.22620773 0.10855144 0.18670166 0.11469078
0001a0 4c ae 6d be d0 34 7c 3e 80 99 b1 bb 40 c4 c6 3c
       -0.2321102 0.24629521 -0.00541991 0.024263501
0001b0 ec 70 26 be a8 fb 26 3e 78 fb 5a 3e 88 fd 94 bd
       -0.16254014 0.16306937 0.2138499 -0.0727492
0001c0 d8 43 70 3e 74 7f 6f be c0 d3 04 3e 80 f7 f4 3c
       0.2346338 -0.23388463 0.12971401 0.029903173
0001d0 64 c5 2b 3e 30 f4 50 be 68 7e b1 3d 80 ac 13 3e
       0.16774517 -0.2040565 0.08666688 0.14421272
0001e0 90 2e 39 3d e0 bd e4 3c ec e8 4e be b0 a8 2c 3d
       0.04521042 0.02792257 -0.2020604 0.04215306
0001f0 38 5c ea 3d f8 df fa 3d a0 50 cf bc 00 02 5c bd
       0.114433706 0.1224975 -0.025307 -0.053712845
000200 90 1b 48 3e 70 34 f8 3d 00 46 62 bb f8 93 11 3e
       0.19541764 0.12119377 -0.0034526587 0.14216602
000210 d8 5e 1f 3e 08 a8 9f bd 1c c7 09 3e 20 d7 5b 3d
       0.15563524 -0.07795721 0.1345486 0.053671956
000220 d8 ea a3 bd c0 45 2c 3c a0 bb 77 3e d8 a7 03 be
       -0.08003777 0.010514677 0.24192667 -0.12856996
000230 60 41 c2 3d 00 8c 31 3b e0 ae bf 3d fc 0f 1b be
       0.094851255 0.0027091503 0.09359527 -0.15142816
000240 d0 31 31 3d 00 33 6c 3c b0 af 5f bd b8 fc cf bd
       0.043260396 0.014416456 -0.054610908 -0.10155624
000250 58 99 ae 3d 8c 60 74 be 30 77 29 be 50 6d 24 be
       0.08525342 -0.23864955 -0.16549373 -0.16057324
000260 80 a2 3e bd 58 53 2b 3e 14 a0 5d be 48 20 79 be
       -0.04654169 0.16731012 -0.21643096 -0.2432872
000270 f8 f6 86 3d f8 c2 e9 3d 50 ff 29 bd 54 22 6f be
       0.06590074 0.114141405 -0.04150325 -0.23352939
000280 f0 96 19 bd 48 eb 6b 3e 80 57 e2 3b a8 4a 16 be
       -0.03749746 0.23038971 0.0069074035 -0.14676917
000290 60 9a d4 3c 80 32 dc bd 48 fa 7a be 20 e2 c8 3c
       0.025952518 -0.107518196 -0.24509537 0.024521887
0002a0 28 c5 08 be e8 ec 64 3e b0 6f 08 3e 40 55 73 be
       -0.13356459 0.22355998 0.13323855 -0.23762989
0002b0 2c 70 11 be a0 ce 84 bd 00 e6 99 ba 64 c0 10 be
       -0.14202946 -0.06484723 -0.0011741519 -0.14135891
0002c0 f0 4a 6e be 20 cb 85 bc 60 af f9 bc 40 95 6b bd
       -0.23270774 -0.01633221 -0.030479133 -0.057515383
0002d0 f8 54 f6 3d 00 a7 6f be 90 59 0b bd 14 70 6c be
       0.12027925 -0.23403549 -0.03402096 -0.2308963
0002e0 00 71 e7 3c 60 f3 b7 bc a0 59 c8 bc 00 e3 2f 3b
       0.028252125 -0.022454917 -0.024456799 0.0026838183
0002f0 c0 0e 15 3e 08 7d 51 be 10 c6 25 bd 70 c5 c4 3d
       0.14556408 -0.20457852 -0.04047209 0.09607971
000300 b0 2a 45 bd e8 3a 3c be b0 18 f1 bd 0c e6 09 be
       -0.048136413 -0.18381846 -0.11772287 -0.13466662
000310 10 b0 30 3d 04 63 4a be 18 58 ba 3d 34 18 15 be
       0.043136656 -0.19764334 0.09098834 -0.14560014
000320 00 3e af 3c 20 e5 4b be 50 e1 a7 3d 44 d1 77 3e
       0.021391869 -0.19911623 0.08197272 0.24200922
000330 30 85 de 3d c0 e2 e6 bc 20 ed 97 bd c0 d1 37 3d
       0.10865247 -0.028184295 -0.07418275 0.044877768
000340 80 b6 e6 3c 60 2b 96 3c 90 56 2b be 00 d7 63 be
       0.028163195 0.01833123 -0.1673224 -0.22249985
000350 10 a3 71 be 58 2f 06 3e d0 53 1b bd 80 b6 a3 3d
       -0.2359736 0.13103998 -0.037921727 0.079937935
000360 78 51 18 3e 08 6c 9d bd 40 f9 2a bc fc d5 79 be
       0.14874828 -0.07686621 -0.010435402 -0.24398035
000370 18 84 f9 3d cc 2f 24 be 40 f5 4a bd 00 22 2c be
       0.12183398 -0.16033858 -0.049550295 -0.16809845
000380 58 d2 2f be 40 f4 41 bc 78 23 36 3e bc dc 68 be
       -0.17170084 -0.011838019 0.17786968 -0.22740453
000390 4c 3a 42 be 58 4b 05 3e 80 3d fc bb 40 47 0f 3d
       -0.18967551 0.13017023 -0.007697761 0.03498006
0003a0 60 34 df bd 9c 36 5f be 40 21 db bd 20 80 9d 3c
       -0.108986616 -0.21798176 -0.10699701 0.019226134
0003b0 54 22 5b 3e cc 32 70 3e 38 98 44 3e 88 da 98 bd
       0.21399814 0.23456877 0.19198692 -0.074635565
0003c0 b8 c2 f4 3d e0 fd 8a 3c cc d0 58 3e 88 6a de bd
       0.11951202 0.01696676 0.211734 -0.10860163
0003d0 b0 69 64 bd a0 ec fc 3d 30 d2 20 3d c4 1a 1f 3e
       -0.055764854 0.1234982 0.03926295 0.15537554
0003e0 d0 d6 2e bd fc 2f 25 be d0 0d 6c bd 40 2b ec bc
       -0.04268533 -0.16131586 -0.05763036 -0.028829217
0003f0 a0 e9 26 3e 20 c6 59 3e 68 65 69 3e 00 97 5b bd
       0.16300058 0.21266985 0.2279259 -0.0536108

dense_1441/bias:0 f4 [32]
000000 00 00 00 00 00 00 00 00 00 00 00 00 00 00 00 00
       0.0 0.0 0.0 0.0
000010 00 00 00 00 00 00 00 00 00 00 00 00 00 00 00 00
       0.0 0.0 0.0 0.0
000020 00 00 00 00 00 00 00 00 00 00 00 00 00 00 00 00
       0.0 0.0 0.0 0.0
000030 00 00 00 00 00 00 00 00 00 00 00 00 00 00 00 00
       0.0 0.0 0.0 0.0
000040 00 00 00 00 00 00 00 00 00 00 00 00 00 00 00 00
       0.0 0.0 0.0 0.0
000050 00 00 00 00 00 00 00 00 00 00 00 00 00 00 00 00
       0.0 0.0 0.0 0.0
000060 00 00 00 00 00 00 00 00 00 00 00 00 00 00 00 00
       0.0 0.0 0.0 0.0
000070 00 00 00 00 00 00 00 00 00 00 00 00 00 00 00 00
       0.0 0.0 0.0 0.0

dense_1458/kernel:0 f4 [32, 32]
000000 10 e6 db bd 08 4d 0e bd d0 42 59 bd c0 3d b5 bc
       -0.1073724 -0.03474143 -0.053042233 -0.022124171
000010 2e dd 8d be 38 4f 17 3e b0 a8 e9 3c 68 82 e3 3d
       -0.2770781 0.14776313 0.02852282 0.111088574
000020 4e 7a 10 3e c3 bc 29 be c1 f7 30 be 64 45 16 3e
       0.14109156 -0.16575913 -0.1728201 0.14674908
000030 ae 2f 94 be 54 d5 ea 3d 37 44 8f 3e e3 46 7e be
       -0.28942627 0.1146647 0.2798173 -0.24831729
000040 2a f1 6d 3e e4 cf 91 bd ca 5b a6 bd 32 d8 4e 3e
       0.23236528 -0.0711973 -0.08122976 0.2019966
000050 f4 c4 29 be 89 eb 90 3e cc a9 c2 3d 06 05 c5 bd
       -0.16579038 0.283047 0.095050424 -0.09620099
000060 60 55 14 bd 84 94 8c 3d 8a e6 40 3e 4e b6 96 be
       -0.036214232 0.068642646 0.18837944 -0.29435962
000070 67 02 90 3e a2 53 37 3e 10 fa 36 3d 68 79 42 3d
       0.28126833 0.17902997 0.044672072 0.047479063
000080 de e2 58 3e d8 ee 42 3e e9 d2 69 be ec 83 36 be
       0.21180293 0.19036424 -0.22834362 -0.17823762
000090 27 c3 8b be ee 79 a4 bd 46 dc 11 3e 7a 3a 7b be
       -0.27297327 -0.08031069 0.14244184 -0.24534026
0000a0 63 2e 90 be 60 65 91 3d 48 d2 6e 3d 38 04 5d bd
       -0.2816039 0.07099414 0.05830601 -0.0539591
0000b0 ca 4d 90 be 09 80 82 3e b0 87 26 be 88 13 45 3e
       -0.28184348 0.25488308 -0.16262698 0.19245732
0000c0 f0 66 44 be e8 31 60 bd 34 0b 3d 3e 67 c0 1c be
       -0.19179893 -0.054735094 0.18461305 -0.1530777
0000d0 3a 1b 4d be 9d c6 7f be b4 28 16 3e 6d 12 93 3e
       -0.20029917 -0.24978109 0.14663965 0.28724995
0000e0 88 db d7 bd 24 c8 11 3e ac e7 f2 3d fa 03 b0 bd
       -0.10539919 0.14236504 0.11860594 -0.085945085
0000f0 d9 5f 97 be 42 89 73 3e 8c 12 ec 3d 89 30 86 3e
       -0.29565313 0.23782828 0.11526975 0.26208904
000100 1e 30 0d 3e 8a 01 24 be 88 76 3e be 00 8a 18 bd
       0.13787887 -0.16016212 -0.18599904 -0.037240982
000110 b2 6a 53 3e a1 02 22 be c2 c2 6d be f1 10 88 3e
       0.2064617 -0.15821315 -0.23218825 0.26575425
000120 6e d3 69 3e ee 08 5c 3e d0 39 7b 3d bf bf 8e 3e
       0.2283456 0.21487781 0.06133443 0.27880666
000130 98 66 83 be 50 2e 43 3d 6c ba e2 3d 40 e2 0e be
       -0.2566421 0.04765159 0.110707134 -0.13953495
000140 68 97 c0 bd 00 b3 7d bb bc b0 73 be 3a ca 28 3e
       -0.094038785 -0.0038711429 -0.23797888 0.16483393
000150 40 da d1 3d f0 e4 69 bd 50 b1 4a bd 98 4f 03 3e
       0.10246706 -0.057103097 -0.049485505 0.12823331
000160 01 28 41 be ae 24 87 be 87 03 8a 3e a8 59 70 bd
       -0.18862917 -0.26395172 0.26955816 -0.058679253
000170 d2 c9 26 3e b4 35 58 be aa 93 89 be 98 a4 b3 3d
       0.16287926 -0.21114236 -0.2687047 0.08771628
000180 70 1d 0f 3e 60 ac a9 bc a0 45 03 3d b4 44 d7 3d
       0.13976073 -0.020712078 0.03204882 0.10511151
000190 4c d9 b3 bd 40 9f 5a bd 7c 1b aa 3d ce 1d 00 3e
       -0.087816805 -0.05337453 0.083060235 0.1251137
0001a0 98 21 c3 3d 76 03 55 be b3 f8 14 be e3 96 83 be
       0.09527892 -0.20802101 -0.14547996 -0.25701055
0001b0 8c ab 1e be 60 93 9c bd 9c ee 47 be 02 cc 79 3e
       -0.15495127 -0.07645297 -0.19524616 0.24394229
0001c0 50 47 89 bc 80 7b 8b bb d8 8a 37 3e 0d 1d 8c 3e
       -0.016757637 -0.0042566657 0.17924058 0.27365914
0001d0 5d 30 99 3e a7 93 9b 3e 00 e5 b1 3a aa cf c3 bd
       0.2991971 0.30386087 0.0013572276 -0.09561093
0001e0 8a ea ad bd b6 97 f9 bd 30 02 a7 3c 80 36 15 bb
       -0.084920004 -0.1218714 0.020386785 -0.002276808
0001f0 4a 8f 76 3e 10 b8 5f bd 80 a1 89 bb 7b fb 39 be
       0.24078098 -0.054618895 -0.0042001605 -0.18162338
000200 ac a0 df 3d 3e 27 4e 3e 57 42 90 3e f0 4c 22 3d
       0.109193176 0.20132157 0.28175613 0.039624155
000210 04 fe c0 bd 3d ad 19 be dc 69 9a 3d 30 86 d5 3c
       -0.0942345 -0.15007491 0.07539722 0.026064962
000220 a0 6c 40 3d 50 a7 2d 3e ff 98 8b 3e ef c0 6e be
       0.046978593 0.16958356 0.27265164 -0.23315786
000230 48 a0 46 3d c0 f4 c3 bd e8 db da bd 17 6b 92 be
       0.0484927 -0.09568167 -0.10686475 -0.28597328
000240 18 2e eb 3d e6 aa 17 3e 26 fa a5 bd ac 26 70 be
       0.11483401 0.14811286 -0.08104353 -0.23452252
000250 5c ff f6 3d 1a a7 91 be 8a fe 1c 3e 70 37 06 3e
       0.12060425 -0.284478 0.15331474 0.13107085
000260 4b e6 99 3e a8 73 fd 3d 24 35 6a be 00 60 67 bc
       0.30058512 0.12375575 -0.22871834 -0.014122009
000270 10 13 dc bc 5f 0e 74 be 46 20 4a 3e 80 73 2c bc
       -0.026864558 -0.23833607 0.19738874 -0.010525584
000280 2c ce 49 be f4 b2 cb 3d d7 2c 86 3e 62 55 34 be
       -0.19707555 0.09946242 0.26206085 -0.17610696
000290 47 11 8a be e4 5f 0c 3e 30 69 00 3e 43 32 95 3e
       -0.26966307 0.13708454 0.12540126 0.2913991
0002a0 30 8a 52 bd 5a f8 86 bd b0 dc f3 3d 20 81 f2 3c
       -0.051401317 -0.06590338 0.11907327 0.029602587
0002b0 7c d9 64 be b7 3a 81 be 50 cd 9f 3d 0e a1 42 be
       -0.22348589 -0.25240108 0.07802832 -0.1900675
0002c0 1e 5e fa bd a4 8b 68 bd 4a 79 78 3e 30 41 52 be
       -0.12224983 -0.056773797 0.24265018 -0.2053268
0002d0 f4 0d e5 bd 4c 94 54 be b8 a4 3e 3d cb ac 8d 3e
       -0.11184302 -0.20759696 0.046543807 0.27670893
0002e0 b9 b3 92 be e2 b3 3a 3e 4b 59 9b 3e 40 5b 2b 3c
       -0.28652743 0.18232682 0.30341563 0.010458767
0002f0 68 3f 3c bd ee 99 7d be 00 4b e1 bb fe f0 14 3e
       -0.045958906 -0.24765751 -0.006875396 0.14545056
000300 1f fe 88 3e 7e d5 07 3e be f3 40 be ea e2 93 be
       0.2675638 0.13265035 -0.1884298 -0.2888406
000310 00 29 59 3d f8 b2 7e 3d b3 6c 05 be a4 ef 80 3d
       0.053017616 0.062182397 -0.13029747 0.06295708
000320 d0 6c a9 3d 22 9b 82 be ee 80 ed bd b0 8d 68 3d
       0.082727075 -0.25508982 -0.11596857 0.05677575
000330 83 98 96 3e 28 b0 3d 3d 98 15 cd 3d aa 96 2f be
       0.29413232 0.046310574 0.10013884 -0.17147318
000340 96 77 95 be ff fe 8b 3e 18 20 0f bd 38 ae 44 3e
       -0.291928 0.27342984 -0.034942716 0.19207084
000350 00 30 51 bb c0 c8 91 bc 27 02 99 3e 1e 9a 0f 3e
       -0.003191948 -0.01779592 0.29884455 0.14023635
000360 52 3f e8 bd 68 c4 b3 3d b5 c8 9b be ce 80 23 be
       -0.113402024 0.08777696 -0.30426565 -0.15967104
000370 45 12 7d be f8 31 31 be c9 d4 98 3e d1 cc 06 be
       -0.24714 -0.17304218 0.29849842 -0.13164069
000380 07 e6 8a 3e 20 2e e8 3c c9 23 89 3e 50 0f 2a 3d
       0.27128622 0.028342307 0.26785114 0.04151851
000390 d9 99 26 be c0 d1 f5 3b 58 da 23 3e 80 1d 4a 3d
       -0.16269626 0.007501811 0.1600126 0.04934454
0003a0 e8 12 55 be c6 9f 40 be 88 b5 64 3d ac 9f 3e be
       -0.20807993 -0.18810949 0.055837184 -0.18615597
0003b0 c2 9d 40 3e 2a d5 33 3e 68 4f 0f 3e 0d 5a 80 be
       0.1881018 0.17561784 0.13995135 -0.25068703
0003c0 1e d1 8d bd 40 b5 9b 3b 4f e8 98 3e c7 6c 88 3e
       -0.069246516 0.0047518313 0.29864737 0.2664549
0003d0 80 c1 9e bc e4 7c 89 be 1e ca 77 3e 76 9d 16 3e
       -0.019379377 -0.26853096 0.24198195 0.14708504
0003e0 0e 6e 42 be e0 ae 5f 3d 18 35 ef 3d 28 c7 97 be
       -0.18987295 0.054610133 0.11680049 -0.29644132
0003f0 98 0a fd bd 18 e9 ae 3d 4c ab 81 3d 80 1b 40 3e
       -0.12355536 0.08540553 0.063315004 0.1876049

dense_1458/bias:0 f4 [32]
000000 00 00 00 00 00 00 00 00 00 00 00 00 00 00 00 00
       0.0 0.0 0.0 0.0
000010 00 00 00 00 00 00 00 00 00 00 00 00 00 00 00 00
       0.0 0.0 0.0 0.0
000020 00 00 00 00 00 00 00 00 00 00 00 00 00 00 00 00
       0.0 0.0 0.0 0.0
000030 00 00 00 00 00 00 00 00 00 00 00 00 00 00 00 00
       0.0 0.0 0.0 0.0
000040 00 00 00 00 00 00 00 00 00 00 00 00 00 00 00 00
       0.0 0.0 0.0 0.0
000050 00 00 00 00 00 00 00 00 00 00 00 00 00 00 00 00
       0.0 0.0 0.0 0.0
000060 00 00 00 00 00 00 00 00 00 00 00 00 00 00 00 00
       0.0 0.0 0.0 0.0
000070 00 00 00 00 00 00 00 00 00 00 00 00 00 00 00 00
       0.0 0.0 0.0 0.0

dense_1459/kernel:0 f4 [32, 32]
000000 18 3b bd 3d 70 d9 77 3d 72 6b 4f 3e c8 cc 40 3e
       0.09239787 0.0605101 0.20255831 0.18828118
000010 6b fc 84 3e 8a c6 10 3e 37 61 96 3e a8 b0 82 3d
       0.2597383 0.14138237 0.29371044 0.06381351
000020 c0 32 d9 bb 25 ca 83 be e0 89 28 3c 7b d3 95 3e
       -0.0066283643 -0.25740162 0.010286778 0.2926291
000030 38 06 b2 3d 60 01 d8 3c 10 07 3d 3d ee 1e 47 3e
       0.086925924 0.026367843 0.046149313 0.19445392
000040 f0 13 62 bd 38 22 02 3d 66 71 7a 3e 18 07 81 be
       -0.055194795 0.031770915 0.2445732 -0.25200725
000050 80 80 06 3b bb c1 9c 3e 16 c1 77 3e 86 75 33 3e
       0.002052337 0.30616555 0.2419475 0.175253
000060 31 6d 08 be a0 72 eb 3c 43 e7 86 3e ea 97 fe bd
       -0.13322903 0.02874118 0.26348314 -0.12431319
000070 88 81 4d bd 5b 3c 88 3e c0 e2 1f 3d 11 3c 89 be
       -0.05017236 0.26608548 0.039034605 -0.2680364
000080 68 f8 19 be ce 91 b7 bd 2d ff 8a 3e ea 88 ae bd
       -0.15036166 -0.08963357 0.2714781 -0.08522208
000090 8c 35 81 be e6 71 c4 bd 59 37 84 3e ea 0f 5a 3e
       -0.25236166 -0.09592037 0.25823477 0.21295133
0000a0 3e c6 ca bd e7 fd 3e be 3a 02 0f be db 6c 84 3e
       -0.09901093 -0.18651544 -0.13965693 0.258643
0000b0 a6 76 29 be 82 7a f9 bd ba 1e 79 3e e2 d4 3f be
       -0.16549167 -0.1218157 0.24328128 -0.18733552
0000c0 80 8c d3 3b c6 3d 66 3e 68 44 34 be 78 52 91 be
       0.006455958 0.22484502 -0.1760422 -0.2838323
0000d0 be 73 e3 bd 00 e3 2b bc c0 b6 af bc f6 6d 12 be
       -0.111060604 -0.010491133 -0.021449447 -0.1429976
0000e0 08 82 25 be 68 14 10 bd c9 14 83 be 80 01 76 3b
       -0.16162884 -0.03517571 -0.25601795 0.0037537515
0000f0 d7 73 8d 3e 92 ee 69 3e 91 8c 8c be c2 23 0d 3e
       0.2762744 0.22844914 -0.27450994 0.13783172
000100 a0 38 fe 3c c0 e1 9d 3b aa 94 7e 3e ba fc 56 3e
       0.03103286 0.0048181713 0.24861398 0.20994845
000110 fc 3a 09 3e 91 1f 00 be a0 02 91 3d 97 77 8a be
       0.13401407 -0.12512042 0.07080579 -0.27044365
000120 10 05 02 3e ca 83 06 3e a8 38 d1 3d 89 c0 8c 3e
       0.12697244 0.13136211 0.102158844 0.27490643
000130 c4 1c 22 3e 70 2d 69 be a0 1f 48 3d c0 7e 24 3c
       0.15831286 -0.2277124 0.048858285 0.010039985
000140 40 d0 9a 3d ac e9 60 be b0 28 36 3d a8 9b 77 3d
       0.07559252 -0.21964139 0.044472396 0.06045118
000150 c6 e9 42 3e a0 22 e9 3d 14 bb 8e bd 60 64 43 bc
       0.1903449 0.11383557 -0.06969276 -0.011925787
000160 75 e0 7e be 6d fd 5b be 72 4d 1a 3e c4 77 71 be
       -0.24890311 -0.21483393 0.15068606 -0.23580843
000170 c0 30 ce 3b b0 ce f4 3d 60 1f c2 3c 98 91 8a 3d
       0.0062924325 0.11953485 0.023696601 0.06766051
000180 18 86 86 be 9f b3 83 3e 5f 21 9b 3e 60 72 9b 3d
       -0.2627418 0.25722978 0.30298898 0.07590175
000190 9c 58 f7 3d 80 6d b0 3d 57 88 8c 3e e4 f2 c5 bd
       0.12077448 0.086146355 0.2744777 -0.09665468
0001a0 ee fc ca bd c9 16 32 be 86 06 0a be e0 84 87 bc
       -0.09911524 -0.17391504 -0.13479051 -0.016542852
0001b0 92 66 62 3e 52 a7 ac bd ea 71 82 be 84 b8 df 3d
       0.2210944 -0.08430351 -0.25477535 0.109238654
0001c0 d6 24 65 3e 80 81 3b 3d 2b 12 89 be f9 07 84 be
       0.22377333 0.045777798 -0.26771674 -0.25787333
0001d0 ae f2 8e be 60 4a 70 bc 2a 1d 49 3e 04 0a b0 3d
       -0.27919525 -0.01466617 0.19640031 0.0859566
0001e0 c2 fd 0f 3e da d8 30 3e ea bc 4d be 40 bd a8 bb
       0.14061645 0.17270222 -0.20091596 -0.0051495135
0001f0 66 91 5d be 1c bb 7d bd 68 6e 16 bd 94 ab fe 3d
       -0.21637496 -0.06194602 -0.036726385 0.1243507
000200 4a e8 5a 3e a2 ea 5f be 76 a9 75 3e ca 5a 52 be
       0.21377674 -0.21866849 0.23990425 -0.20542446
000210 62 79 42 be 36 e3 54 3e 2c 36 21 3e d0 94 97 bc
       -0.18991616 0.20789799 0.15743321 -0.018503577
000220 88 b2 99 3d e8 42 15 3d 24 f7 04 3e 62 a5 48 3e
       0.07504755 0.03644076 0.12984902 0.19594339
000230 ed 12 96 3e 3a 02 4e 3e ee ea 28 3e b7 bc 94 be
       0.29311314 0.20118037 0.16495869 -0.29050228
000240 00 fc 32 3e d6 b1 6b 3e 0e 8b 76 3e d8 43 09 bd
       0.17478943 0.23017058 0.24076483 -0.033511966
000250 65 8b 93 3e 27 70 82 be e0 6c 32 3d 12 2e 60 be
       0.28817287 -0.2547619 0.043560863 -0.21892574
000260 6f 4c 95 be fb 5a 50 be 5e a9 39 be 02 b2 77 3e
       -0.29159877 -0.20347206 -0.18131015 0.24188998
000270 4c 5a f7 3d 96 5f 61 3e 26 32 59 3e 4d 70 8d 3e
       0.1207777 0.2200912 0.21210536 0.2762474
000280 ee c7 8d bd de d9 51 be c6 9a 21 3e 45 db 93 3e
       -0.06922899 -0.20493266 0.15781698 0.28878227
000290 40 dd 8a 3d 54 af d7 3d fe 4e 78 3e 60 57 6e be
       0.06780481 0.10531488 0.24248883 -0.23275518
0002a0 e3 65 96 3e e0 51 8d 3c 10 d0 e8 bc 6e 10 81 be
       0.29374608 0.017250955 -0.028419524 -0.25207847
0002b0 e6 49 7f 3e e8 74 9c bd 20 d8 cb bd c0 8e 5e be
       0.24930534 -0.076394856 -0.09953332 -0.21734142
0002c0 94 9f c2 bd fc dc a4 3d 71 3a 95 3e 73 51 9b be
       -0.09503093 0.08049962 0.2914615 -0.30335578
0002d0 3c cf 2d 3e a0 63 89 3c c7 91 66 be 70 38 68 3d
       0.16973585 0.016771138 -0.22516547 0.056694448
0002e0 ea 87 0d be 72 84 80 be ec 95 fb 3d b3 5c 92 3e
       -0.13821378 -0.25101048 0.12284455 0.2858635
0002f0 d8 de 50 bd 14 57 26 be 32 1e 5b 3e bb fe 96 3e
       -0.05099377 -0.16244155 0.21398237 0.2949122
000300 a0 ae db 3c c8 32 3a bd b8 52 00 3e f3 a7 8d 3e
       0.026816666 -0.045458585 0.12531555 0.27667198
000310 8c dd d2 bd c0 be 7e 3d 80 8c df 3d d1 ed 85 be
       -0.10296163 0.062193632 0.1091547 -0.26158002
000320 59 83 02 be e0 55 ff bc 58 96 53 3d da 4f 15 3e
       -0.12745418 -0.031168878 0.05165705 0.14581242
000330 9b cd 5d be b4 e2 5c be 6c ae e3 3d 50 29 e3 3c
       -0.21660464 -0.21570855 0.11117253 0.02772966
000340 41 08 98 3e 84 e5 bc 3d 50 8d 86 3c 0d 5b 23 be
       0.29693797 0.09223464 0.016424805 -0.15952702
000350 07 e7 81 3e dd 07 59 be 5f 45 83 3e 10 9e 38 be
       0.25371572 -0.21194406 0.25638863 -0.18029046
000360 21 74 86 3e 06 8b 70 3e 74 82 23 3e 20 19 a2 3c
       0.26260474 0.23490533 0.15967733 0.019787371
000370 f0 6d e4 bd 11 95 02 be e0 9b d8 bc d6 c5 96 bd
       -0.111537814 -0.12752177 -0.026441514 -0.07361953
000380 70 87 99 bc 60 60 a5 bc bc 1f 3d be 22 43 69 3e
       -0.01874134 -0.020187557 -0.18469137 0.22779515
000390 40 e7 b1 3d 94 80 53 be 2d f7 28 be 9c 84 ce 3d
       0.086866856 -0.20654517 -0.1650054 0.10083887
0003a0 50 68 d1 3d ae 4b 34 3e 78 92 29 bd 5c bf 91 bd
       0.10224974 0.17606995 -0.04139945 -0.07116577
0003b0 a0 27 77 3d c4 ce 19 be a5 b0 7f be 00 38 fe 3b
       0.060340524 -0.15020281 -0.24969728 0.0077581406
0003c0 66 e9 37 3e 8c b4 2c be e4 04 71 be a8 21 49 be
       0.17960128 -0.16865748 -0.23537022 -0.19641745
0003d0 eb 4c 8c be 00 83 a9 3c 03 ec 91 3e ef f0 83 be
       -0.27402434 0.020692348 0.28500375 -0.25769755
0003e0 65 b2 7e be 9a 04 0d 3e c0 71 46 3c 14 36 b8 3d
       -0.2487274 0.13771287 0.012112081 0.089946896
0003f0 69 0e 82 3e 9a 0e 67 3e 0c 9d d1 3d 3a 75 79 3e
       0.2540162 0.22564164 0.102350324 0.24361125

dense_1459/bias:0 f4 [32]
000000 00 00 00 00 00 00 00 00 00 00 00 00 00 00 00 00
       0.0 0.0 0.0 0.0
000010 00 00 00 00 00 00 00 00 00 00 00 00 00 00 00 00
       0.0 0.0 0.0 0.0
000020 00 00 00 00 00 00 00 00 00 00 00 00 00 00 00 00
       0.0 0.0 0.0 0.0
000030 00 00 00 00 00 00 00 00 00 00 00 00 00 00 00 00
       0.0 0.0 0.0 0.0
000040 00 00 00 00 00 00 00 00 00 00 00 00 00 00 00 00
       0.0 0.0 0.0 0.0
000050 00 00 00 00 00 00 00 00 00 00 00 00 00 00 00 00
       0.0 0.0 0.0 0.0
000060 00 00 00 00 00 00 00 00 00 00 00 00 00 00 00 00
       0.0 0.0 0.0 0.0
000070 00 00 00 00 00 00 00 00 00 00 00 00 00 00 00 00
       0.0 0.0 0.0 0.0

dense_1460/kernel:0 f4 [32, 32]
000000 9b b5 92 be 50 b0 8e be 2e 1b d8 bd e0 7e 2e bd
       -0.2865418 -0.2786889 -0.10552059 -0.042601466
000010 90 3a 42 bd 05 02 98 be 9c 85 c3 3d 18 ac 89 be
       -0.04741913 -0.2968904 0.09546968 -0.2688911
000020 37 41 8b 3e f2 15 7b be 40 3a a4 3c 00 19 f6 ba
       0.27198192 -0.2452009 0.020047307 -0.0018775761
000030 c7 a4 8e 3e 65 1c 1d be 80 8a 0f 3e cc b7 2a 3e
       0.2786009 -0.15342863 0.14017677 0.16671675
000040 7a b9 76 3e 40 aa 83 3d 80 1e 06 3d 9a 3f 13 be
       0.24094191 0.06428957 0.03274393 -0.14379731
000050 d2 77 7e 3e 75 b5 89 3e 1d 90 81 3e 1c cc 8e be
       0.24850395 0.26896253 0.25305262 -0.27890098
000060 90 e3 9f bc f5 8c 23 be 30 94 50 3d f0 4c 65 bd
       -0.01951769 -0.1597174 0.050922573 -0.055981576
000070 45 24 9c be 1c ff 81 3d bc 39 94 3d ea eb 57 3e
       -0.3049642 0.063474864 0.072375745 0.21086088
000080 20 d6 4a bc 00 a0 21 ba 39 ae 87 3e ea 02 77 3e
       -0.012380153 -0.00061655045 0.2650011 0.24122205
000090 4c 74 2d 3e b6 f4 49 be f0 8c 89 be 50 3c 25 3d
       0.16938895 -0.19722256 -0.2686534 0.04034072
0000a0 5c 60 89 3d 8a f2 2b be 2c 4e 9b 3d 50 d0 f9 bd
       0.06707832 -0.1679174 0.075832695 -0.121979356
0000b0 a2 b1 72 3e 30 c3 a8 3d 79 0a 22 be cc 83 1e be
       0.23700574 0.08240354 -0.15824308 -0.15479964
0000c0 a6 9f 24 3e 3c 3a 37 3e a6 4d 93 be f4 b0 88 3d
       0.16076526 0.17893308 -0.2877018 0.06674376
0000d0 82 5a 4b be c0 21 a8 bd 1f 38 1b be 28 85 1b 3d
       -0.19858745 -0.08209562 -0.15158127 0.037968785
0000e0 fb 8a 98 be f0 ef 52 bd 96 db 73 be 4a 75 e1 bd
       -0.29793534 -0.051498353 -0.23814234 -0.11008699
0000f0 98 de 29 3e 32 60 9f bd 08 87 c8 bd 60 cf ea 3c
       0.16588819 -0.0778202 -0.0979138 0.028663337
000100 ba b3 9b be 75 ac 57 be c8 b6 fd 3d c3 70 99 3e
       -0.30410558 -0.21061881 0.123883784 0.29968843
000110 9f 92 8b 3e 36 6a 78 3e 0e 6f f1 bd 94 cf a0 bd
       0.272603 0.24259266 -0.1178876 -0.078520924
000120 ca a6 82 bd 9e 72 78 3e a1 5f 16 be 30 36 82 bd
       -0.06379469 0.24262473 -0.14684917 -0.06357992
000130 d6 34 59 3e e2 fe 42 be ec 81 f4 bd 16 e2 39 be
       0.21211562 -0.19042543 -0.11938843 -0.18152651
000140 8f 71 82 be 32 62 54 3e 34 05 b9 3d 90 81 67 bd
       -0.25477263 0.20740584 0.090341955 -0.056520045
000150 10 6d b1 3c f4 4b 25 3e 2a 0f 13 3e a4 bd 0a 3e
       0.02165845 0.16142255 0.14361253 0.13548905
000160 58 27 17 bd bc c2 0e be 46 9d d4 bd da d7 4e 3e
       -0.036902755 -0.13941473 -0.1038156 0.20199528
000170 1a b8 a6 bd 03 5c 4a be 00 7c 82 3a 01 99 1e be
       -0.08140583 -0.19761662 0.0009955168 -0.15488054
000180 b4 e3 6c be da ad 5f 3e b1 10 85 be fc b5 7f be
       -0.23133737 0.21843663 -0.25989297 -0.24971765
000190 d0 3b 84 bc e0 53 0f 3c 8c b0 8e 3d 37 be 88 3e
       -0.016141802 0.008748025 0.069672674 0.26707622
0001a0 60 9e fc 3c ca bc a0 bd 10 89 dc 3c 20 e2 07 3c
       0.030837238 -0.07848509 0.026920825 0.0082936585
0001b0 ed 2e 99 be 2c 9a cc bd 5a a7 18 be aa 22 3f be
       -0.29918614 -0.099903435 -0.1490759 -0.18665567
0001c0 00 d0 9c 39 78 fa 92 be d1 2d 9b 3e 18 d0 51 bd
       0.0002990961 -0.28706717 0.30308393 -0.051223844
0001d0 dc 11 b7 3d c5 67 9c 3e 50 4d c7 3c 26 e8 99 be
       0.08938953 0.3054792 0.024328858 -0.30059928
0001e0 38 ae 33 bd a6 9c 57 3e 38 cd 5b bd d4 5d d6 3d
       -0.04386732 0.2105585 -0.05366251 0.10467115
0001f0 b0 ab 51 be 30 ae fe bd 8c ac 98 be ac a5 1e be
       -0.2047565 -0.124355674 -0.29819143 -0.15492886
000200 7d db 75 be ee bc 75 be 34 38 3c 3e 86 a1 79 be
       -0.2400951 -0.23997852 0.18380815 -0.24378023
000210 88 37 72 be 76 0c 95 be e2 2f 67 3e 52 91 68 be
       -0.23653996 -0.2911107 0.2257686 -0.22711685
000220 16 ed 1e 3e b5 78 79 be e6 50 58 be 80 43 15 3d
       0.15520129 -0.24362452 -0.2112461 0.036441326
000230 3f 67 8a 3e e8 09 01 bd b0 a1 0c 3d 60 22 57 3c
       0.27031896 -0.031503588 0.034333885 0.013130754
000240 c8 b8 2d bd 3c df 8a be b0 50 3f 3e ff be 7b be
       -0.04241255 -0.2712344 0.18683124 -0.24584578
000250 a7 98 8f 3e c8 fe 8c be e0 a1 53 3c 32 f8 5c be
       0.28046152 -0.27538133 0.012917012 -0.21579054
000260 c0 d8 df 3d 00 b3 cf 3d 42 d3 b7 bd 18 3a a5 3d
       0.10930014 0.101415634 -0.08975841 0.08067721
000270 67 0c 80 3e f4 fa 8e 3d a5 27 84 be 7a bd 4a be
       0.25009462 0.06981459 -0.25811496 -0.19798842
000280 e2 54 fd bd fe 4c 3f be 24 ae 8a be 30 57 a4 bc
       -0.12369706 -0.18681714 -0.27085984 -0.020061105
000290 68 66 ca bd 28 f4 34 3e 8b 43 9a 3e 35 96 1e be
       -0.09882814 0.17671263 0.30129656 -0.15486987
0002a0 91 59 8e be c5 f9 97 3e 42 1b 3f 3e 82 c5 78 3e
       -0.2780271 0.29682747 0.18662742 0.24294093
0002b0 da 0f 1e be 58 83 7c bd c9 b7 8f 3e 00 70 65 3d
       -0.15435734 -0.061648697 0.28069904 0.056015015
0002c0 14 85 82 be 2e 00 c7 bd 50 62 9c 3d 2b 27 87 3e
       -0.25492156 -0.09716831 0.07635939 0.2639707
0002d0 64 27 eb bd 40 4b b5 3d ae bb 66 3e b8 eb 06 bd
       -0.114821225 0.088522434 0.22532532 -0.032939643
0002e0 6e 52 5c be 86 87 23 be 05 37 5f be 38 ed 04 3d
       -0.2151582 -0.15969667 -0.21798332 0.032452792
0002f0 e8 21 cf 3d 14 88 ff bd 02 e6 81 be 2a 36 0d 3e
       0.10113889 -0.12477127 -0.25370795 0.13790193
000300 16 52 41 be e2 14 33 be c6 8a 79 3e d8 e2 41 3d
       -0.1887897 -0.17488435 0.24369344 0.047335476
000310 d5 73 8d be db 66 1f be 40 75 fe 3c b0 87 09 3e
       -0.27627435 -0.1556658 0.031061769 0.13430667
000320 43 c0 7f be 92 19 48 be 1e ca 4b be 20 0c 86 bd
       -0.24975686 -0.19541004 -0.1990132 -0.065452814
000330 2c ad 99 3d de af 70 3e 40 c3 f8 bd ba f3 14 3e
       0.07503733 0.23504588 -0.12146616 0.145461
000340 9a 4c ba bd 20 9f 69 3d 20 f6 5b bc c0 5d 92 be
       -0.09096642 0.05703652 -0.01342538 -0.2858715
000350 e1 6e 98 be cd 64 8e 3e 40 de e2 3d 00 da c2 bc
       -0.29772094 0.2781128 0.11077547 -0.023785591
000360 d4 0e 93 3d 78 11 14 3e 3d ef 81 be 26 b4 3a be
       0.071805626 0.14459789 -0.25377837 -0.18232784
000370 28 74 39 bd e0 b6 84 bc 71 ce 99 3e 50 81 90 3d
       -0.04527679 -0.016200483 0.30040315 0.070559144
000380 98 32 46 bd a1 06 28 be 18 6d 73 3d 2f c4 1d be
       -0.048388094 -0.16408779 0.05943021 -0.1540687
000390 c0 0b 6d 3d 7e 1e 52 3e 38 77 52 3d e0 89 73 3d
       0.057872534 0.20519444 0.051383227 0.05945766
0003a0 4a ae 7f 3e fb b7 82 3e 72 9b 7f 3e 80 e7 1c 3e
       0.2496883 0.2553099 0.24961641 0.15322685
0003b0 c6 21 38 3e 70 a7 bc 3d 52 81 9a be d2 ad 39 3e
       0.17981634 0.09211624 -0.3017679 0.18132713
0003c0 6a f9 8e be 84 bf a9 bd c6 c9 3c be 80 d1 5b 3d
       -0.27924663 -0.08288482 -0.18436345 0.05366659
0003d0 c0 37 96 bb e0 2e 4d bc e0 a9 45 3c 49 5b 2f be
       -0.0045842826 -0.012523383 0.012064427 -0.17124666
0003e0 a8 86 50 3d 32 1e 62 3e c4 56 c8 3d c4 c7 0a be
       0.05090967 0.22081831 0.09782174 -0.13552767
0003f0 f0 3e a1 3c 18 5c 2c be 96 8f 2b 3e f8 d6 89 3d
       0.019683331 -0.16832006 0.16753992 0.06730455

dense_1460/bias:0 f4 [32]
000000 00 00 00 00 00 00 00 00 00 00 00 00 00 00 00 00
       0.0 0.0 0.0 0.0
000010 00 00 00 00 00 00 00 00 00 00 00 00 00 00 00 00
       0.0 0.0 0.0 0.0
000020 00 00 00 00 00 00 00 00 00 00 00 00 00 00 00 00
       0.0 0.0 0.0 0.0
000030 00 00 00 00 00 00 00 00 00 00 00 00 00 00 00 00
       0.0 0.0 0.0 0.0
000040 00 00 00 00 00 00 00 00 00 00 00 00 00 00 00 00
       0.0 0.0 0.0 0.0
000050 00 00 00 00 00 00 00 00 00 00 00 00 00 00 00 00
       0.0 0.0 0.0 0.0
000060 00 00 00 00 00 00 00 00 00 00 00 00 00 00 00 00
       0.0 0.0 0.0 0.0
000070 00 00 00 00 00 00 00 00 00 00 00 00 00 00 00 00
       0.0 0.0 0.0 0.0

dense_1461/kernel:0 f4 [32, 32]
000000 26 0a 5f 3e 90 19 2d bd 9e 39 6c be 94 c7 f1 3d
       0.21781215 -0.042260706 -0.23068854 0.11805645
000010 d8 4f 3d be 02 72 15 be e7 a6 94 3e 23 4c 85 3e
       -0.18487489 -0.14594272 0.29033586 0.2603465
000020 5a 60 51 3e 56 1e 37 be 16 5d 22 3e 1a 3c 38 3e
       0.20446911 -0.17882666 0.15855822 0.17991677
000030 68 8d 6d 3d c0 15 8d bb 90 21 f7 bc 1e 8d 01 be
       0.057996184 -0.0043055713 -0.030167371 -0.12651488
000040 66 e6 6a be 48 76 17 bd ec 15 62 be 5d a2 90 be
       -0.22939453 -0.036978036 -0.22078675 -0.28248873
000050 cc 6b e1 bd 2e 0a a1 bd 08 6e 31 bd cd d1 22 be
       -0.11006889 -0.0786327 -0.043317825 -0.15900345
000060 40 6b 15 3c 10 7e 63 bd 78 61 ab 3d 94 56 88 be
       0.009119809 -0.055540144 0.083682 -0.26628554
000070 c2 01 68 be 68 ad d3 3d c9 1c 84 be 7d 7f 2d be
       -0.2265692 0.10335809 -0.2580321 -0.16943164
000080 fe 27 06 be 14 a1 1c 3e 0d ca 90 3e 63 f0 86 3e
       -0.13101193 0.15295821 0.28279153 0.26355276
000090 64 be e8 3d bc 85 b2 3d 80 5c 1a 3b b4 31 ce 3d
       0.11364439 0.08716914 0.002355367 0.10068074
0000a0 02 6a 4b be fe 94 77 be 00 5e 35 3d a1 ad 86 3e
       -0.19864658 -0.2417793 0.0442791 0.26304343
0000b0 b8 07 20 bd 23 84 97 3e f7 eb 85 3e 12 22 78 3e
       -0.03906986 0.29593 0.2615659 0.24231747
0000c0 de 73 99 be a2 d1 80 be f0 ed 64 be c5 73 93 3e
       -0.29971212 -0.25159937 -0.22356391 0.28799263
0000d0 56 a2 14 be c8 c8 30 bd 58 1d e5 bd b4 ec 85 3d
       -0.14515051 -0.04316023 -0.111872375 0.06539288
0000e0 13 38 33 be e2 53 03 3e aa 79 34 be ca be 55 3e
       -0.1750186 0.12824968 -0.17624536 0.20873562
0000f0 e0 4a 58 3d de cb 52 3e 08 ca 70 bd 24 f9 4a be
       0.05280578 0.20585582 -0.058786422 -0.19821602
000100 68 23 f2 3d 43 80 85 3e 0a 71 7a 3e ef f2 38 be
       0.118231595 0.26074418 0.24457183 -0.18061422
000110 50 57 16 3d e2 5c 99 be d0 84 04 3d 20 59 6d be
       0.03670436 -0.29953676 0.032353222 -0.2317853
000120 dc b7 f1 3d d4 24 ec 3d 00 a1 e9 3a 68 37 20 3d
       0.118026465 0.11530462 0.0017824471 0.03911534
000130 a4 14 aa 3d f2 f8 14 3e 72 19 6c 3e 56 42 15 3e
       0.08304718 0.1454809 0.23056582 0.14576086
000140 ba f6 6c be 06 6b 51 3e 20 47 af 3c 1a 6d 14 3e
       -0.23140994 0.20450982 0.02139622 0.14494744
000150 97 05 99 be 5c 4d 13 be e0 0b f3 3d fa 2b 95 be
       -0.29887077 -0.14384979 0.11867499 -0.29135114
000160 e0 2a 2a be d4 84 4a be cb d9 12 be 54 18 e5 3d
       -0.16617918 -0.19777232 -0.14340894 0.11186281
000170 00 30 a9 ba 00 5e 19 3c 00 68 8f b9 7e 6d 55 3e
       -0.0012907982 0.00936079 -0.00027352571 0.20842549
000180 52 77 6a 3e 80 fc 8f 3d 1e ae 49 3e ad 94 99 be
       0.2289708 0.070305824 0.19695327 -0.29996243
000190 50 71 b2 3c b6 da 40 be fd bb 92 3e a4 a0 5a be
       0.021782547 -0.18833432 0.2865905 -0.21350342
0001a0 59 01 92 3e 8e 4f e1 bd 10 e4 9f 3c 23 04 97 3e
       0.28516653 -0.11001502 0.019517928 0.29495344
0001b0 53 78 80 be c1 a5 96 3e f6 ce 9f bd cb 73 8f be
       -0.250918 0.29423335 -0.078031465 -0.2801803
0001c0 84 52 a1 bd 60 6f 20 bd 08 79 87 3d 80 9b c5 3c
       -0.07877067 -0.039168715 0.06614882 0.024122
0001d0 13 1a 28 be 99 42 9a be b8 17 8d 3d 80 1b c6 3d
       -0.16416197 -0.30128935 0.068892896 0.09673214
0001e0 2a 00 77 be 1f 48 34 be 3c c7 d9 bd 78 5a bb bd
       -0.24121156 -0.17605637 -0.10633704 -0.09148115
0001f0 c8 a7 2b bd 60 30 0a bd 22 e2 68 be 0a ea 6e 3e
       -0.041908056 -0.03373754 -0.22742513 0.23331466
000200 9a 37 93 be 06 4a 01 3e 50 e7 d6 3d 63 7b 81 be
       -0.28753358 0.12625894 0.10493338 -0.2528945
000210 ee f9 09 3e 90 9c 85 bd fd df 8a 3e 0a 8c 0c 3e
       0.13474247 -0.065240026 0.27124014 0.13725296
000220 8d 89 91 3e eb d3 70 be c0 52 55 bd e9 9f 81 3e
       0.28425255 -0.2351834 -0.05208087 0.25317314
000230 9f 09 51 be 1e a7 7f be 68 d8 43 be 1d c0 5b be
       -0.20413826 -0.24966094 -0.19125521 -0.21460004
000240 74 e4 86 3d e8 e5 2c bd ec b0 01 be b8 29 1f 3d
       0.06586543 -0.042211443 -0.12665147 0.038858145
000250 12 a8 52 3e 82 ec 3c be 26 c9 c6 bd 02 ca 98 be
       0.20571926 -0.18449596 -0.09706335 -0.2984162
000260 f2 b2 ab bd 72 01 62 3e bc 0b 80 be 5b d6 05 be
       -0.083837405 0.22070864 -0.25008953 -0.13070051
000270 38 93 d5 3d 00 6f 27 bd 90 da ab bd 4c d4 1f 3e
       0.104284704 -0.040877342 -0.08391297 0.15608329
000280 71 a3 9a 3e 16 79 41 be a8 c8 0f be 00 0a 54 3d
       0.3020282 -0.18893847 -0.14041388 0.05176735
000290 aa 9d 42 be a8 c8 0c bd e0 53 39 3d b6 21 49 3e
       -0.19005457 -0.03437105 0.045246005 0.19641766
0002a0 e3 a7 84 3e 9c 7a f0 bd a6 bb 9a be 3c b9 cf 3d
       0.25909337 -0.11742136 -0.3022129 0.101427525
0002b0 a8 0c 19 bd d0 e7 0c bd 19 b2 9c 3e 9c 8a 35 3e
       -0.037365586 -0.03440076 0.30604628 0.17728657
0002c0 bf c5 6f be f6 e3 52 be 0a 54 97 be a2 36 76 3e
       -0.23415278 -0.20594773 -0.29556304 0.24044278
0002d0 82 20 ae bd 41 d7 8c 3e 42 19 23 3e e2 81 7c be
       -0.08502294 0.27507976 0.15927604 -0.24658921
0002e0 3c 79 50 be 8a 0c 07 be 03 25 33 be a7 0a 32 be
       -0.20358747 -0.13188377 -0.17494588 -0.17386876
0002f0 f4 92 ca 3d d8 49 f8 3d 20 df d0 3c e0 38 10 be
       0.0989131 0.121234596 0.02549702 -0.14084196
000300 82 fd 20 3e 20 37 a6 3d 5c 80 30 3e e4 1e b9 bd
       0.15721706 0.08115983 0.17236465 -0.09039095
000310 a8 05 66 be 80 8e 16 bd 91 b0 94 be e0 81 e0 3d
       -0.22463095 -0.036756992 -0.2904096 0.10962272
000320 30 3d df 3c 8c 2e 3f 3e e8 96 99 be bd 85 95 3e
       0.027250856 0.186701 -0.29997945 0.29203597
000330 38 81 c1 3d 78 87 a4 3d c0 f6 84 be 19 42 81 3e
       0.09448475 0.08033651 -0.25969505 0.2524574
000340 fe 3f 16 3e 85 64 95 3e 07 14 5e be 0a a6 41 be
       0.14672849 0.29178253 -0.21687327 -0.18910995
000350 e8 78 23 3d b8 04 61 3d aa 42 5a 3e 6e 8d d8 bd
       0.039910227 0.05493614 0.21314493 -0.105738506
000360 da ca fe bd 8e 43 70 3e 2c c4 72 be 33 14 13 be
       -0.124410346 0.2346327 -0.23707646 -0.14363174
000370 aa 56 a3 bd 07 ba 97 3e 78 d0 16 3d 82 a1 c7 bd
       -0.07975514 0.29634115 0.036819905 -0.09747602
000380 e2 05 63 3e f6 4d 8b be 82 1c 7f 3e 38 a4 94 3d
       0.22170213 -0.27207917 0.24913219 0.07257885
000390 e0 63 4c be 18 dc 01 bd 68 4b 0f 3d f8 28 89 be
       -0.19959974 -0.03170404 0.034984022 -0.2678907
0003a0 b0 0d 3e bd c6 f0 29 3e 58 36 23 3e 58 66 bc 3d
       -0.046399772 0.16595754 0.15938699 0.09199208
0003b0 c8 16 6c 3d 8b d5 94 3e db b4 1d be 68 14 18 3d
       0.057638913 0.2906917 -0.15401022 0.037128836
0003c0 36 f8 7c 3e 1e 35 6b 3e 98 0a 64 be 05 bd 8a be
       0.2470406 0.22969481 -0.22269666 -0.27097335
0003d0 96 d8 3a be f0 84 90 3c 7e 57 18 3e 0a df 25 3e
       -0.18246683 0.017641515 0.14877126 0.16198364
0003e0 ad 42 35 be 66 bf f5 bd 00 34 f6 3c 8a 99 69 be
       -0.17701216 -0.11999397 0.030054092 -0.22812477
0003f0 c6 d6 98 be 10 3a 8c bc fc 76 91 3d c0 8e fb bc
       -0.2985136 -0.01711753 0.071027726 -0.030707717

dense_1461/bias:0 f4 [32]
000000 00 00 00 00 00 00 00 00 00 00 00 00 00 00 00 00
       0.0 0.0 0.0 0.0
000010 00 00 00 00 00 00 00 00 00 00 00 00 00 00 00 00
       0.0 0.0 0.0 0.0
000020 00 00 00 00 00 00 00 00 00 00 00 00 00 00 00 00
       0.0 0.0 0.0 0.0
000030 00 00 00 00 00 00 00 00 00 00 00 00 00 00 00 00
       0.0 0.0 0.0 0.0
000040 00 00 00 00 00 00 00 00 00 00 00 00 00 00 00 00
       0.0 0.0 0.0 0.0
000050 00 00 00 00 00 00 00 00 00 00 00 00 00 00 00 00
       0.0 0.0 0.0 0.0
000060 00 00 00 00 00 00 00 00 00 00 00 00 00 00 00 00
       0.0 0.0 0.0 0.0
000070 00 00 00 00 00 00 00 00 00 00 00 00 00 00 00 00
       0.0 0.0 0.0 0.0
