pooling.onnx (onnx, 217824 bytes, 11 tensors)

output_2/Const:0 f4 [51]
000000 b0 be f1 bf 34 e0 91 bf 1d 09 97 be 1e 74 94 bd
       -1.8886318 -1.1396546 -0.2949914 -0.0724871
000010 55 c9 0a c0 67 27 35 c0 30 3a 09 be e4 20 8c 40
       -2.1685383 -2.83053 -0.13401103 4.379015
000020 ac 52 9d 3f f8 50 3d c0 7b be e7 be fd 91 8b bf
       1.2290854 -2.958067 -0.45262513 -1.0903927
000030 63 39 20 c0 0d 19 d9 be 98 cb b5 be 3d 6d 3a bb
       -2.5035026 -0.42401925 -0.35506892 -0.0028446459
000040 b5 80 d9 c0 11 da c2 be 56 06 bd bf 48 f8 7b c0
       -6.7969613 -0.38056996 -1.4767559 -3.937029
000050 f1 d4 85 40 d3 51 87 3f 53 d7 6e bf fd e1 36 c0
       4.182244 1.0571846 -0.9329731 -2.8575432
000060 a9 25 c8 3f 8d 60 0a c0 99 f8 cb bf bc a7 b7 bf
       1.5636493 -2.162143 -1.5935241 -1.4348063
000070 fc 9f 64 c0 3f 09 2f bf 49 e2 00 be e0 65 99 c0
       -3.5722647 -0.68373483 -0.12586321 -4.793686
000080 51 60 2d 3e 80 22 51 bf 95 54 7c bd bb cf 09 3d
       0.16931273 -0.8169327 -0.0616041 0.033645373
000090 b5 d9 ac 3f 2d 2e 8f bf 98 a4 83 bf de ad 08 40
       1.3503939 -1.1185967 -1.0284605 2.135612
0000a0 20 47 95 bf 4a 3f 01 c0 07 8e d8 bf d8 65 08 c0
       -1.1662331 -2.0194879 -1.6918343 -2.131216
0000b0 d9 ad 48 bf c7 a0 8b bf 66 60 3d c0 11 85 ef be
       -0.7839027 -1.090844 -2.9590087 -0.4678121
0000c0 13 d7 da 3f 74 53 20 40 33 90 82 bf
       1.7096885 2.5050936 -1.0200256

conv2d_15/kernel:0 f4 [51, 64, 3, 3]
000000 c2 d5 9d bd 35 13 8a 3e f0 b8 94 bc 0e c1 38 be
       -0.07706787 0.2696778 -0.018154591 -0.18042395
000010 9d 90 bd ba c6 6a 94 3d 57 86 0c bd ca a8 b6 3d
       -0.0014462654 0.07246928 -0.034307804 0.08918913
000020 9c ee 02 3d d6 f0 8f bd 64 e6 cf bd 0c 62 e1 bc
       0.031965837 -0.07028358 -0.101513654 -0.027512573
000030 48 90 1e 3e 31 1b 23 be 5e d2 d0 3d 29 27 45 3e
       0.15484726 -0.15928341 0.10196374 0.1925322
000040 9a 73 a4 3d 2e 65 29 bd 93 96 27 bd d8 56 33 be
       0.08029862 -0.041356258 -0.040915083 -0.17513597
000050 26 dd 8f 3d 76 5f 72 3d a3 f1 92 3d f0 98 0f 3c
       0.070246026 0.05917307 0.07174995 0.0087644905
000060 06 5f a5 be c6 58 38 bd 90 0e dd bb 5c 28 80 3d
       -0.3229906 -0.045006536 -0.0067461208 0.06257698
000070 35 5a 5e bd f0 fd c6 bc 6a 4b 6a 3e 06 8e 61 3c
       -0.054285247 -0.024291009 0.2288033 0.013766771
000080 dc 32 aa bc b7 49 5d 3b 31 0f 28 be 60 d9 55 bc
       -0.020776205 0.0033765861 -0.16412045 -0.0130523145
000090 e9 0b 45 be 32 c1 36 be 70 e8 cb 3b 46 ec b3 bd
       -0.19242825 -0.17847136 0.006222777 -0.087853
0000a0 b5 f9 b8 3d ac 0d c3 bc c3 09 c8 bd 2d 9f ce bb
       0.09032003 -0.02381023 -0.09767487 -0.0063055963
0000b0 08 5b 1b bc 7b ef 0e bd 44 3a 65 3e 22 ca b3 3d
       -0.009482153 -0.034896355 0.22385508 0.08778788
0000c0 7d 45 6c 3e 0e e0 a4 bc f0 fb b2 3b 55 20 d0 3d
       0.23073383 -0.020126369 0.005462162 0.10162417
0000d0 3e b3 b6 bc a4 f9 38 3d eb 65 b4 3d 12 64 e6 bd
       -0.022302266 0.04515995 0.08808502 -0.11249556
0000e0 08 05 d0 bd e2 95 31 bd 7d 78 fc bc 7c 25 2b 3d
       -0.1015721 -0.04335583 -0.030819172 0.041783795
0000f0 29 b2 8e bd 3d d1 98 3d b6 6c cd 3d a8 6a b5 bc
       -0.06967575 0.07461784 0.100305006 -0.022145584
000100 3e b5 ae bd 40 4a 79 3d 97 b8 07 3d 4a a2 ca 3d
       -0.08530663 0.060861826 0.033135023 0.098942354
000110 0c 91 04 3d 6c 8b 2d 3c 6d f0 9d bd b8 fd 5e bd
       0.03236489 0.010592323 -0.07711873 -0.054441184
000120 2f 1b af 3d aa de 0a 3e 68 bf 3a bd b3 b9 06 be
       0.08550107 0.13561502 -0.045592695 -0.13156776
000130 4a eb ee bd 53 2a 94 bd a1 1a ba be 28 1c 73 3d
       -0.116659716 -0.07234635 -0.3634844 0.059353024
000140 80 19 de 3c 29 69 80 bd e2 3b 93 bc 70 de a6 bc
       0.027111769 -0.06270058 -0.01797289 -0.020369738
000150 8d 1e d8 bd eb 81 3a 3e 78 43 3f bc aa ec c6 3d
       -0.10552702 0.18213622 -0.011673801 0.09713109
000160 48 e8 71 3d 2c af 3b 3d 27 84 9a bd ad f9 a8 be
       0.05905941 0.045821354 -0.07544737 -0.33002988
000170 d0 ee 0e bd 55 cb 88 bc 1c 5c c6 bd ca b1 ae bd
       -0.034895718 -0.016698519 -0.09685537 -0.08530004
000180 5d f7 27 3d f0 ea 8e 3c 4e 22 72 bd 39 87 be 3d
       0.04100739 0.017446011 -0.059114747 0.093031354
000190 66 01 0f be 00 d3 11 bb 25 fb dd 3d 8d 34 d1 bc
       -0.13965377 -0.002225101 0.10838918 -0.025537753
0001a0 78 78 5e 3c 44 c7 11 be 60 1f 84 be 4a 28 a4 bd
       0.013578527 -0.1423617 -0.25805187 -0.08015497
0001b0 f7 36 84 bd 1f 9d 98 3d 38 a8 9e 3d 68 84 f7 3d
       -0.06455796 0.074518435 0.07746929 0.12085801
0001c0 c1 f9 eb 3c 58 30 eb 3c 9e 95 b9 3d 0d b5 5c 3d
       0.028805615 0.028709576 0.0906174 0.0538836
0001d0 04 ae 09 bd ff 5b 18 3e fe 75 af 3d 6b 0d c5 bd
       -0.03361322 0.14878844 0.08567427 -0.096217
0001e0 3c 3b 4f 3d 86 62 12 be 40 4b 9a 3b 3a cd 47 bc
       0.0505936 -0.14295396 0.0047086775 -0.012194926
0001f0 8a 13 3f 3d 8c fb cd bc 7c 8a a2 be 74 f0 8f bc
       0.046649493 -0.025144361 -0.3174628 -0.017570712
000200 95 f0 98 bd ad 70 5c 3e 22 bb 27 be 31 26 a2 bd
       -0.074677624 0.21527357 -0.16379979 -0.07917441
000210 d5 25 fc bd fb 9b 83 bd a8 e2 2e 3d 3b a2 a7 3d
       -0.123119034 -0.06426235 0.042696625 0.0818524
000220 dc 22 a7 be 43 13 a1 bd 2b 87 9c 3d 87 6c db bd
       -0.32643783 -0.07865002 0.07642969 -0.10714059
000230 b2 80 14 bd a4 9a 57 bc 5d 2b ec 3b 50 d4 bb 3d
       -0.036255546 -0.013159428 0.0072073177 0.09171355
000240 da 88 62 be ae 21 f1 be 50 a1 95 bb 10 ac a9 3d
       -0.22122517 -0.47096008 -0.004566349 0.082847714
000250 c8 98 18 3d fc 93 40 3d 15 39 58 be 73 05 38 be
       0.03725508 0.04701613 -0.21115525 -0.17970829
000260 ad a6 b3 bd b6 d9 a0 3e 5d 5b c7 bd 6b a3 c3 bd
       -0.08772025 0.314161 -0.09734223 -0.09552654
000270 1a b2 be 3d 38 11 9c 3c 6e 0b 89 bd 0d e9 23 bf
       0.09311314 0.01905118 -0.06691633 -0.6402748
000280 df a6 57 3e 68 08 0f bd 07 ed 97 3c 5a f5 68 3c
       0.2105975 -0.034920126 0.01854564 0.014218653
000290 ea b9 a0 3d 0c 24 a8 3d 8c 3c 37 be 64 30 ad bd
       0.0784796 0.082100004 -0.1789419 -0.084564954
0002a0 01 a7 db 3c 0d b4 4c 3d 78 ab 57 3d c5 c5 46 3d
       0.026813032 0.049976397 0.05265376 0.04852845
0002b0 10 cf 56 3d 98 09 c5 3c 97 75 83 3c 65 ff 33 bd
       0.052443564 0.024052426 0.016047282 -0.043944735
0002c0 70 be 4e 3d 7a 67 6a 3d 16 12 40 bc 76 f1 2b bd
       0.050474584 0.05722759 -0.011723062 -0.041978322
0002d0 43 e8 4c 3d bb 19 35 be 40 cc 51 3d bc e6 10 bd
       0.05002619 -0.17685597 0.05122018 -0.035376295
0002e0 29 f3 e6 bd c4 a3 8e bc fb e2 5a 3d 2b b3 7e bd
       -0.11276848 -0.017412074 0.05343912 -0.062182587
0002f0 3a 61 9b 3d 23 a2 e3 3d 9b c6 d9 3d fc b6 43 3d
       0.07586904 0.111149095 0.10633584 0.04778193
000300 61 96 a5 3d 52 ae 1e 3e 0c 95 f9 bc e0 ea 31 3d
       0.08085323 0.15496185 -0.030466579 0.043436885
000310 f6 0e 09 3a 00 bd ab ba 23 77 d5 bd 9f 5b 79 3c
       0.00052283646 -0.0013102591 -0.10423114 0.015219598
000320 00 56 b3 39 70 a8 13 be 98 ee 8b 3d 00 eb 8e 3b
       0.00034205616 -0.14419723 0.068326175 0.0043615103
000330 b7 81 e9 3d 3d a1 7f 3e 4e b2 89 bd 62 e0 22 3d
       0.11401694 0.24963851 -0.06723462 0.03976477
000340 69 d5 de 3d f8 d6 dd bc 08 cf fc 3d c5 62 ed bc
       0.108805485 -0.027080044 0.123441756 -0.028977761
000350 32 51 9e 3d b4 83 16 3e 5b 38 d5 3c 7e aa a9 3d
       0.077303305 0.14698678 0.026027849 0.08284472
000360 a5 f0 2d 3c a9 24 62 3e 12 fe cd 3d 23 d8 97 bd
       0.010616456 0.22084297 0.10058226 -0.07414272
000370 fc f5 8a bd 6c 3c 9f 3d 25 2f 2c bd d4 1a 33 bd
       -0.06785199 0.077751964 -0.042037148 -0.043726757
000380 20 f4 6e bc d4 38 e9 bc c3 af d7 3d 74 09 bb bc
       -0.014584571 -0.02846948 0.10531571 -0.022831656
000390 a1 19 69 bd 18 98 28 be 26 9e a7 3d 6e c4 87 be
       -0.056909207 -0.16464269 0.08184461 -0.2651705
0003a0 f6 0d aa 3d 52 32 c6 3d e6 3e 9e 3c 25 54 8e bd
       0.08303444 0.096775666 0.019317102 -0.06949643
0003b0 f0 fe 64 bc b4 21 89 3e 38 df 55 3b 30 a8 2a 3c
       -0.013976797 0.26783526 0.003263427 0.010416076
0003c0 6d 67 7d be 43 30 4e 3d 5e cc 4d bd 76 95 e0 3d
       -0.24746485 0.050338995 -0.050243728 0.109660074
0003d0 85 52 20 3e c2 18 58 bd c9 7a bd 3d 9d f9 92 3c
       0.15656479 -0.052757986 0.09251935 0.01794129
0003e0 e8 cc 95 3d df 1a 01 ba 2f 16 02 bd 31 c0 34 bd
       0.073144734 -0.00049249636 -0.031759437 -0.0441286
0003f0 03 ff 66 3e 7f 69 91 bc 90 bf fe 3c a5 05 d6 bd
       0.22558217 -0.0177505 0.031097203 -0.10450295

conv2d_15/bias:0 f4 [51]
000000 ad 7d b0 bb a1 b2 db 3c e5 8f cf 3b 00 2a 37 bc
       -0.0053860755 0.026818575 0.0063342922 -0.011179447
000010 7f 66 03 bd 57 5f 6b be 60 88 83 bd c8 4b 06 3c
       -0.03208017 -0.22985588 -0.06422496 0.008196779
000020 89 5f 21 bd 9d 02 9c bd 7f f8 e0 bd 60 21 bb bd
       -0.03939775 -0.07617686 -0.10984897 -0.09137225
000030 0e c8 39 be 84 05 08 bd e8 57 a7 bd e1 18 a0 bd
       -0.18142721 -0.033208385 -0.08171064 -0.07817245
000040 4b 47 0e 3d 1e b1 ea bc 0c fd fa 39 0a bf 09 3d
       0.03473596 -0.02864891 0.0004787225 0.033629455
000050 38 5f 42 bc 8f e0 a8 3c 8f ab ad bd f6 3e e7 bd
       -0.011863522 0.02061489 -0.08479988 -0.11291306
000060 c0 30 9b 3b 65 b4 21 be 53 8a 95 bd 42 56 a4 bd
       0.004736036 -0.15791471 -0.07301774 -0.08024265
000070 c5 ce 42 3d a1 7a f2 bc e9 5d 50 bd 28 89 c0 bc
       0.047560472 -0.02959949 -0.05087081 -0.023502901
000080 d8 ef 58 bd b3 08 6a bd 01 5a dc bb 3d 93 42 3d
       -0.052963108 -0.057137202 -0.0067245965 0.0475037
000090 83 d8 fc bd ee 97 29 3c 84 0d 42 bd f8 d4 09 be
       -0.12345984 0.010351164 -0.04737617 -0.13460147
0000a0 49 27 65 3c 5c be cc 3b 32 44 92 bd 76 21 fe 3c
       0.013986417 0.0062482785 -0.071419135 0.031021815
0000b0 7b 7c 84 bd bf 2c 08 be 2a f8 89 bb 24 7a 7e bb
       -0.06469055 -0.1329832 -0.0042104917 -0.0038830126
0000c0 0e 23 07 bd 5e 53 81 bd e2 ed 04 bb
       -0.032992415 -0.06314729 -0.002028339

conv2d_9/kernel:0 f4 [64, 32, 3, 3]
000000 9b 6d 06 3e f0 32 00 bb a4 75 82 be 68 bd 2b bd
       0.13127749 -0.001956161 -0.25480378 -0.04192868
000010 56 2b 88 be f7 22 d3 3d f8 17 0e bb 9c fb 48 3d
       -0.26595563 0.103094034 -0.0021681767 0.04906808
000020 89 2c 91 3e c3 d4 84 3e ff 86 78 3d 1a 0c de 3d
       0.2835429 0.25943574 0.060675617 0.10842152
000030 53 55 95 bd 11 cb 61 bd 5c 70 2f be 92 c0 44 3e
       -0.07291665 -0.0551253 -0.17132705 0.19214085
000040 22 46 47 3e cd 84 98 bc 30 2a c4 be 0b f5 b3 be
       0.19460347 -0.018618012 -0.38313437 -0.3514789
000050 af 2c 96 be ac 6a 36 bc 54 db 2f 3e 79 a3 8f be
       -0.29330966 -0.011133831 0.17173511 -0.28054407
000060 52 82 1a be 16 ac 59 3e d1 f0 25 3e cd 57 22 3d
       -0.15088776 0.21257052 0.16205145 0.039634515
000070 58 4d 8a bc 94 f0 83 be 35 06 09 3e 00 64 99 3d
       -0.016882583 -0.25769484 0.13381274 0.074897766
000080 4a 28 d4 3d e3 f8 e5 bd 2a 94 c5 bc 49 37 af 3d
       0.10359247 -0.11229112 -0.024118502 0.08555467
000090 4d a8 dc bd ba 6e d1 3d 6c ba b0 3d fb 1f 02 3c
       -0.10774288 0.102261975 0.08629307 0.007942195
0000a0 9b 0d c9 be a8 33 03 be 91 93 09 bc fd db a6 bd
       -0.39268193 -0.12812674 -0.008396999 -0.08147428
0000b0 63 37 2d bd 77 92 a6 3c 1d 31 37 3d 95 fb 50 bb
       -0.04228915 0.020333512 0.044724572 -0.0031888236
0000c0 99 d1 1b be 4d 1d 2d be 02 7f 20 3e 90 97 85 3d
       -0.15216674 -0.16905709 0.1567345 0.06523049
0000d0 d4 5a ac bd 83 b0 66 3d 97 da 7f 3e 1b dd e1 3c
       -0.084157616 0.05632068 0.24985729 0.027571252
0000e0 e7 70 94 bd 1d 59 74 3d 59 18 b8 be d3 73 25 3e
       -0.07248097 0.059655298 -0.35956076 0.16157465
0000f0 df b6 3d bc 1e cd 5c be 82 1f 8f be 92 6f 95 be
       -0.011579244 -0.21562621 -0.27953726 -0.29186684
000100 5b 0d 18 3b 0b 72 1b bd 52 5a df 3c 1b 7f 0c 3d
       0.002320132 -0.037950557 0.027264748 0.034300905
000110 a5 71 cd 3d 19 6c 03 3e 7a 2c 7e bd 88 58 3b 3e
       0.100314416 0.12834205 -0.062054135 0.1829549
000120 37 37 74 3d 82 c3 9e 3e 31 24 65 3c 63 f0 f5 3d
       0.05962297 0.31008536 0.0139856795 0.12008741
000130 09 5e 7c 3e c3 10 80 be ee fc cb 3d 47 38 2f 3e
       0.24645247 -0.25012788 0.09960352 0.17111312
000140 30 36 8a bd 3e 02 15 be ab aa 2c bc 90 da 9d bd
       -0.06748617 -0.14551637 -0.010538737 -0.07707703
000150 60 72 ba 3d 13 3b 2a bc 85 1c 1f be d0 c6 24 be
       0.091038465 -0.010390061 -0.15538223 -0.16091466
000160 9f 52 04 be 44 2b 9c be 50 bc 11 3c d5 1e 31 3d
       -0.12922142 -0.3050176 0.008894995 0.043242294
000170 15 b7 ff 3d 27 02 82 3e 22 7a b1 bd 26 93 59 bd
       0.12486092 0.25392267 -0.08665873 -0.053118847
000180 c8 df 82 bd 0f 7f 53 be e4 00 06 3c ae 84 d0 bd
       -0.06390339 -0.20653938 0.008178923 -0.10181557
000190 2b ba 5c 3d 2f 88 5a be fa 69 41 3e fa ee 64 3d
       0.05388848 -0.21341012 0.18888083 0.05589197
0001a0 fc ec 41 bd 97 e7 6d bd c9 89 c0 bd 26 28 62 3e
       -0.047345147 -0.05808219 -0.094012804 0.22085628
0001b0 7f 2d a8 be 76 b4 61 3d 98 1d 03 3d c7 73 a3 3d
       -0.3284721 0.05510374 0.032010645 0.07981067
0001c0 ac 6a c5 bc 08 9f 25 3c ba 74 e2 3d a9 04 81 be
       -0.024098717 0.010108717 0.1105742 -0.25198868
0001d0 51 11 0a 3e 3c 00 98 be 0e 6b fd 3d 21 fd a1 3e
       0.13483168 -0.2968768 0.12373935 0.31638435
0001e0 74 cd 3b 3e f5 70 82 bd d9 5a c2 bd 7d 25 92 bd
       0.18340093 -0.06369201 -0.09489984 -0.071360566
0001f0 33 81 85 3e 54 d4 ca be d8 01 8c be e2 50 3f 3e
       0.26075134 -0.39615119 -0.27345157 0.18683198
000200 87 46 8a be e9 5c 33 3c 4c 02 7d 3d 4b ae 7e bc
       -0.27006933 0.0109474445 0.06176977 -0.015544484
000210 b5 84 b9 be 1b 12 60 3d 2c 15 26 3e 7d e2 c7 be
       -0.3623406 0.054704767 0.16219014 -0.39039984
000220 95 7d 77 3c b5 e5 3f 3e 49 42 f1 bd a2 8f 00 3c
       0.015105625 0.1873997 -0.11780221 0.007846745
000230 b9 6c 2b be 1a b6 1a 3c 29 fb 02 be 33 e4 3b be
       -0.16740693 0.00944283 -0.12791122 -0.1834877
000240 f3 d8 47 be e5 c7 97 be 26 bf e6 bd 11 ea e7 be
       -0.19516353 -0.29644695 -0.112669274 -0.45295766
000250 5f 68 bc 3d 10 95 e0 be e5 ec 2b bd 85 a3 3c bd
       0.09199595 -0.43863726 -0.041973967 -0.046054382
000260 01 81 5b 3c 3e 9d 24 3e fb 8f 0b 3e 75 08 0a 3e
       0.013397456 0.16075608 0.13629143 0.13479789
000270 d1 aa d8 bd 03 45 47 3d 8f 35 53 be 87 97 ac bd
       -0.10579456 0.0486498 -0.206259 -0.08427339
000280 c4 6f 5f be fd d1 dc bd 3e 2c 15 bf f0 99 bc be
       -0.21819979 -0.107822396 -0.58270633 -0.36836195
000290 9f 3c 3a be 6e 0a 81 bd 71 60 28 be 0d 40 27 be
       -0.18187188 -0.063008174 -0.1644304 -0.16333027
0002a0 e1 3a f7 bd ac 16 26 3e de 2c 14 3e 9f 5c 7b be
       -0.12071777 0.16219586 0.1447024 -0.24547051
0002b0 d3 7a 1d 3d c1 54 48 3c b7 fe be be 35 1c 1a be
       0.038447212 0.012227238 -0.37303707 -0.15049823
0002c0 15 c1 10 3e 42 b8 5a be c4 cd 8a 3e 34 92 3f bd
       0.14136155 -0.21359351 0.27110112 -0.04677029
0002d0 9f a8 5a 3e 8f a8 5c 3d 52 85 11 3b 51 8f 2d 3e
       0.21353386 0.053871688 0.002220471 0.16949202
0002e0 5a 4d d6 3c 2e 04 39 3c 02 5e 04 3e 44 a8 4d 3e
       0.026159931 0.0112925 0.12926486 0.2008372
0002f0 cc bf 31 3d 45 54 e0 bd 49 3c 47 be b7 5c f8 3b
       0.043395802 -0.10953573 -0.1945659 0.007579412
000300 87 8a 03 3d 09 33 e6 bc ef 9e ab be 1e 76 b2 3d
       0.03211453 -0.028100507 -0.33519694 0.08713935
000310 83 39 6b 3c e0 18 5e be fa 19 2c bd ae 67 e9 3d
       0.014356974 -0.21689177 -0.04201696 0.113967285
000320 b7 5d 8c 3e 98 e8 83 be 20 9d ec 3c 50 bf c2 3d
       0.2741525 -0.25763392 0.028883517 0.09509146
000330 cb 01 30 be 30 ed cc be 99 a1 18 be eb 5b 32 be
       -0.17188184 -0.4002471 -0.14905395 -0.17417876
000340 e6 91 8d bc c9 ff 2e bd 26 f0 8e bd 8d 5d 44 be
       -0.017281484 -0.042724404 -0.069793984 -0.19176312
000350 d4 5c 2b 3e 0d 4f 2e 3d a1 b1 aa bd 63 ed db bd
       0.1673463 0.042555857 -0.08334661 -0.10738637
000360 98 9c a9 3e 89 d6 da 3d bf 30 de 3d 90 c0 fc bc
       0.33127284 0.106854506 0.10849141 -0.03085354
000370 f2 e5 e9 3d 5f bc a9 3d 48 1e cf 3c 9b 77 48 be
       0.11420812 0.08287882 0.025282994 -0.19576876
000380 c1 ca b2 3d 4e d2 0d 3e 51 c8 80 3d 2c 9b 2c be
       0.087300785 0.13849756 0.06288207 -0.16856068
000390 76 79 13 be 7b 49 34 3e 0f 3a 40 3d df c5 1e 3e
       -0.14401802 0.17606156 0.04693037 0.1550517
0003a0 3a a6 3e be 1a 63 1a bd 13 c2 a4 be 55 a1 95 3e
       -0.18618098 -0.037692167 -0.32179317 0.2922465
0003b0 58 66 c9 bc 96 97 3e 3e b4 fe a9 bd 4d f1 63 be
       -0.024584934 0.18612513 -0.08300534 -0.22260018
0003c0 13 fb 00 be fa 8c 96 be 24 73 e8 bd 02 96 93 3d
       -0.12595777 -0.29404432 -0.11350086 0.07206346
0003d0 cd db 81 bd eb 48 14 bd 76 62 92 be 06 1b 06 3d
       -0.06340752 -0.036202352 -0.28590745 0.032740615
0003e0 df 9c 28 bd 3e 1e ba bb 14 9a 42 3d 14 87 c1 bc
       -0.04116523 -0.0056798747 0.04751022 -0.02362398
0003f0 40 7c ba bd ae bc 3a bd 1f f8 9a be 26 b9 27 be
       -0.0910573 -0.045590095 -0.30267426 -0.16379222

conv2d_9/bias:0 f4 [64]
000000 09 89 01 3c 83 bc a2 bd ed 99 9a 3c c9 e7 64 bd
       0.007906207 -0.07946112 0.018872226 -0.05588511
000010 a7 bf 13 bd a2 ba 22 bd 54 ec 80 bd be af 07 bd
       -0.036071446 -0.03972877 -0.06295076 -0.033126585
000020 ef 6e 0b 3d 43 31 2e 3d 64 c1 b7 bc 34 94 e6 3c
       0.03404134 0.04252745 -0.022431083 0.02814684
000030 c5 0c d3 bd 98 ae ca 3c 68 f5 1d bd 15 53 0c bb
       -0.1030517 0.024741456 -0.038564116 -0.0021411825
000040 d2 34 86 bd 1b 69 d6 bc 0e 32 42 bd 83 56 ba bd
       -0.065530434 -0.026173165 -0.047411017 -0.09098532
000050 bd b0 75 bd f8 92 ed 3b c0 9d 37 bd 82 d6 31 bd
       -0.059983004 0.007250186 -0.044828176 -0.04341746
000060 78 14 5a bd 13 96 81 bd df 2c 34 3d b2 51 b9 bd
       -0.053242177 -0.063274525 0.043988105 -0.09048785
000070 e9 59 e4 bc 17 44 92 3b cc a6 1a bc d8 08 5b bb
       -0.027874904 0.0044636833 -0.009439182 -0.003342202
000080 cd 4e 2e bd ca ad 42 3d 4b d9 43 be a7 8d 95 bd
       -0.04255562 0.04752902 -0.1912586 -0.07302409
000090 2c a8 51 bd 0b bb 19 bc 2c c7 aa bc 5a 34 b4 bc
       -0.05118577 -0.009382973 -0.020846926 -0.02199762
0000a0 72 cd 68 3c 89 a4 09 bd 69 ac 72 3d 8a 14 1c 3b
       0.014209138 -0.03360418 0.059246454 0.0023815953
0000b0 4e bb a0 bc c6 68 09 bd 29 86 90 3d 1e 72 9e 3c
       -0.019620564 -0.033547185 0.07056839 0.019341525
0000c0 ba a1 aa bc b5 bf 58 bb d6 cd b2 3c 41 c2 17 3b
       -0.02082907 -0.003307325 0.021826666 0.0023156556
0000d0 a3 38 76 3d a8 60 ad bd a8 c1 3a bd 0b da 8f bb
       0.060112607 -0.08465701 -0.04559484 -0.0043900064
0000e0 28 cb 19 3d 14 c2 b4 bc 6b 81 2a bd 73 4b c4 3b
       0.03754726 -0.0220652 -0.04162733 0.0059904396
0000f0 22 64 05 3c 0f 4d 77 bd eb 97 83 3d 97 e8 0f bd
       0.008141549 -0.060376223 0.064254604 -0.035133924

conv2d_8/kernel:0 f4 [32, 16, 3, 3]
000000 cd 10 69 3e f1 a9 9c 3e 9e 62 f6 3a 47 82 b8 bd
       0.22760315 0.30598405 0.0018797701 -0.090092234
000010 fe 16 5e 3e da 16 16 3e f0 f3 da bd b2 37 39 be
       0.21688458 0.14657155 -0.10691059 -0.18087652
000020 68 8b c6 3d 0c d2 ba 3d c4 83 11 be 9e 0b 53 3e
       0.096945584 0.091220945 -0.14210421 0.206099
000030 14 65 86 be 05 c9 55 3e 9a 9b b9 3d f4 ba ba be
       -0.2624899 0.20877464 0.09062882 -0.3647076
000040 1e 42 8d be 88 e2 44 3d 6d 16 15 3e 3a 8e db 3c
       -0.27589506 0.0480676 0.14559336 0.026801217
000050 66 8f 3a be 89 8e be 3d bf 3f cb be ab a3 93 be
       -0.18218765 0.0930453 -0.39697072 -0.28835806
000060 c6 93 b2 3d 2b 61 cc 3d 79 44 e4 bd c9 a3 09 bf
       0.08719592 0.09979471 -0.111458726 -0.5376554
000070 5f e1 b1 be 53 ef 1e 3e 32 bb 69 bd c8 35 ee be
       -0.34742257 0.15520982 -0.05706329 -0.46525407
000080 5c 93 ac 3d e5 83 7c bd 28 e9 77 bc 7d 87 08 be
       0.08426544 -0.061649222 -0.015131272 -0.13332935
000090 68 68 30 3d 0f 93 1c be 94 3f ed be 75 90 05 3e
       0.04306832 -0.15290473 -0.4633757 0.13043387
0000a0 3b 66 10 3e 14 b4 ee bd a8 af 79 be b8 3c 80 be
       0.14101498 -0.11655441 -0.24383414 -0.25046325
0000b0 ee 68 f9 bc 04 84 c7 3e 2e a6 d5 be 11 31 79 be
       -0.030445542 0.38967907 -0.41728348 -0.24335124
0000c0 dd 3a 99 3e 31 15 f2 bd 04 e6 b0 3d 5a 74 b1 be
       0.29927722 -0.11820448 0.08637622 -0.34659082
0000d0 b9 f6 59 be 8a 03 be 3e d7 15 bf 3d b8 95 ab be
       -0.21285523 0.37112075 0.093303375 -0.33512664
0000e0 c7 79 6f 3e 07 5e a2 bd e6 8c 27 be 94 a2 e0 3d
       0.23386298 -0.079280905 -0.16362342 0.10968509
0000f0 9c ce 4a 3b e4 e9 07 be 8b 0f 12 bd 0c 33 e0 3d
       0.0030945903 -0.13272816 -0.035659354 0.109472364
000100 48 4f c8 3d aa 2d e2 bd 40 d2 be bd 99 75 0f bf
       0.09780747 -0.11043866 -0.09317446 -0.56038815
000110 96 23 84 bf ba 2e 22 3d e5 0c af 3d a9 d0 1b be
       -1.032336 0.039595343 0.08547381 -0.15216316
000120 aa e1 66 3d d1 a8 88 be 71 7e fe be b0 53 81 bd
       0.056367554 -0.26691297 -0.49705842 -0.0631479
000130 84 f8 33 bd ea 57 94 bd 96 7e 66 3e 43 74 de bd
       -0.043938175 -0.07243331 0.22509226 -0.10862019
000140 37 be 81 3e e3 94 39 3e 26 4d c3 3d 02 32 fd 3d
       0.25340435 0.18123202 0.09536199 0.12363054
000150 3a 21 87 3d 13 06 93 bd 58 6f 72 3e 7c fa 66 3d
       0.06598134 -0.07178893 0.23675287 0.056391224
000160 ef 89 d0 bd 57 63 69 bc ff e4 24 3e 8b 9b db 3e
       -0.10182559 -0.014244876 0.1610298 0.42892107
000170 cc 29 95 bd bb f5 47 3e 4c c9 57 3e e7 eb 54 3e
       -0.07283363 0.19527332 0.21072882 0.20793115
000180 d2 e6 a5 be c5 75 5d bc a3 21 8f 3e b0 57 67 3e
       -0.32402664 -0.013516848 0.2795535 0.22592044
000190 a4 cf 0d 3d 4d 53 1e be 67 2d 3d be 93 f1 b5 3d
       0.03462185 -0.15461464 -0.18474351 0.08883967
0001a0 1f bb b5 3b cc e5 1f bf 3b 2b 21 be 5f 50 80 bd
       0.005545988 -0.6246002 -0.15739147 -0.062653296
0001b0 e6 82 7b bd 47 a7 22 3d 52 1c 8d 3e 1a f2 ca be
       -0.06140413 0.03971031 0.2756067 -0.39637834
0001c0 6b 62 95 3e ab 02 08 be e2 ce 27 bc 06 b9 49 be
       0.2917665 -0.13282268 -0.010242196 -0.19699487
0001d0 5f ac 01 3d 60 62 2b be 3b e5 29 be 64 02 75 3e
       0.031658527 -0.16736746 -0.1659135 0.23926693
0001e0 2a 35 b5 3d 27 a1 95 3e cc 0d 38 be 10 fc 98 bd
       0.08848031 0.29224512 -0.17974013 -0.07469952
0001f0 ad 83 05 be ed 6d 96 be 50 a1 9f be 47 15 54 3d
       -0.13038512 -0.29380742 -0.3117776 0.051778104
000200 f0 fe 83 bc 9f 7a 99 3d b7 48 07 3e f8 c7 79 bd
       -0.016112775 0.07494091 0.13211332 -0.06098172
000210 69 87 4e bd 94 2b ce 3d c6 eb 55 bc 6d 67 45 bf
       -0.050422106 0.100669056 -0.013056701 -0.7711094
000220 f2 3d 05 3e 58 f1 61 3e d7 c4 2a be d8 24 c8 be
       0.13011912 0.22064722 -0.16676651 -0.3909061
000230 2a 8b 1b 3e 34 f9 42 3d f4 3c 56 bd ba dd fb bd
       0.15189806 0.04760094 -0.052304223 -0.1229815
000240 17 de cb 3d b8 27 77 3e 74 28 7d bd a5 65 c0 bd
       0.0995447 0.24136245 -0.061806157 -0.09394387
000250 d0 1f 0f bd 9d 90 f7 bb aa 07 bf bd 7e 5a ec be
       -0.03494245 -0.007555081 -0.09327634 -0.4616279
000260 c3 51 35 3d e1 bc 8d 3d c0 a3 00 3f fe af 61 3e
       0.044267427 0.069207914 0.5024986 0.22039792
000270 1b 96 62 3e 21 93 f6 bd f4 f1 37 be 9e c9 53 3e
       0.22127573 -0.12039781 -0.17963392 0.2068238
000280 8e 95 aa bd e6 e1 fa bd cb ed 76 bd 42 a3 a3 3d
       -0.083293065 -0.12250118 -0.06028537 0.07990123
000290 9c cd 93 3d df 7e 8f 3e 6d 4f 48 3e 34 79 73 bd
       0.07216951 0.28026482 0.19561549 -0.05944176
0002a0 50 66 68 bd 5b 5f a2 3e 4b 2f a5 be 27 e3 e6 bd
       -0.056738198 0.31713375 -0.32262644 -0.112737946
0002b0 3f ea f7 3c e5 b9 4b bd d8 95 22 3e ca 0e 83 be
       0.030263064 -0.04973783 0.15877473 -0.2559722
0002c0 71 51 f1 3d ec 3b a3 3d 22 3a 54 3e 90 07 f1 bd
       0.11783112 0.079704136 0.20725301 -0.117690206
0002d0 0b 72 33 bc c6 0e 10 be 64 a5 16 3e f5 86 84 bc
       -0.010952483 -0.14068136 0.14711529 -0.016177634
0002e0 1c 97 86 3e 3c 0e 72 3e 65 97 da 3d a8 22 7d be
       0.26287162 0.23638242 0.106734075 -0.24720252
0002f0 b2 15 9f 3e 10 33 01 3f 0b 83 cd 3b ba 07 d9 bd
       0.3107124 0.5046854 0.006271725 -0.10597177
000300 3e 77 08 be 45 b2 f7 3d ac c9 97 bd 7a 0d d6 bd
       -0.13326737 0.12094549 -0.07411513 -0.10451789
000310 55 15 dc bd f9 3e a1 bd 55 61 6e be 80 f7 8b 3d
       -0.10746256 -0.07873339 -0.23279317 0.06834316
000320 a3 92 2b 3e 3c 5f 5f bc 9e 1b 7c 3e 2f 49 0f bd
       0.16755156 -0.0136335455 0.2461991 -0.034981903
000330 80 8e 30 3e 43 24 3e be 63 c2 d7 bb e7 c5 e1 3d
       0.1724186 -0.1856852 -0.006584452 0.11024075
000340 3b 9c bc bd f5 b1 b0 be d7 3d 20 be 42 17 d2 3e
       -0.09209486 -0.3451077 -0.1564859 0.4103337
000350 39 c0 49 be a0 9c c8 bd 34 27 b1 3d f8 a4 cb be
       -0.19702233 -0.09795499 0.086500555 -0.397743
000360 49 70 41 be 19 29 0e be 07 38 20 3e ab fc 82 be
       -0.1889049 -0.13882865 0.15646373 -0.25583395
000370 77 2d 87 3d 94 ab b1 3c 53 68 63 bd 24 4a 61 3d
       0.066004686 0.02168826 -0.055519413 0.055002347
000380 5a 76 bf 3d fe 79 ce 3e 45 24 40 be 65 c6 8b be
       0.09348746 0.40327448 -0.18763836 -0.272998
000390 8d 49 dd be c0 00 ca be dc da d4 bd ec 4b 89 3c
       -0.43220177 -0.39453697 -0.103933066 0.016759835
0003a0 a4 59 67 3e 16 44 c1 bd 3c 70 1d 3d d4 d7 1f be
       0.22592789 -0.094368145 0.038437113 -0.15609676
0003b0 78 96 7d be ad 92 24 3e 57 8e ff 3d ff 8a 08 be
       -0.2476443 0.16071577 0.12478321 -0.13334273
0003c0 a1 5c 71 bd 1d 38 d2 bd 97 eb 8a bd c5 88 fa 3c
       -0.05892623 -0.10264609 -0.067832164 0.030582795
0003d0 74 48 ec bd 4c 23 99 3e 99 37 1b be 34 2c 9d 3e
       -0.11537257 0.29909742 -0.15157928 0.30697787
0003e0 22 de 3c bd 42 3b 64 3d 9d 31 86 be bc 5a a6 3e
       -0.04611028 0.055720575 -0.26209727 0.324911
0003f0 a9 20 5e bd 5c 21 cd 3e e8 62 52 be 72 6f d2 3d
       -0.054230366 0.40064514 -0.20545542 0.10275163

conv2d_8/bias:0 f4 [32]
000000 7e 2d 14 bd e4 72 10 bd fb 4c b1 3d ec b0 0b 3b
       -0.036176197 -0.03526582 0.08657261 0.002131517
000010 4a f4 66 3c 11 3b 55 3d 81 a3 9b bb 7f 11 eb ba
       0.014096329 0.052058283 -0.004749716 -0.0017934291
000020 d4 9c de 3d a0 8a a5 3d d6 8f 2a bb 72 93 c3 bd
       0.10869756 0.08083081 -0.0026025674 -0.09549607
000030 ec d7 12 3b ab a0 de bc 54 ef a5 3b b9 93 33 3c
       0.0022406531 -0.027176222 0.0050639305 0.010960513
000040 7d 05 e0 bb d4 74 9e bd f1 d8 ad 3c 1e 3d 35 3d
       -0.0068365918 -0.07737127 0.02122161 0.04424774
000050 55 da a5 3d 74 4e c7 3c 67 ab 2b bd ab a4 82 3c
       0.08098284 0.024329402 -0.04191151 0.01594766
000060 c1 b0 d6 3c e3 d8 8f bd d3 9d b0 3c ce 6d 3d bb
       0.02620733 -0.0702379 0.021559631 -0.002890456
000070 fc 76 81 bc 13 d4 8c 3c ac a8 a0 3b 3b 26 49 3c
       -0.015803806 0.017190969 0.0049029198 0.012277181

conv2d_7/kernel:0 f4 [16, 8, 3, 3]
000000 4d 69 e0 be 94 c5 a2 3d ad 12 d0 bc 66 99 12 be
       -0.43830338 0.07947841 -0.02539953 -0.1431633
000010 f7 af 08 be 34 9c 1d 3e 49 d9 c7 be f8 dc f9 3c
       -0.13348375 0.15391618 -0.39032963 0.030500874
000020 06 d3 7a be e6 71 f5 bc f8 43 98 3e 47 b9 5a be
       -0.24494562 -0.029961538 0.29739356 -0.2135974
000030 c4 82 d2 bd e2 84 a9 3e 53 02 2a 3e 07 30 93 3e
       -0.10278848 0.33109194 0.16602449 0.2874758
000040 7e ff 53 3e bc e1 17 be 40 20 33 3e 5c d1 32 3e
       0.20702931 -0.14832205 0.17492771 0.17462677
000050 4c 32 0f bd e1 8f 82 be f4 69 39 3d ed 87 54 3d
       -0.034960076 -0.25500396 0.04526706 0.05188744
000060 c8 36 e5 be cf 7c a1 bd ae ec 22 3e 11 96 4b be
       -0.44768357 -0.078851335 0.15910599 -0.19881465
000070 4e 03 9e 3d 12 9c 79 3d 63 2b df be 3d e1 d7 3d
       0.07715474 0.060939856 -0.4358779 0.10541008
000080 06 ca b3 3d 9a c6 56 be 1e 40 d6 be 97 c6 bf bd
       0.08778767 -0.20974198 -0.41845793 -0.0936405
000090 73 87 a8 3e eb 19 75 3d 2b f1 9b bd a6 8a 8c 3e
       0.3291584 0.05983917 -0.076143585 0.2744953
0000a0 b7 1e 92 3e 43 e7 25 3d 88 e0 9b be 68 90 0c 3d
       0.2853906 0.04050375 -0.3044474 0.034317404
0000b0 d5 33 2c be 6b 8f 23 3e 64 bd 37 be 9c 16 ad 3b
       -0.16816647 0.15972678 -0.1794334 0.0052822363
0000c0 ef 73 14 3e 3b 9e 0f 3e a8 51 eb bc 71 2a 98 3c
       0.1449735 0.14025204 -0.02872546 0.018574925
0000d0 5d 9f 4d 3d 83 a8 29 bd c1 40 9c 3e 9a 88 d5 3e
       0.05020081 -0.04142047 0.30518153 0.4170578
0000e0 b5 ee 94 3d d6 23 13 3d cd ea 95 3c 79 7d 01 3d
       0.07272092 0.035922848 0.018300438 0.0316138
0000f0 1e 7b f5 be dc aa ba bd bd 5d 8e bc 04 14 4e be
       -0.47945493 -0.0911462 -0.017378682 -0.20124823
000100 3c df 0a 3f 1e 49 9c bd c4 0a 89 bd 4b 8e 12 3e
       0.5424688 -0.076311335 -0.066915065 0.14312093
000110 45 09 32 be 43 ff bc be d6 6e 3e be 25 eb 87 be
       -0.17386349 -0.369135 -0.18596968 -0.2654659
000120 21 06 ec 3d ed 4d d5 3e f7 23 62 be 8b 5c e4 3d
       0.115246065 0.41661015 -0.22084032 0.11150464
000130 34 80 25 3e d7 2d 8e bd ab 6f 21 3e 74 06 f6 be
       0.16162187 -0.06942337 0.15765254 -0.48051798
000140 f4 6d 95 3e 9c bf 2a be 8b 58 c5 3e 28 bc 63 be
       0.2918545 -0.16674656 0.38544115 -0.22239745
000150 40 a0 0b be 4e 62 f4 be 1a b8 d1 3e 22 48 c4 3e
       -0.1363535 -0.4773125 0.4096077 0.38336283
000160 c6 3a 12 3d 57 ce 04 bd 6b 1c ce 3d 83 06 8d 3e
       0.035700582 -0.032423344 0.10064014 0.2754403
000170 87 47 20 be 91 0a a1 3d 18 eb c4 3d 0f 2c 00 bf
       -0.15652286 0.078633435 0.09615153 -0.5006723
000180 e4 f9 b0 3d f2 9d 2c be cf 15 d7 3d b6 8f f6 3d
       0.08641413 -0.16857126 0.105022065 0.120391294
000190 24 85 43 3e e6 7d 83 bd 1e f6 aa 3c 6d 16 00 be
       0.19093758 -0.064204976 0.020869311 -0.12508555
0001a0 d1 41 f0 bd 38 85 7c 3e 01 71 15 bf f3 09 33 be
       -0.117313035 0.24660194 -0.58375555 -0.17484264
0001b0 85 0c 71 3e 5b ec a1 3c 6b ca 1b be 24 9e a7 bd
       0.23539932 0.019766023 -0.15213935 -0.0818446
0001c0 80 51 62 be e5 48 8d be 50 9f 07 3e b2 ff e6 3e
       -0.22101402 -0.27594677 0.13244367 0.45116955
0001d0 9d bc c2 3d 53 3c 89 3e c7 50 3b be a1 b4 9f 3d
       0.095086314 0.26803836 -0.18292533 0.07798124
0001e0 2c 26 9b be f9 47 16 3e 2d f4 3a be 61 e9 06 be
       -0.3030256 0.14675893 -0.18257208 -0.13174964
0001f0 b9 13 8e be 53 d2 0d 3e e4 6f 66 3e fd da ad 3e
       -0.27749422 0.13849764 0.2250362 0.33956137
000200 9d 2f 21 3e aa 4f cc bd 36 c2 40 3e f6 97 83 3c
       0.1574082 -0.09976132 0.18824086 0.016063672
000210 66 98 06 3e ad 29 64 be 75 a9 ab be dd a8 2c be
       0.13144073 -0.22281523 -0.33527723 -0.16861291
000220 f1 8e d7 3d 45 d5 af be 3d ae 6e be 05 54 2c be
       0.10525311 -0.343424 -0.23308654 -0.16828926
000230 3a e3 86 be 65 40 67 3e 18 95 83 be 20 72 03 be
       -0.26345235 0.22583158 -0.25699687 -0.12836504
000240 84 e6 a4 3d 8f 52 94 bd c4 b7 bd bd f0 b9 89 bc
       0.0805178 -0.07242309 -0.09263566 -0.016812295
000250 46 57 9e 3d c9 2f 79 3d 5c 0c a2 be 91 48 b6 3e
       0.0773149 0.060836587 -0.31650054 0.3560224
000260 27 2d bb bd c2 99 0c 3e 49 96 0b 3d 8c e1 ea 3b
       -0.091394715 0.13730529 0.03407887 0.0071680006
000270 59 12 e0 3e 59 a1 e4 3e 05 02 4d 3e 75 22 c6 3d
       0.43763998 0.44654348 0.20020302 0.09674541
000280 5c 34 6b 3e eb 64 a2 ba 87 ea 05 bd 5f 09 a2 3e
       0.22969192 -0.0012389695 -0.032694366 0.31647775
000290 9e 0d a4 be 84 ef 87 3e 7c 1f e9 3e ef 63 0c 3e
       -0.3204164 0.26549923 0.45531833 0.13709997
0002a0 f4 16 ae be db b9 45 bd ac 43 77 3e e0 fc a9 3d
       -0.34001887 -0.04827295 0.24146909 0.08300185
0002b0 9a 83 d7 3c c8 a3 90 3e ff 13 dd 3e 30 fc 62 3e
       0.02630787 0.28249955 0.43179318 0.22166514
0002c0 68 27 96 bd 89 82 4a bd 1d fc eb 3b f4 f3 ec 3d
       -0.07331735 -0.049440894 0.007201685 0.11569968
0002d0 9f 62 b4 be bc 69 1d be 2f b6 0a 3d c2 85 1e be
       -0.35231492 -0.15372366 0.03386515 -0.15480712
0002e0 1b d7 1e 3e 12 fd 78 be f8 6c c7 3c 80 48 05 3e
       0.15511744 -0.24315289 0.024343953 0.13015938
0002f0 00 96 33 3d 44 59 03 3e 46 5a 8f 3e 48 f3 46 be
       0.043844223 0.12827021 0.2799856 -0.19428742
000300 41 6a bf bd ee b9 1f bc c6 69 60 be 06 0c a2 bd
       -0.09346438 -0.009748919 -0.2191535 -0.079124495
000310 61 32 84 bd 9a e3 a3 3d 5f 3d 25 be 39 dd 87 be
       -0.064549215 0.08002396 -0.16136692 -0.26535967
000320 eb d9 83 be d2 50 5a 3e 10 5b f6 3e 83 c5 bc 3d
       -0.25752196 0.21319893 0.4811635 0.0921736
000330 74 df bc be 94 3b 4f 3e e5 44 ad bb eb 09 a9 3d
       -0.3688923 0.20237571 -0.005287754 0.08253845
000340 db da 9e 3d 87 b8 c8 3c f3 c1 73 bd 87 4e cc 3d
       0.07756587 0.024502052 -0.059511136 0.099759154
000350 3f 44 8c 3e bc 2c 06 3f da b9 9c 3e b1 77 c6 3d
       0.27395818 0.5241201 0.30610543 0.09690798
000360 ca 8b 4a 3e 9d 4e 9f 3e 5c 8a 21 3e 51 86 d9 3d
       0.19779888 0.31114665 0.15775436 0.10621322
000370 db 0f ec 3c 95 60 81 3e 65 b2 c6 3e 91 ae 70 3c
       0.028816154 0.25269 0.3880798 0.014690057
000380 ea 9c c1 3d 47 19 cb be e8 31 ed bd 43 06 42 3e
       0.09453757 -0.39667723 -0.115817845 0.18947701
000390 18 66 ea 3e 55 a6 ea bd 4f 75 11 bd 78 37 12 3f
       0.45781016 -0.114575066 -0.035512265 0.5711589
0003a0 88 4e a1 3d 7f 92 09 be 4b 88 59 be 4d 45 1d 3e
       0.07876307 -0.1343479 -0.21243398 0.15358467
0003b0 bd aa 06 3f 4a b5 d0 3e 39 26 1b be 95 fb f4 bd
       0.52604276 0.40763313 -0.151513 -0.11962048
0003c0 7f 1c de 3d f6 dc 0e bf 78 e2 07 bf e7 55 bc be
       0.10845279 -0.5580591 -0.5307994 -0.36784288
0003d0 ad cf 27 be 55 b2 54 3d 0f 08 ed 3d 9b bf 48 3e
       -0.16387816 0.051927883 0.11573803 0.19604342
0003e0 00 77 88 be b2 37 ad 3e 2f 1b 0c 3e 7e 65 b8 bd
       -0.2665329 0.33831555 0.13682245 -0.09003733
0003f0 26 2e 86 be e5 26 6c bd 24 aa 9f 3e 45 ad a6 bc
       -0.26207083 -0.05765428 0.31184494 -0.020346293

conv2d_7/bias:0 f4 [16]
000000 78 bc cd bc 0f 1b df bd 7e 43 90 bd 63 16 26 be
       -0.025114283 -0.10893833 -0.07044123 -0.16219477
000010 2e 48 41 3d 58 7d a7 bb 7c d0 11 bd 66 75 06 be
       0.047187977 -0.0051113777 -0.035599217 -0.13130721
000020 0d 3c ae ba 4f 24 a0 bc 98 b3 ab 3b 1f 20 7a bd
       -0.0013293043 -0.019548563 0.005239915 -0.06106579
000030 8c e7 60 be e7 41 c2 3b d8 34 c6 bc e0 c9 89 be
       -0.21963328 0.0059282663 -0.02419512 -0.2691183

conv2d_6/kernel:0 f4 [8, 1, 3, 3]
000000 49 25 26 3f 3d 92 93 be a0 21 de be 16 17 c3 bd
       0.6490064 -0.28822508 -0.4338503 -0.09525888
000010 f7 c5 27 3f ab a9 a9 be bb e5 e5 3e 0a ff 10 bf
       0.65536445 -0.3313726 0.44901833 -0.5663916
000020 9e 3c 72 be a6 80 68 be 4d 45 37 3e 46 f5 0c bf
       -0.23655936 -0.22705325 0.1789753 -0.5506176
000030 ee 6e 94 be 83 d6 c8 3e 7d 41 a9 be d2 88 12 be
       -0.28990883 0.3922616 -0.33057776 -0.14310005
000040 f6 ca 3a 3f 1d a7 2a 3e 25 4b 21 bf b7 d8 8f be
       0.72965944 0.16665311 -0.63005286 -0.28095028
000050 27 e1 d0 3e 7f e2 37 3f 18 bf 17 bd a4 90 fa bc
       0.40796778 0.7182998 -0.037047476 -0.030586548
000060 6c 1c 67 be ce 8c e6 3e d9 c5 6a 3f de 11 59 bf
       -0.22569436 0.450293 0.9170814 -0.8479289
000070 42 db fd 3e 6b 23 31 3d 57 82 3a 3f cd 91 38 bf
       0.49581343 0.043246668 0.7285513 -0.72097474
000080 67 b2 ec be 3d 58 49 3f 70 aa 33 3f 23 b0 63 bd
       -0.4622986 0.78650266 0.7018194 -0.0555879
000090 70 32 42 3f e9 4d 16 3e 6d 4f 33 3e 05 f1 27 be
       0.7585821 0.14678158 0.17510767 -0.16400535
0000a0 29 fa 55 3f ee 00 11 3f a8 06 99 be 8f 3c 2f bf
       0.8358484 0.56642044 -0.2988789 -0.6845178
0000b0 a1 86 b2 be 94 8d c5 bb a2 6d d3 3d 07 fd 9b bd
       -0.3486834 -0.0060288403 0.10323645 -0.076166205
0000c0 0f e4 1d bf b6 00 07 bf 1a ab f8 3d db 17 2e bf
       -0.61676115 -0.5273546 0.1214201 -0.6800515
0000d0 d1 bd b3 bd f4 9f 2a bf aa 3f b2 3d 7d c4 30 be
       -0.08776439 -0.6665032 0.08703549 -0.17262454
0000e0 dd 3a 4c 3e 3e df c6 3d 78 a0 44 3f cf 54 b6 3e
       0.1994433 0.09710549 0.76807356 0.3561158
0000f0 32 4f f8 3e b4 84 e8 3e 40 af 78 be 42 54 23 3d
       0.4849792 0.45413744 -0.24285603 0.039875276
000100 7d 12 93 be d8 cb 45 3f 85 56 0c be 83 aa 47 bf
       -0.28725043 0.77264166 -0.1370488 -0.77994555
000110 36 f4 ec bd 6f 6c 07 3f c4 10 9f bc 41 8c 02 bf
       -0.11570017 0.5289983 -0.019417174 -0.5099526

conv2d_6/bias:0 f4 [8]
000000 e4 7a 21 bd 14 7d 82 bd fe c9 b8 be 43 5f 13 be
       -0.03942384 -0.06371513 -0.36091608 -0.14391808
000010 b3 ff b1 bb 82 13 2c bd e7 b0 6e be 2f ab 16 3d
       -0.005432093 -0.04201079 -0.2330967 0.036784347
